PPO_continuous_BipedalWalker-v3.pth (torch, 35058 bytes, 11 tensors)

actor.0.weight f4 [64, 24]
000000 d7 d2 b4 bd 2e df 21 bf c4 0f 94 3e 53 7e 5a be
       -0.08829277 -0.6323117 0.28918278 -0.21337251
000010 4e 14 3f 3e 60 9c d0 3d b0 06 70 be ac b9 3f 3e
       0.1866009 0.10186076 -0.23440051 0.18723172
000020 10 02 98 bd e3 82 8b bd 24 d8 e1 3c c2 3d 13 be
       -0.074222684 -0.06812074 0.027568884 -0.14379027
000030 f8 f5 a4 3d f2 22 06 3e eb 7a b9 3b e1 b7 a9 bd
       0.08054727 0.13099268 0.005660405 -0.08287025
000040 98 e5 3a 3d 1d ce 3a 3d ad f4 03 3e 2d e5 36 3e
       0.045629114 0.04560672 0.12886305 0.17860861
000050 aa 5c fd bd 79 a0 e5 3c 1d 67 0c be 0e bc c5 bc
       -0.1237119 0.02803062 -0.1371121 -0.024137523
000060 f7 de 13 3e a8 10 90 3e 2e b1 ca bc 71 9c 6e be
       0.14440523 0.28137708 -0.024742689 -0.23301865
000070 07 31 93 3d 9a a2 9c 3e 77 98 1f 3e ca ff a4 bc
       0.071870856 0.30592805 0.15585504 -0.020141501
000080 f3 91 2c be 0d bb 47 3d 0f e2 e9 bd cd ca 02 3e
       -0.1685255 0.04876237 -0.114200704 0.12772675
000090 76 58 18 be 75 d9 23 3c c7 44 af 3a 6a 0a c9 bd
       -0.14877495 0.010000576 0.0013371938 -0.098164394
0000a0 8f 37 3d be 63 c4 58 3e 10 b7 b4 bd 96 f9 39 3e
       -0.18478225 0.21168666 -0.08823979 0.18161616
0000b0 74 d0 3b bd a0 b7 13 be fc df 8e 3d f8 16 c2 bd
       -0.045853093 -0.14425516 0.069763154 -0.09477037
0000c0 4a 86 90 be 6c b9 23 3f 9b 4f 0d 3e 91 d1 0b be
       -0.28227454 0.63954806 0.13799898 -0.13654162
0000d0 7a 9b 5f be 84 95 7d bb 57 70 91 3e 53 c2 6a 3e
       -0.21836653 -0.0038693855 0.2840602 0.22925691
0000e0 ff d9 82 3b 75 6a 1c be 63 3d 5d 3e 62 55 4f 3e
       0.0039932723 -0.15274985 0.21605448 0.20247415
0000f0 ed 4d 93 3c 1b 04 33 3d 2d ec 47 bc 6e 86 5a be
       0.017981494 0.043705087 -0.012202305 -0.21340343
000100 c9 a0 18 bd b3 31 3f be 1b a4 07 be 61 a5 c1 3a
       -0.03726271 -0.18671302 -0.13246195 0.0014774018
000110 06 d9 df 3d 3b f3 08 be f5 d8 32 3d 44 74 d4 3d
       0.10930066 -0.13374035 0.043663938 0.103737384
000120 6c 45 a9 bd 6e 91 fd 3e ab 4a cd 3d 27 f7 11 bf
       -0.08265194 0.49525017 0.100240074 -0.5701775
000130 6d e6 a6 3d bb 1d d6 bd bf 60 9b 3d 35 f5 22 be
       0.08149419 -0.104548894 0.07586812 -0.15913852
000140 3b 7d 0f be ba c1 47 bd a5 aa 8b 3e db 6b 47 be
       -0.14012615 -0.048768736 0.2727863 -0.19474737
000150 12 a5 fc bc 47 be c7 ba 10 7e fe 3d 07 31 5d bd
       -0.03084043 -0.0015239202 0.12426388 -0.054001834
000160 77 e3 f5 3d 3d 43 95 bb ce 10 e3 bd 14 a7 00 be
       0.12006276 -0.0045551346 -0.110871896 -0.12563735
000170 38 87 db 3d 2e 85 16 be 78 01 0b be 7b 69 24 bd
       0.1071915 -0.14699242 -0.13574779 -0.040139657
000180 ec ae b8 3d 95 6c 91 3e 67 9c cd bc 17 f0 61 3e
       0.09017739 0.28403154 -0.025098993 0.22064243
000190 d7 ad 36 bd bd 8f 61 bd 84 b9 0e be 4e ba a2 bd
       -0.04459938 -0.05506872 -0.13937956 -0.07945691
0001a0 0a ae 8c be 5c 02 1b 3e c3 3d 16 3e fc a9 83 3e
       -0.2747653 0.15137619 0.14671998 0.25715625
0001b0 0d 8b 8e be 27 64 17 3e ab f6 70 bd 6d f7 51 3d
       -0.27840462 0.14784299 -0.05882899 0.051261354
0001c0 5a 12 d1 3d 9f 02 35 3d 78 ea 02 3d 28 b4 05 be
       0.102085784 0.044191953 0.031961888 -0.13057005
0001d0 85 d7 83 3d 49 e9 56 3d 88 8a d9 bd 39 60 0b 3e
       0.064375915 0.05246857 -0.10622126 0.13610925
0001e0 f7 55 84 be af 33 e3 3d cf 07 71 be ce 30 08 bf
       -0.25846836 0.11093842 -0.23538135 -0.5319947
0001f0 3c d4 89 3e 4e bf e4 bd a1 1b 5c 3e c2 e9 9e 3e
       0.26919734 -0.11169301 0.21494915 0.31037718
000200 ad ee de 3d 06 69 a4 bd aa 85 15 be 82 4a 27 3e
       0.108853675 -0.08027844 -0.1460177 0.16337016
000210 d1 db 89 be 8e ff a0 3d 35 18 9e 3e 6b 1f b8 3e
       -0.2692552 0.07861243 0.30877843 0.3596147
000220 03 1a a9 3e dc 12 ae 3e 63 a6 b5 3e 32 16 1c 3d
       0.33027658 0.33998764 0.35478505 0.038107105
000230 bf f7 8b 3e 8d f7 77 3e 0f 9d a7 3e df e4 95 bc
       0.27337453 0.24215527 0.32737014 -0.01829761
000240 a8 9f 9c 3e 45 31 33 3e 2b 3f b5 be 4c 4b ce be
       0.30590558 0.17499264 -0.35399756 -0.40291822
000250 d4 8c c0 bd 9c 21 90 be 2f 0e 80 be 62 16 12 be
       -0.09401861 -0.28150642 -0.2501082 -0.14266351
000260 69 37 10 bc af 95 38 3e b7 dc 83 3d 04 26 6d 3c
       -0.008802273 0.1802585 0.064385824 0.014474396
000270 ae e4 6b bd e3 91 17 3e dd b3 4b 3e d6 5b 2a 3e
       -0.057591133 0.14801745 0.19892831 0.16636595
000280 89 7b 87 3d 00 8e 51 bc 1c 11 3a 3d 03 0f 6e bd
       0.06615359 -0.012790203 0.045426473 -0.058119785
000290 1c 2a b6 bd 33 6e 70 3e f3 b1 bb 3b a2 f9 4d be
       -0.088947505 0.23479538 0.0057280003 -0.20114759
0002a0 f6 90 53 bc bb a7 05 3f 6f 88 5a 3e a1 f9 16 3f
       -0.012912979 0.5220906 0.21341108 0.58974653
0002b0 89 7e 65 bd 1e 17 6d 3e 03 f0 ce bc 41 17 16 bd
       -0.056028876 0.2315335 -0.02526093 -0.03664327
0002c0 b2 eb 2f be b7 57 d3 3d 2b d0 c5 bb 5a 47 27 3e
       -0.17179754 0.10319465 -0.0060367784 0.16335812
0002d0 6a 88 a9 3d d5 91 43 be 80 b7 aa 3d 27 3a e4 bd
       0.08277972 -0.190986 0.08335781 -0.11143904
0002e0 4b 1b 8a 3b a1 fe 36 bc af 3b 5b be fd dc 1e 3c
       0.0042146794 -0.011169107 -0.21409486 0.009696242
0002f0 b3 ab 10 3c a3 dd 2b 3e 26 a8 f4 bd 98 bf 37 3e
       0.008829999 0.16783766 -0.11946134 0.17944181
000300 92 e5 b0 be 5b 9b 83 bd b6 b2 c1 3e c3 32 17 be
       -0.34550148 -0.06426116 0.37831658 -0.14765458
000310 0f 59 ba 3d 29 9e 4e be 7c 36 c0 3c 55 c4 8f 3d
       0.09099018 -0.20177521 0.02346348 0.07019869
000320 2d 5f cd 3d c2 a9 9b be 79 c5 e3 bd 91 b4 b7 bd
       0.10027919 -0.30402952 -0.11121649 -0.08969987
000330 bd 74 f4 bc ff 3f 8e 3d 18 13 4e 3d 93 9e 00 be
       -0.029840821 0.069458 0.050311178 -0.12560491
000340 bb f9 3b bb 39 4c 83 be e4 fa 91 bd 7f e3 b1 bd
       -0.0028682787 -0.2564409 -0.07127932 -0.086859696
000350 4b 16 41 be e6 f6 73 be 09 ff 55 be 80 48 38 3d
       -0.1885616 -0.23824653 -0.2089807 0.044991016
000360 79 38 a6 3d c6 71 f8 bd 77 2b 6c be 86 4b 1d bf
       0.0811624 -0.121310756 -0.23063456 -0.61443365
000370 f8 e3 2d be 57 fc d3 3d de c9 38 bd 13 65 00 3e
       -0.16981494 0.103508644 -0.04511439 0.12538557
000380 4a 04 6d 3d 6f 05 aa 3e 90 6d 3b 3e 79 ca 40 be
       0.05786542 0.3320727 0.18303514 -0.18827237
000390 82 eb 01 bd d2 44 d2 bd 8b 04 cb 3d b2 d9 21 3e
       -0.03171874 -0.10267033 0.09912976 0.158057
0003a0 92 a9 e6 3b 04 f8 05 bd 17 07 fc bd 01 18 e4 bc
       0.0070392573 -0.03270723 -0.1230604 -0.027843477
0003b0 c2 64 e0 3d 73 28 11 3e 78 6c 63 3e 84 6f 7c 3d
       0.10956718 0.14175586 0.22209346 0.061629787
0003c0 f7 8e 0c 3d 75 61 a1 3e e9 f8 2d 3c 3a 1c 16 be
       0.03431603 0.31519666 0.010618427 -0.14659205
0003d0 21 5a 04 bd fa 91 cf 3e 00 03 ac 3e b9 94 93 3e
       -0.032312516 0.4054106 0.3359604 0.28824404
0003e0 f0 6c 3e be 3c 70 b0 bd f8 53 3a be 20 9a dd 3d
       -0.18596244 -0.08615157 -0.18196094 0.10820413
0003f0 fa 14 4b be 43 15 09 be a0 f4 c8 bd d0 99 f8 3d
       -0.1983222 -0.13387017 -0.098122835 0.121387124

actor.0.bias f4 [64]
000000 71 f8 41 be df ab f5 3d 3b c6 d4 3d b6 91 f5 bc
       -0.18942429 0.119956724 0.10389372 -0.029976707
000010 1c e2 1e be 61 a4 f0 bc 8c 78 69 3d 7a f6 0f 3d
       -0.15515941 -0.029375257 0.056999728 0.035147168
000020 af e1 79 3d 8b 63 c3 bd 42 41 81 3e a8 98 18 be
       0.061006244 -0.09540471 0.252451 -0.14901984
000030 9a 30 8e bd 6d b2 09 3e 18 69 64 bd 3b de 5e 3e
       -0.06942864 0.1344697 -0.055764288 0.21764462
000040 53 1f 4d 3e 43 f8 b5 3b ee 42 8e 3d 6f 7d 58 be
       0.2003148 0.0055532767 0.069463596 -0.21141599
000050 97 ab ed 3d d6 a4 90 bd 45 7c 1a 3c 45 4d 6c bd
       0.11604994 -0.0706269 0.009429042 -0.057690877
000060 7d e6 63 3d 3f ed 43 be 49 d4 07 3e f0 0d e9 3d
       0.055639733 -0.19133471 0.13264574 0.113796115
000070 18 d8 30 be d4 cb 71 3d 01 ef 72 be 03 cf bd bd
       -0.17269933 0.059032276 -0.23723985 -0.09268
000080 0f ae 94 3c 6b 5a 35 3e 11 cd 2d 3e 4f 6a 59 3d
       0.018149404 0.17710273 0.16972758 0.0530799
000090 85 8c 3f 3e 06 33 a8 3c 61 1f bc bc 6f b2 04 3e
       0.18705948 0.020532142 -0.022964181 0.12958692
0000a0 1f 84 f8 3d bf 02 d9 3d e1 4f e9 3d 7e af 53 3e
       0.12134575 0.10596227 0.11392189 0.20672414
0000b0 52 91 13 3e 63 66 ac 3c df 05 30 be 93 d3 0a 3e
       0.14410904 0.021044916 -0.1718974 0.13557272
0000c0 fd 51 4c be 81 a3 51 bd c6 1b 43 be 25 a7 7a 3d
       -0.19953151 -0.05118132 -0.19053563 0.061194558
0000d0 0e 6b 53 bd 8f 44 e2 3d f4 0b e2 bd 31 4d 86 3d
       -0.051615767 0.11048233 -0.11037436 0.06557692
0000e0 fc f6 19 3e 4b 9c 4d be 5a c1 b4 3d b3 f9 56 3e
       0.15035623 -0.20079152 0.088259414 0.2099369
0000f0 53 b6 5b 3d ee ae 8f bd 66 1a 84 3d 33 ad 71 3e
       0.053640675 -0.07015787 0.064503476 0.23601227

actor.2.weight f4 [32, 64]
000000 50 ec 9c 3c b3 dd 73 3a 12 a6 23 3e 8f d2 37 3e
       0.019155651 0.000930275 0.1598132 0.17951415
000010 1a 71 ba 3a 1f 6b 08 3d 6c 65 15 3e 25 2c 1b 3b
       0.0014224381 0.033305284 0.1458947 0.0023677435
000020 f1 af 9f 3b 9b 00 10 3e ce 12 0d bd ca 51 ef 3d
       0.004873269 0.14062731 -0.03444176 0.11685522
000030 ff a3 2f 3e 82 d8 40 3e cf 9f 3a be e7 3a 6c be
       0.17152403 0.18832591 -0.18225025 -0.23069344
000040 e0 09 9c 3e 48 c7 fd bc 1a 49 2e 3d 76 e1 78 3e
       0.30476284 -0.030978814 0.042550184 0.24304757
000050 d3 20 88 be db 7c 47 3d c1 4c 68 3e 86 98 86 be
       -0.26587543 0.048703056 0.2268553 -0.2628824
000060 8b c8 53 be ec f4 d1 bd 8b ac 05 be a4 c0 46 3e
       -0.2068197 -0.10251793 -0.13054101 0.19409424
000070 db ff c7 3d c3 c5 a3 be a3 0f 03 bc c1 c8 6c be
       0.097655974 -0.31986818 -0.007999334 -0.23123457
000080 f9 25 4e be f6 a9 ab 3d 12 a3 24 be bc 2b 60 3e
       -0.20131673 0.08382027 -0.16077831 0.21891683
000090 73 64 cd 3c 86 50 7c be a0 0d 53 be 85 64 7d be
       0.025072312 -0.24640092 -0.20610666 -0.24745376
0000a0 84 22 e1 3d 71 61 dd bc c7 f6 12 bd d3 82 98 3b
       0.109929115 -0.027024003 -0.035879876 0.0046542673
0000b0 f1 ba b3 bd 80 b0 8b bd 12 be e0 3d 12 65 c7 3d
       -0.087758906 -0.06820774 0.10973753 0.097360745
0000c0 06 b2 a6 3e 95 d6 00 bd 77 b3 22 be d4 54 32 be
       0.32557696 -0.03145464 -0.15888773 -0.17415172
0000d0 40 05 a4 be 34 57 0e 3e 65 b3 11 bd c6 5a 32 be
       -0.32035255 0.13900453 -0.035571475 -0.1741744
0000e0 c5 fd 7e 3e cd 84 e7 bd 61 82 9f bd 81 4c 51 be
       0.24901493 -0.113046266 -0.0778854 -0.2043934
0000f0 7e 5f 3a 3e e5 17 f7 3d 45 37 a2 be 9a bf d0 3e
       0.1820049 0.120651044 -0.31682792 0.4077118
000100 66 59 84 be 6b 4a 98 3d a4 4c a4 3d 17 27 1e be
       -0.25849456 0.07436069 0.080224305 -0.15444599
000110 da c4 14 3d bb 60 4b bd e2 2a 0f bd d8 a6 2c 3e
       0.036320545 -0.049652796 -0.034953006 0.16860521
000120 e4 65 22 be 3d 95 5a 3d 0a e7 3b bc de c8 4a 3c
       -0.1585918 0.05336498 -0.011468658 0.012376992
000130 53 a5 94 bd 65 0f 49 3d f3 64 bd bb 2d ea 99 3d
       -0.072580956 0.049086947 -0.0057798564 0.075153686
000140 c8 7f e9 bd b4 5e f9 3c bb 8f 7e 3d c9 f6 48 be
       -0.114013255 0.030440666 0.06214879 -0.19625391
000150 fb 20 f1 bd b0 e7 05 3e cd 57 2c 3d f5 27 8d 3d
       -0.11773869 0.13076663 0.04207592 0.06892387
000160 3f 6a 08 be f7 8d 8b bd 4a e3 f4 3c 2b 0f 84 3d
       -0.1332178 -0.06814187 0.029893536 0.064482056
000170 a3 77 db bd 8d 60 a7 3d 52 dc f1 bc d6 fd 56 3e
       -0.10716178 0.081727125 -0.029524002 0.20995268
000180 54 c9 2b bd c5 4c d9 3d 3d 17 c1 3d c1 04 af bc
       -0.04194005 0.10610346 0.094282605 -0.021364572
000190 a9 8b 7b 3d f6 f2 64 bd a5 ee 84 3d c1 8f ac 3d
       0.061412487 -0.055895768 0.0649083 0.084258564
0001a0 5d 8e 41 bc eb 2f a7 3d b4 97 84 3d 44 d2 9d bd
       -0.011813727 0.081634365 0.064742476 -0.077061206
0001b0 fd 63 4d bd c6 c1 15 be 50 ae 11 be 76 94 8b bc
       -0.050144184 -0.146247 -0.14226651 -0.017038565
0001c0 af bc c6 3d 70 8a 50 ba d5 86 5d 3d 7e 3e 51 bd
       0.09703957 -0.0007955199 0.054083664 -0.051084988
0001d0 d9 51 da 3c 15 06 32 be 13 e3 4f bd e6 69 5a 3e
       0.026650356 -0.17385133 -0.050753664 0.2132946
0001e0 e0 19 0f 3d 00 15 80 bd 5d 48 d1 bd 8b 95 89 be
       0.034936786 -0.062540054 -0.1021888 -0.26871905
0001f0 b4 13 b1 3d a7 3b f3 3d 3b de 2f 3d dd a9 d7 3d
       0.08646336 0.11876612 0.042936545 0.10530446
000200 c1 29 70 be 1e 8d a9 3d 89 81 35 3d 56 cb 03 3b
       -0.23453428 0.08278869 0.044312987 0.0020110211
000210 42 23 49 3e 68 90 04 be ad c9 06 3d 27 e2 d2 3d
       0.19642356 -0.12945712 0.032907177 0.102970414
000220 aa c2 0a 3d 75 cd 7f bc f6 4d c7 3c b6 63 5c bd
       0.033877052 -0.01561295 0.024329167 -0.05380603
000230 dd 71 37 bc 42 4b bc 3e 99 39 70 3d 76 59 e5 bd
       -0.011196581 0.36776167 0.05864868 -0.11198704
000240 72 04 b6 bd e0 b1 28 3d fa 63 0d 3e 3b d6 98 3c
       -0.088875666 0.04118526 0.1380767 0.01865684
000250 a0 28 c9 bd 42 6b 1f 3e 44 08 b0 3d 38 0a 84 bb
       -0.09822202 0.1556826 0.085953265 -0.0040295385
000260 cd e3 c6 bc df d9 d7 3b 49 dd 33 3e 19 81 01 3e
       -0.024278546 0.0065872516 0.17564882 0.12646903
000270 d6 31 5a 3c 10 10 2b be 72 d2 44 3e 51 70 02 3e
       0.013317546 -0.16705346 0.19220904 0.12738158
000280 6c e9 ea 3d af 84 bd 3d cd 8a 28 3d e3 7b 11 3d
       0.11470303 0.09253823 0.041147996 0.03551854
000290 c5 82 f2 bd 27 e0 12 be 14 95 35 3d 74 6f 89 bd
       -0.118413486 -0.1434332 0.044331625 -0.06710711
0002a0 51 e0 1e 3e 6a d1 11 3d a3 1d f7 bd 05 2c af be
       0.15515257 0.035600103 -0.120662 -0.34213272
0002b0 ec 50 99 3c a0 56 20 bd ee 9b 14 3e dd 5f 29 3e
       0.018715344 -0.039145112 0.14512607 0.16540475
0002c0 2f 76 0a 3e 9e 26 a4 be 15 1c c9 bd b3 d6 36 bc
       0.13521646 -0.32060713 -0.09819809 -0.011159587
0002d0 41 0d b2 3d 3b ec d2 3c 56 5e 11 3e 2a 5e d6 3c
       0.08693934 0.02574741 0.14196143 0.026167948
0002e0 07 a2 19 be 37 4d 36 3e 35 85 94 bd a9 f7 bc bd
       -0.15003215 0.17802893 -0.0725197 -0.09226925
0002f0 78 40 30 bb 3d 61 6f 3e d1 4a 64 bc a2 a4 11 bd
       -0.0026893895 0.23376937 -0.013933853 -0.035557397
000300 d5 03 17 3d 8b 3b eb bc 3f 1b 9b bc 24 2d a3 be
       0.03686889 -0.028714916 -0.01893389 -0.31870377
000310 7f d9 cf bb e8 cc 1a be 4d b1 95 bd ea 8a 45 3e
       -0.006343066 -0.15117228 -0.07309208 0.19291273
000320 12 43 b0 be 35 fd 5f bd 29 ee 0e be 2f e5 9f bd
       -0.3442617 -0.054684836 -0.13958038 -0.07807385
000330 ce d5 80 bd cf 6f e7 bd 27 4b 90 3d f3 56 53 ba
       -0.0629078 -0.11300623 0.07045584 -0.00080619677
000340 b2 40 4a be d9 58 d7 3c 3f d5 13 3e 4c f3 22 be
       -0.19751242 0.026287483 0.14436816 -0.15913123
000350 59 76 1a 3e 5b 23 a4 3d 45 a9 63 be 77 31 ea 3e
       0.15084209 0.08014556 -0.2223254 0.45740864
000360 d9 bf 18 3e a0 de 10 3e 3e 8a bb 3d 80 d3 82 be
       0.14916934 0.14147425 0.09157227 -0.25551987
000370 85 14 2e bb e8 aa 5b 3e f2 29 67 3d 94 ee ce 3e
       -0.0026562524 0.21451914 0.056436487 0.40416396
000380 0d f6 11 3e 7c 92 da 3d ac fb 7d 3c ef 9b b6 be
       0.14254017 0.10672471 0.015501898 -0.35665843
000390 04 56 f9 bd a4 dd ba 3e e0 85 05 3e 57 6b 67 3e
       -0.12174609 0.36497223 0.1303935 0.2259954
0003a0 df 07 59 be a8 26 c9 bd fb d6 9f 3d b4 50 48 bd
       -0.21194409 -0.09821826 0.07804676 -0.04890509
0003b0 2f 77 de 3d 71 c1 5f bd 62 85 31 3c d4 63 9a bc
       0.10862576 -0.05462784 0.010835024 -0.01884643
0003c0 86 0f 25 be 90 90 ab 3c 46 16 b5 3b 68 cf 36 3e
       -0.16119203 0.020942956 0.005526337 0.17852557
0003d0 4d 16 80 3d b6 06 03 bd 40 92 22 bd 14 03 34 3e
       0.062542535 -0.031988822 -0.039690256 0.17579299
0003e0 4c e2 54 be 56 43 ee 3d 6d 93 d5 3d c3 cf 96 3d
       -0.2078945 0.11633937 0.1042851 0.07363846
0003f0 d7 2e 77 bd 1d ac ca bc 94 80 c4 3d 85 54 db be
       -0.060347404 -0.024740273 0.09594837 -0.4283792

actor.2.bias f4 [32]
000000 3a 3b 3f 3d 87 dc 80 3d 2f 01 47 3c 3a 12 00 bc
       0.046687342 0.06292062 0.012146278 -0.007816846
000010 de dd 65 3c 44 02 cd bd c2 99 13 3d 3c 0b b5 3d
       0.014029948 -0.10010198 0.036035307 0.088400334
000020 b4 25 ee bc 87 dc c9 3c 69 43 69 3c 92 84 0c 3e
       -0.029070713 0.024641288 0.014237263 0.13722447
000030 18 1e 32 3d 46 3d ad bd d2 2a 94 3d 26 da 2c 3d
       0.04348573 -0.084589526 0.0723473 0.04220023
000040 17 63 1d bd da 51 ee 3d 90 e2 07 3e 45 7f ba 3d
       -0.038424578 0.11636706 0.1327002 0.09106306
000050 d2 24 b0 bd 96 7a 53 bc 0f f9 f9 bd 2c fc d3 bd
       -0.08600773 -0.012907645 -0.12205707 -0.10350832
000060 84 fe 73 bd bb d4 12 3d 13 de f9 3c 5e 5d ab bc
       -0.059568897 0.035847407 0.030501401 -0.020918544
000070 a0 52 82 bd 49 27 f3 bd 8f f5 b2 bd 89 b7 6b bd
       -0.06363416 -0.118727274 -0.08738243 -0.05754808

actor.4.weight f4 [4, 32]
000000 64 65 80 bd 07 3b e6 bd 6e be 87 be 27 5e 41 bd
       -0.06269339 -0.11241727 -0.26512474 -0.04720893
000010 0b 17 dd bc 75 ca 84 3d 67 b6 2d 3d 51 02 0b 3e
       -0.026988527 0.06483928 0.04241028 0.13575102
000020 a0 b8 2e 3d c1 eb 33 be 33 0d 09 3e 74 ef db 3d
       0.04265654 -0.17570402 0.13383941 0.107390314
000030 e6 03 99 bd 58 a4 16 be c1 94 5e be 7b 9f 86 bd
       -0.07471447 -0.1471113 -0.21736433 -0.06573387
000040 e6 48 aa 3e fd fd 63 3e cd 85 31 3e 5b e6 0c 3e
       0.33258742 0.22264858 0.17336197 0.13759749
000050 f3 d3 02 be db 55 b5 3e db b0 70 be f3 4e 49 be
       -0.12776165 0.35417065 -0.23504965 -0.19659023
000060 9c f0 b9 3d 2e 9f fa 3d e5 97 d5 bd 5c f5 be 3d
       0.09079096 0.12237392 -0.10429362 0.09324142
000070 74 4c 1a be 01 80 51 be d9 43 8a 3d d0 ff 84 bc
       -0.15068227 -0.20458986 0.06751222 -0.016235262
000080 04 7c 0b be 2e 71 88 be a7 10 2e be 06 9a 43 3e
       -0.13621527 -0.2664885 -0.1699854 0.19101724
000090 d6 e3 33 3e 95 93 c8 3e 02 4c 25 3e a2 b6 af 3e
       0.17567381 0.39175096 0.16142276 0.34319025
0000a0 2d 00 e5 3c 17 d0 b5 3d 3a e0 91 3e 6c 75 59 be
       0.027954185 0.088775806 0.28491384 -0.21236199
0000b0 28 bc 53 3e 9f 3f 6a 3e 56 98 40 be 25 2c de bd
       0.20677245 0.22875832 -0.18808112 -0.10848264
0000c0 f0 dc 54 3d c5 dc 2e bd b7 d1 b7 bd 2c 22 02 be
       0.051968515 -0.04269101 -0.08975547 -0.12708348
0000d0 3b a5 48 bd d7 9d 04 3e 8e 92 ae 3e 40 7b 1b be
       -0.0489857 0.12950836 0.34096187 -0.15183735
0000e0 71 33 93 be d8 70 37 be 4f 8b 86 3e 56 5b a1 3e
       -0.28750184 -0.1791414 0.2627816 0.31514996
0000f0 ab 64 34 be 16 2d 8f bd 17 83 a6 3d 20 7c b0 bd
       -0.17616527 -0.06991021 0.08130472 -0.08617425
000100 fd 0e ad 3e ac 08 54 be c1 73 a1 be c5 02 b1 be
       0.33800498 -0.20706433 -0.31533626 -0.34572425
000110 c3 8b 08 3e 3c 16 00 3e 01 80 b1 be 03 28 15 be
       0.13334565 0.12508482 -0.34667972 -0.14566045
000120 a4 42 82 3d 9d 6b ea 3e 66 43 2c be 18 25 f3 bd
       0.06360367 0.45785227 -0.16822585 -0.118723094
000130 34 cd 5a be af be 51 bd f8 fb 88 3d 8b 27 40 be
       -0.21367341 -0.05120724 0.06688684 -0.18765084
000140 78 4d 23 bd 42 51 29 3e a2 c8 02 3e c0 75 d7 bd
       -0.0398688 0.16534904 0.12771848 -0.10520506
000150 87 46 b3 3e 81 24 23 be 13 39 0d 3d d2 fc a7 3e
       0.35014746 -0.15931894 0.03447826 0.32810074
000160 92 92 8e 3e 87 a8 2b bd e4 b2 46 3e 26 b8 0d be
       0.278462 -0.041908767 0.19404179 -0.13839778
000170 5e ba f3 3d 69 cc 0c be 04 07 dc bc c0 f9 20 be
       0.11900781 -0.13749851 -0.026858814 -0.15720272
000180 c4 00 b5 be 80 71 bd bd e4 6f 1d be 46 69 09 3e
       -0.35352147 -0.09250164 -0.15374714 0.13419065
000190 3e 55 22 3e 95 44 35 3e 71 c0 27 be 4e 73 65 3e
       0.1585283 0.17701943 -0.16382004 0.22407266
0001a0 b0 a6 03 3f c7 ef c9 3b 42 ef 95 bd e0 53 7f bc
       0.5142622 0.006162617 -0.073210254 -0.015583962
0001b0 35 6d 1c 3e 07 6c be 3d 24 ca c9 be 2c f9 9a 3e
       0.15276034 0.09297948 -0.39412034 0.30268228
0001c0 77 cf 00 be c1 b7 cd 3e 5e 16 aa 3e 25 69 40 be
       -0.12579142 0.40179256 0.3322019 -0.1879011
0001d0 be 18 bd be 86 ea dc 3d 1b f4 6b 3d 30 a6 83 be
       -0.3693294 0.10786919 0.057605844 -0.25712729
0001e0 94 fd 35 bc 00 22 44 3e 53 70 e0 3e b4 59 80 bc
       -0.011107821 0.19153595 0.43835697 -0.015667774
0001f0 de a5 7d 3e dc 5c c9 3e cf cb 97 be fd d3 07 bf
       0.24770305 0.3932866 -0.2964768 -0.53057843

actor.4.bias f4 [4]
000000 30 83 32 3c d9 62 de bc e2 1d 10 be fa 54 3a 3e
       0.010895535 -0.027146744 -0.140739 0.18196478

critic.0.weight f4 [64, 24]
000000 56 43 2a 3e f4 ed 53 3e 0d fd 03 be fb e1 42 be
       0.16627249 0.2069624 -0.128895 -0.19031517
000010 77 2a 46 bd ff 14 a3 bd 36 09 81 3e 2f 24 86 3d
       -0.04838034 -0.07962989 0.2520234 0.0654987
000020 c9 29 0a be f7 69 5e be a6 a2 17 3e 90 69 d6 3b
       -0.13492502 -0.2172011 0.14808139 0.0065433457
000030 f1 45 4d be a9 5c 18 be 4a 9e eb bd e6 a3 59 bd
       -0.20046212 -0.14879097 -0.115048006 -0.05313482
000040 12 46 f4 3d 93 59 a8 bd 9f ef 02 3d e3 34 93 3e
       0.11927427 -0.0822021 0.0319668 0.28751287
000050 e8 f1 3f 3d 5c 9b 43 3e d6 08 90 3e 9c a6 65 bb
       0.04686156 0.19102234 0.2813174 -0.0035041934
000060 a0 ea 70 3e ad 39 86 3d 36 e3 59 be 75 01 c5 be
       0.23527002 0.065539695 -0.2127808 -0.38477674
000070 08 4d 7a 3e fd 3f 03 be ca b8 39 be 44 30 65 3d
       0.24443448 -0.12817378 -0.18136898 0.055954233
000080 e0 f4 54 be 7c a0 77 be 7c 69 36 be 46 47 d1 be
       -0.20796537 -0.24182314 -0.17813677 -0.4087469
000090 c7 c0 bd bd e2 0f 36 3e 07 29 37 3e 82 c2 56 3e
       -0.09265285 0.17779496 0.17886744 0.20972636
0000a0 7a 37 65 bd 0f 14 47 3e 10 c7 55 3e f8 c8 bd bd
       -0.05596111 0.19441245 0.20876718 -0.09266847
0000b0 3d 9e 69 3d 24 59 b9 3d cb 72 e7 bc 74 34 09 3e
       0.057035673 0.09050205 -0.02825298 0.13398916
0000c0 f1 b6 27 bf 92 70 1e bf 88 10 98 be 36 de 0a 3e
       -0.6551352 -0.6189052 -0.29700112 0.13561329
0000d0 92 e8 93 bd 6f dc 0d 3d 6a 65 b6 3e ff 3f d5 3d
       -0.07222094 0.03463405 0.35624248 0.10412597
0000e0 96 df b5 3b e9 8e a4 3d 2d f0 a0 be 35 64 b0 be
       0.005550335 0.080350704 -0.3143324 -0.34451452
0000f0 d9 c3 85 be a6 cf df 3d 25 a1 cb 3d 52 25 7e 3c
       -0.26125982 0.10928278 0.09942845 0.015511828
000100 e2 5f 46 be f2 9f a9 3d 13 2d 31 be 5d 98 1f bd
       -0.19372514 0.0828246 -0.1730235 -0.038963664
000110 c6 a9 9a be 56 7b b7 be 2e 3d 94 be ec 0c e8 3d
       -0.30207652 -0.35836285 -0.28952926 0.1133059
000120 52 ba 8a 3e 7e 7c 7b 3f bc 5c e2 be ed 48 ca 3e
       0.27095276 0.98236835 -0.44211376 0.39508763
000130 66 74 d9 3c b7 c5 03 3e 21 b2 99 3e 68 ba 3c 3e
       0.02654476 0.12868391 0.30018714 0.18430483
000140 fe 81 f9 3d 65 02 af 3e f1 f7 96 3c 2d ff 14 3e
       0.12182997 0.34181514 0.018428775 0.14550467
000150 6d e7 9a 3c e0 78 99 3d 00 ad dc bd b1 be d7 bb
       0.01890918 0.07493758 -0.10775185 -0.0065840115
000160 ae 2c b2 bd dd 2c d6 bd c2 6f 77 bd f5 41 ab 3d
       -0.08699928 -0.10457776 -0.060409315 0.0836219
000170 4f 2d ef 3b e2 2a 81 3e c2 24 1b bd 19 48 f2 bd
       0.0072991024 0.2522803 -0.03787685 -0.11830158
000180 5e 63 85 3e 00 ba 50 bd f8 81 b8 bd ea 12 5d be
       0.26052374 -0.050958633 -0.090091646 -0.21589246
000190 57 df b1 be 9d 91 07 3e 75 3f 27 be e5 76 d3 3d
       -0.34740707 0.13239141 -0.163328 0.10325412
0001a0 6f 55 19 bd fd ab b4 3e b2 45 9d bd 9b 6f 01 3e
       -0.03743499 0.35287467 -0.07679309 0.1264023
0001b0 f3 05 8b bd 39 b9 f9 3d c6 02 f8 ba 36 0a 67 be
       -0.06788244 0.121935315 -0.0018921725 -0.22562489
0001c0 46 45 9e 3d ce e8 03 3e a8 f8 1e be b2 da 73 be
       0.077280566 0.12881777 -0.15524542 -0.23813894
0001d0 1b 80 92 be eb 4b 69 be da 22 51 3d f2 3c 8a be
       -0.28613362 -0.22782867 0.051058628 -0.26999623
0001e0 2e 6d e9 3d 53 de fd bd c6 0b 00 be c2 72 94 be
       0.113977775 -0.123959206 -0.12504491 -0.28993803
0001f0 ae 31 d8 bd 9e ad c6 bd 01 e9 7a be ea 8b ad bc
       -0.10556351 -0.097010836 -0.24502946 -0.02118488
000200 98 e3 0e bd e3 db 84 3d 65 b8 73 3e cb ce 46 3e
       -0.03488502 0.064872526 0.2380081 0.19414823
000210 20 88 d7 bd c0 72 8c bd 8b 49 84 3c d5 e0 f6 3c
       -0.10524011 -0.06857824 0.01614835 0.030136505
000220 99 f7 53 3e b3 61 c3 3c ab 58 3d 3e 3c 83 d8 3d
       0.2069992 0.023850298 0.18490855 0.10571906
000230 28 5a 56 be c4 6c a4 be 95 44 ce be 14 f6 e2 3d
       -0.2093283 -0.32114232 -0.402867 0.11082092
000240 af e6 e2 bd 37 92 c8 3e 85 1c f1 be c5 2f 61 bb
       -0.11079156 0.39174053 -0.4709207 -0.0034360748
000250 cb a5 8a bc 71 e6 0b 3a 7f c5 71 3e 93 8d 4c bd
       -0.01692476 0.00053367676 0.23610495 -0.049939703
000260 6d cf 23 3e 45 ca 51 3d a7 02 db bc 3b 3b b0 3e
       0.15997095 0.05121829 -0.026734663 0.3442019
000270 4e d7 95 bd 5c 60 30 bc 98 16 4e 3e dd 9d 93 3d
       -0.07316457 -0.010765161 0.20125806 0.072078444
000280 67 27 2a 3e a0 cb 73 3e c7 a4 29 bd ff 9d 1a 3e
       0.16616593 0.23808146 -0.04141691 0.15099333
000290 d5 5c ac bd c3 2c a9 bd 24 13 85 bd 62 6a 74 3e
       -0.08416144 -0.08260491 -0.064977914 0.23868707
0002a0 47 ce c9 bc 75 18 a7 3d 40 c9 b2 be 19 a6 03 be
       -0.024634494 0.08158962 -0.34919167 -0.1285633
0002b0 d6 d2 9a 3d fd 53 39 bd bb 29 fe bd 58 d4 8e 3c
       0.07559745 -0.045246113 -0.12410303 0.017435238
0002c0 dd 6f 74 be ca 20 b4 be 4f a9 27 bd ae 9b 19 be
       -0.23870797 -0.35181266 -0.04093295 -0.15000793
0002d0 28 5b ba 3d b5 de 4c 3d f9 41 f8 bd 25 0d 85 bd
       0.09099418 0.050017077 -0.12121958 -0.06496648
0002e0 18 57 33 3e e5 f9 e1 3d df 74 49 be 86 cd 99 bc
       0.17513692 0.11033992 -0.19673489 -0.018774759
0002f0 6a ea 5b be 22 99 26 3d 57 8e 66 be 4e e2 82 3e
       -0.2147614 0.040673383 -0.22515236 0.25563282
000300 69 62 43 3e da 49 d5 3e 30 c7 33 bf c8 be 64 be
       0.19080509 0.41657907 -0.7022581 -0.22338402
000310 bc 6c 27 bd 0d 05 db 3d 53 d1 d1 3d 36 24 12 3e
       -0.04087518 0.10694323 0.102450036 0.14271626
000320 ef ac 1d 3d 82 df fc bc 0c b6 8f be 48 ab fa 3c
       0.038495 -0.030868296 -0.28068578 0.030599251
000330 ca 6c 88 bd c0 dd 47 be c9 66 03 3e dc e6 cd bd
       -0.06661375 -0.19518185 0.12832178 -0.100537986
000340 00 ea 68 3d 0e 24 07 bd 85 83 29 be dd 44 4f bd
       0.056863785 -0.03299337 -0.16554077 -0.050602783
000350 35 ce 07 3e 49 b0 7e bd b4 12 98 be 94 4b 68 ba
       0.13262255 -0.062179837 -0.2970177 -0.00088613597
000360 d1 1a 50 be ac 84 1e be 03 d3 cf 3d 6b ca 3d 3e
       -0.2032273 -0.15480298 0.10147669 0.18534248
000370 53 a5 51 3e 02 4a 33 3c fd ce 78 3e b7 c3 b1 3d
       0.20473222 0.010942938 0.2429771 0.08679908
000380 6c e1 eb bc 5c 55 c5 be 62 7d 6e be 06 e3 48 bd
       -0.028794013 -0.38541687 -0.23290017 -0.04904463
000390 8c 76 03 bf f3 11 0f be 9f 32 99 bd 94 f4 56 be
       -0.51352763 -0.13971691 -0.07480358 -0.20991737
0003a0 9e 1e e3 3d 3b fa 40 3d bd ca f3 3d 81 3d ec 3d
       0.11089824 0.04711364 0.11903904 0.115351684
0003b0 ab 00 14 3e 54 17 4f bd b8 07 8a 3e a9 54 22 bd
       0.1445338 -0.050559357 0.26959014 -0.03963152
0003c0 46 d8 3a 3f 1e 26 3e 3f f0 cd 78 be b8 b7 5c bd
       0.7298626 0.7427691 -0.24297309 -0.053886145
0003d0 7b 42 92 3e 67 70 9a 3c 89 fa a3 3e 75 f7 07 3c
       0.28566346 0.018852426 0.3202708 0.008298744
0003e0 10 e6 37 3c 13 2e 45 3d 20 6d 67 3e 4e 07 f8 bd
       0.011224285 0.048139643 0.22600222 -0.12110768
0003f0 b6 38 02 3e 25 b9 ba 3d 89 95 b0 bb f1 15 92 be
       0.12716946 0.09117345 -0.0053889197 -0.28532365

critic.0.bias f4 [64]
000000 97 08 5e be ad bc a2 3e 4f bf 2b 3e 94 88 8e 3c
       -0.21682964 0.31784573 0.16772197 0.01739911
000010 5a ed 23 bb 07 a3 23 3e 03 1e b3 3e 98 2a 9d 3e
       -0.0025013299 0.15980159 0.34983835 0.3069656
000020 2d c5 b3 3d b7 4a e7 bd e0 1f 4c bc 14 08 cb bd
       0.08777843 -0.112935476 -0.0124587715 -0.0991365
000030 6a 4d a0 3d dd a9 be 3d 31 c8 49 3d a8 4c 86 3e
       0.078272656 0.093097426 0.049263183 0.2623036
000040 fb ee 97 3e bb 2d ed 3d 58 ee 2b be 79 1d e5 bc
       0.29674515 0.11580988 -0.1679014 -0.027968155
000050 be 87 43 be 4b 0f 67 be 10 d7 c8 3d a4 53 39 be
       -0.1909475 -0.22564428 0.09806645 -0.18098313
000060 f2 74 88 3e ef 6f 87 be b8 5f f7 bc e6 a2 51 be
       0.26651722 -0.26452586 -0.03019701 -0.20472297
000070 6e 83 d8 3e e0 0e 28 bd ed 82 9a bb 06 c1 02 bf
       0.42287773 -0.04102981 -0.0047153146 -0.5107578
000080 e1 d1 b2 be 1b d8 c7 3c 3c fb 14 bd 08 9e 82 be
       -0.3492575 0.02439504 -0.03637241 -0.25511193
000090 27 11 22 3e 94 52 97 be 6b 51 91 3e a3 06 85 bd
       0.15826856 -0.2955519 0.2838243 -0.064954065
0000a0 35 ca 1c 3e ce b2 3a 3b 96 7a e7 3c ec ae 91 3e
       0.15311511 0.0028487924 0.028256696 0.28453767
0000b0 6c fd 0a bf 03 d6 aa 3c e9 2b 5d be 11 ca f1 3c
       -0.5429294 0.020854002 -0.21598782 0.029515298
0000c0 ce 33 ed bd 73 fd c5 be 7b 11 c5 bd 8e 11 27 3d
       -0.115821466 -0.3866993 -0.09622475 0.040788226
0000d0 51 c5 aa 3e ba 6e cd 3d 80 dd a7 3e 4a 0c 99 be
       0.33353665 0.10030885 0.3278618 -0.29892188
0000e0 b7 f6 80 bd 3a 8d 22 be 99 8b 1e 3e d4 27 eb bd
       -0.06297057 -0.15874186 0.1548294 -0.11482206
0000f0 3f 7c f2 bd b8 fd f3 3d 56 57 cd 3d c1 49 a9 be
       -0.11840104 0.119136274 0.10026424 -0.33064082

critic.2.weight f4 [32, 64]
000000 c9 d6 85 3e af 5d 46 3e 6b 97 cf be 1f 4f 70 3e
       0.2614043 0.19371675 -0.4054521 0.23467682
000010 8b b0 fc bc 08 51 a2 be 38 27 53 3d 95 0c 5c bd
       -0.030845901 -0.31702447 0.051551074 -0.053722937
000020 c5 ad 97 bd 1d 93 15 3e 3e 6e 36 3f 33 4b 0a 3e
       -0.07406191 0.146069 0.71261966 0.13505249
000030 9e 40 00 3f 9e 79 d4 bd 74 aa 10 bd df e6 85 be
       0.500986 -0.10374759 -0.035318807 -0.26152703
000040 dd 07 3b bf 24 43 89 3e 54 89 8f be 61 d6 91 3e
       -0.73058873 0.26809037 -0.2803446 0.2848387
000050 02 bd 25 be 57 49 f6 3e 02 c8 24 be b5 f4 e5 3e
       -0.16185382 0.4810283 -0.16091922 0.4491326
000060 8e 18 a1 3e 3f 3a f9 bd c0 63 28 bf ef 57 13 3e
       0.31464046 -0.12169313 -0.65777206 0.14389013
000070 3f e1 63 3e 56 8a 98 3e 1f 81 2c bf 30 d2 27 be
       0.22253893 0.29793042 -0.67384523 -0.16388774
000080 88 5a 84 3e 0a 16 29 3f 87 c3 9d 3d 8f 60 fe bd
       0.2585032 0.66049254 0.077033095 -0.12420761
000090 52 0b 88 3b eb 79 bf bd f4 36 f2 be 72 ba 1e 3c
       0.00415174 -0.09349426 -0.4730755 0.009688007
0000a0 ea db 8d bd ff f5 29 bd 18 ad 7b be 3b 4c b2 be
       -0.06926711 -0.041494366 -0.24577749 -0.34823784
0000b0 0a 2e 48 bd f8 a5 35 bf d5 dd b2 3d 1a e3 8c bd
       -0.04887203 -0.70956373 0.08733717 -0.06879254
0000c0 cc 5e 05 3f 03 cd 98 3d 58 03 96 bc 32 d1 18 be
       0.52097774 0.07460978 -0.018312141 -0.14923552
0000d0 f8 86 01 3e 4b d7 0f be 03 72 80 3d 72 9b 9b 3e
       0.12649143 -0.14046971 0.06271746 0.30392033
0000e0 cc 46 1e bf 92 63 42 3d 88 83 13 3e 6e 52 a0 3e
       -0.6182678 0.04745824 0.14405644 0.3131289
0000f0 07 0e 07 3f 01 dd 9d be f6 d0 d4 be 19 2c 91 3d
       0.5275578 -0.30832675 -0.41565675 0.07088489
000100 5b 86 8b be a6 4d 61 bd c6 1a 97 3e 58 ab 7b be
       -0.27250943 -0.055005692 0.29512614 -0.24577081
000110 aa 98 47 bb a3 85 7b 3e 43 9e bb bc 2c 2c 39 be
       -0.0030455985 0.24562697 -0.022902614 -0.18083256
000120 0a cb 06 be ca f6 89 be 99 a8 34 bf 04 25 44 bd
       -0.13163391 -0.26946098 -0.7056976 -0.047886863
000130 45 43 1e bf 88 e8 03 3d 60 8c ef 3d 22 68 36 3e
       -0.61821395 0.03220418 0.11696696 0.17813161
000140 5b 98 41 3f f6 6f c7 be cd a2 ef 3d cf 77 cd be
       0.756231 -0.38952607 0.11700974 -0.4013047
000150 5e 45 b6 3d 87 6a dd be 6f 71 47 3d dd 0a de be
       0.088999495 -0.43245336 0.048692163 -0.43367663
000160 38 b6 61 be c6 82 b9 3d bc 73 14 3f 26 8c 09 be
       -0.22042167 0.09058146 0.57989097 -0.13432369
000170 8f 33 34 bd 09 f0 4e be 72 9a 0e 3f e5 5a 0c 3e
       -0.043994483 -0.20208754 0.55704415 0.13706549
000180 6c c6 ff bd 02 4d 1e bf b8 ff ba be a6 d0 5d 3d
       -0.12489018 -0.61836255 -0.36523223 0.05415406
000190 8b a1 c4 3d f9 5a 04 3e 9d 27 18 3f 63 97 94 be
       0.096011244 0.12925328 0.59435445 -0.2902175
0001a0 47 35 ba 3d 62 ab ad 3c 1e 20 c7 3e d3 e1 5b 3e
       0.09092193 0.021199886 0.3889169 0.21472864
0001b0 47 dd 79 bc 73 51 16 3f 54 56 1e be 1b 11 18 3e
       -0.015250511 0.5871803 -0.15462619 0.14850275
0001c0 1b 68 9e be 20 a7 b1 bc bd 13 b6 bd 26 7b 04 3e
       -0.309388 -0.021686137 -0.088904835 0.12937602
0001d0 84 94 43 bd 22 71 b2 3e 76 2a 48 bc 12 73 0a be
       -0.047749057 0.34851938 -0.012217155 -0.13520458
0001e0 0e e1 34 3f b1 71 d5 bd 17 cf 3d be 32 ee 6b be
       0.70655906 -0.104220755 -0.1853603 -0.23040083
0001f0 d0 8e 0c bf d1 f4 97 3e cc 1d 45 3e 9f 66 71 3d
       -0.54905415 0.29678968 0.19249648 0.058935758
000200 90 3a b2 3d 73 2e f6 3d 50 f3 ac bd 47 cd 74 bc
       0.08702576 0.12020578 -0.08444846 -0.01494152
000210 86 67 6f bd eb 48 8c 3d 42 2e 95 3d 8d 87 87 3e
       -0.058448337 0.068498455 0.072842136 0.26470605
000220 e2 08 91 3c 31 f6 92 3d 52 8c ed 3c d6 9b 3a bd
       0.017704431 0.071758635 0.028997574 -0.045558773
000230 c5 b0 14 3e 91 10 74 3e 6a 4a e2 3d b3 24 cc bc
       0.14520557 0.23834445 0.110493496 -0.024919843
000240 d0 a5 08 3e 13 40 cd 3d 50 04 aa bd 96 96 6c bd
       0.13344502 0.10021987 -0.08301604 -0.057760797
000250 d1 50 8b bd e0 ce 90 bd 7f 7b 0c be e1 4e d0 bd
       -0.06802524 -0.07070708 -0.13718985 -0.10171295
000260 f2 8c 5c 3e df 3f 87 3c 4a 0d 24 be ac f8 1a be
       0.21538141 0.016509948 -0.16020694 -0.15133923
000270 90 cb 5f 3e d0 26 10 3e ec 72 a9 3c 75 39 c8 bd
       0.21854997 0.14077306 0.020684682 -0.09776584
000280 6d e3 c1 bd 81 39 e8 3d 7a 59 ee 3d 98 b1 05 be
       -0.09467206 0.11339093 0.1163816 -0.13056028
000290 33 40 30 bd ce 20 9a bd 94 62 9c 3d 2d c1 44 3e
       -0.043029975 -0.07525788 0.0763599 0.19214316
0002a0 4a c1 95 3e 3c b4 60 be e9 e6 95 bd d3 af 01 bd
       0.2924903 -0.21943754 -0.07319433 -0.03166182
0002b0 c2 9e 36 be 85 0e f9 bc ca d3 2d bd b4 1f b5 3d
       -0.17833999 -0.030402431 -0.042438306 0.088439375
0002c0 90 ff 36 bc 7c dd 89 bd 2b ac 20 be a0 5c 74 be
       -0.011169329 -0.06731698 -0.15690677 -0.23863459
0002d0 57 8f 09 3e be d0 83 bd 63 99 b0 3e 2c 9a 73 be
       0.13433586 -0.06436299 0.34492025 -0.2378928
0002e0 b3 39 51 bd 92 98 6d be c4 cd f3 3d 6b 6d eb bc
       -0.051080417 -0.23202732 0.11904481 -0.028738698
0002f0 d3 6a 82 3d 57 d9 12 3e 8f 53 cc 3d 54 2b 74 be
       0.06368031 0.14340721 0.09976875 -0.23844653
000300 ac 92 48 bd 4e e4 8c 3e 48 ef 72 3d 6c 74 48 be
       -0.048968002 0.27517933 0.059310228 -0.19575661
000310 c2 f5 91 bd 94 42 a5 bc 9d 2e f0 3d 3a 56 ae 3e
       -0.07126953 -0.020173348 0.11727641 0.3405016
000320 f2 3a 3f 3e da 15 8c 3c 03 6d 88 3c c7 aa 4e be
       0.1867483 0.017100263 0.016653543 -0.20182334
000330 b9 31 e6 3c fa 31 87 3e 09 c7 7c bb cc b6 0b 3e
       0.028099881 0.26405317 -0.0038570783 0.1364395
000340 b4 7e ca 3d 8b 43 0d 3e 56 fa 9d 3d e3 46 80 3d
       0.09887448 0.13795297 0.077137634 0.062635206
000350 a9 d5 9c 3b 94 3d 2b bd c4 cf e3 bd 6b ef 05 be
       0.0047862125 -0.041806772 -0.111236125 -0.13079612
000360 39 c8 b0 3d fc dc ba bc 0f f7 f2 bd e3 3a a2 3c
       0.086319394 -0.022810452 -0.11863529 0.01980347
000370 b2 8d aa 3e 1f e8 4e 3d 7e eb 48 be 46 74 2e bd
       0.3331123 0.050514337 -0.19621083 -0.042591356
000380 f3 39 4c be 32 04 10 bd d4 db 58 3e 22 87 81 bd
       -0.19943981 -0.03516025 0.21177608 -0.06324603
000390 81 da 13 bd d9 96 5d be b7 75 c9 3d ab 75 c3 3d
       -0.036097053 -0.21639575 0.098369054 0.09543928
0003a0 65 cf 8c 3e e0 33 5e bd 35 d0 c8 3d 94 8b 73 3e
       0.2750198 -0.05424869 0.09805337 0.23783714
0003b0 f1 20 7f be 20 f4 aa 3d e0 76 93 3d 4e c3 09 3a
       -0.2491491 0.083473444 0.07200408 0.0005255238
0003c0 82 1c 2f be fa c2 6c bd 2f 33 00 be ba 09 b1 3c
       -0.17100719 -0.05780313 -0.12519525 0.021611083
0003d0 29 ab 3b 3e d5 d3 35 be 40 1c f9 3d 20 2f a4 bd
       0.18327011 -0.17756589 0.121635914 -0.08016801
0003e0 b6 19 03 be af 85 53 be 83 42 55 3d 2b 44 f8 3d
       -0.12802777 -0.20656465 0.052065384 0.12122377
0003f0 a4 22 c7 3d 6a 8b a4 3e 0a f3 0f 3f 09 6d eb bd
       0.09723404 0.32137614 0.56230223 -0.11495406

critic.2.bias f4 [32]
000000 c1 ff aa 3d be ed e3 bd 03 b0 45 3e 3b c0 55 3e
       0.083495624 -0.1112933 0.19305424 0.20874111
000010 cc 63 ab be 6d 25 14 be c9 f3 38 bd 0a e6 ca 3c
       -0.33474576 -0.14467402 -0.045154367 0.024767894
000020 14 66 87 bd 6e 12 b6 bd 27 6b d4 bd 5b af 0c 3e
       -0.06611267 -0.08890234 -0.10372 0.13738768
000030 f8 c7 29 3e 04 f7 6d bd a3 2d 39 be e0 de 80 3d
       0.16580188 -0.0580969 -0.18083815 0.0629251
000040 18 61 7b be 99 23 1d 3e cf fa c4 3e ae 89 98 be
       -0.24548757 0.1534561 0.38472602 -0.2979254
000050 59 99 33 3d 96 04 cd bd 8c 97 06 be e2 0c 8a 3e
       0.043847416 -0.1001064 -0.13143748 0.26962954
000060 cc f0 a2 be b5 f1 48 3e df 05 94 bd 59 42 36 3e
       -0.31824338 0.19623454 -0.07227682 0.17798747
000070 58 63 51 be 92 79 fc bd dd b6 79 be 5d 83 3e be
       -0.20448053 -0.12327875 -0.24386163 -0.18604799

critic.4.weight f4 [1, 32]
000000 1c 3b 82 3e 8e 1d aa be 17 c7 e2 be 95 cd 44 be
       0.25435722 -0.33225673 -0.44292518 -0.19219048
000010 2d a6 07 3f 40 0a b2 3e 76 f3 ef 3e d0 21 a3 be
       0.5298794 0.34773445 0.46865433 -0.31861734
000020 68 04 f2 bb 60 9e be 3e 66 84 8f be 59 3a ab be
       -0.007385779 0.37230206 -0.280307 -0.33442953
000030 bc 3d 8c be 0d 2f 04 3f b8 ad d8 3e a6 6a c5 be
       -0.2739085 0.51634294 0.42320037 -0.3855793
000040 22 6b f1 3e 3a 3b 0e bf b7 fe c8 be 8d fb d1 3e
       0.47152048 -0.5555912 -0.39256832 0.4101223
000050 8c d5 71 be a9 52 77 3e 2d 64 fc 3e 18 cd 02 bf
       -0.23616618 0.24152626 0.49295178 -0.510942
000060 cc f9 f4 3e 4f 92 b1 be 73 4a 8a 3e b0 ca fa be
       0.4784683 -0.34681937 0.27009925 -0.48982763
000070 c0 fd c2 3e 31 cc 73 3e a0 01 d1 3e a2 32 ee 3e
       0.3808422 0.23808362 0.40821552 0.46523005
