PPO_continuous_['BipedalWalker-v3', 'Ant-v5', 'InvertedPendulum-v5', 'HalfCheetah-v5', 'LunarLanderContinuous-v3'].pth (torch, 31634 bytes, 9 tensors)

fc1.weight f4 [64, 24]
0.1554694 0.13340467 -0.014474217 0.1215869 -0.12846139 0.12931912 -0.786022 0.023777653
-0.037313934 -0.008002285 -0.018976526 -0.13828649 -0.21085963 -0.23862053 -0.06819129 0.14674522
-0.17061242 0.08162594 -0.10014302 -0.17011338 -0.03847788 -0.091811895 -0.11706315 0.26990747
-0.16268384 -0.32891488 0.22852659 0.17726208 0.11710306 -0.060755223 -0.021948118 0.04637944
-0.1670355 -0.24522795 0.04051726 -0.09084387 0.02486426 0.024299838 0.17214136 0.41191924
0.20868231 0.100443386 0.094796315 0.30137065 0.18104011 0.012443741 0.20125847 0.23000534
-0.38891277 0.06493172 0.52108157 -0.073366724 0.05895179 -0.1093642 0.120790504 0.05102983
-0.06567682 -0.00489588 0.026708387 0.26887888 -0.35222992 -0.45385933 -0.18470427 -0.039420072
0.12323639 -0.24491155 0.005231352 0.21856329 0.0010997093 -0.19163434 0.10660002 0.0060071815
-0.32350144 0.22850943 0.19289002 -0.10036983 -0.3103116 -0.1865988 0.28210858 -0.07149488
0.029791594 -0.39077535 0.16878667 -0.034488507 0.062223718 0.12368318 0.20707619 -0.109342314
0.097284935 0.03814382 0.028941793 0.07326196 0.022161579 -0.27013102 -0.27159953 -0.22863191
0.38810256 0.4984195 0.10994721 0.0909708 -0.14783715 -0.29147854 0.40832788 -0.14705394
0.23038548 0.027812906 -0.13127983 -0.10677791 -0.47702235 0.2676456 -0.091058604 0.056786455
-0.24200487 -0.09693818 0.06828499 -0.13091841 -0.049559996 -0.15085797 -0.10341691 0.0016563715
-0.41501126 -0.1884264 0.5393998 0.10138477 0.11086761 0.09899275 0.061252903 -0.12459375
0.010666643 0.19367453 -0.034800973 0.23819056 0.13930884 -0.104420766 -0.01242308 0.029713374
-0.09287052 0.13386045 0.06321935 0.002801478 0.2172964 -0.14814928 0.092976496 -0.25463504
-0.14392686 0.30538192 -0.0973886 -0.081815995 -0.053606384 0.04102797 -0.209549 0.25772515
-0.23668146 -0.059023038 0.07913558 -0.059244543 0.06907271 -0.10657432 0.18695882 -0.03210595
0.042377114 0.117976025 -0.041057173 0.37479696 0.2263219 -0.044274934 -0.29573178 -0.25822333
-0.19952126 0.082761385 -0.052963212 -0.07401922 0.34181792 -0.2769028 -0.015962508 -0.23945983
-0.2501642 0.07592224 0.09565909 -0.034561865 0.29331625 0.09696173 0.21067761 0.44123846
-0.12955819 0.056330107 -0.17409779 -0.022278816 0.29141855 0.13108468 -0.2437953 0.076189436
-0.6615146 -0.19928567 0.45318076 0.35659838 -0.14386387 -0.18547575 -0.001470288 0.005862741
0.049723435 0.038090415 0.17821553 -0.07497875 -0.005244472 -0.08275999 -0.1792942 -0.038220316
0.25842202 0.15507719 0.17163968 -0.24413323 0.2120854 0.13512485 -0.3117043 -0.155538
0.16473924 -0.12978426 -0.4007091 0.03873773 0.088577196 -0.23772828 0.039121933 0.28439933
0.15587722 0.15716666 0.08625167 0.46229288 0.045710813 -0.057308458 -0.21073103 -0.13693109
0.007951414 -0.1556759 -0.1836353 0.14751463 0.19789466 -0.14243205 -0.2786835 -0.23220333
-0.053885482 -0.013878391 -0.22019002 -0.0061653433 0.5629532 0.12677443 0.34668484 -0.065475196
-0.03766716 0.29419583 -0.010283773 0.057561293 0.0426258 0.074087165 0.14278509 -0.03588586
00000000: 5f33 1f3e 3c9b 083e 4425 6dbc 8d02 f93d
00000010: 628b 03be 3b6c 043e bd38 49bf 5ac9 c23c
00000020: 7fd6 18bd 041c 03bc a974 9bbc f99a 0dbe
00000030: 96eb 57be f158 74be e0a7 8bbd 6144 163e
00000040: 06b5 2ebe 802b a73d c917 cdbd 3432 2ebe
00000050: fb9a 1dbd e007 bcbd cebe efbd 5031 8a3e
00000060: 9896 26be 8867 a8be e002 6a3e 3184 353e
00000070: bbd3 ef3d 78da 78bd 8acc b3bc 5ef8 3d3d
00000080: 5b0b 2bbe 091d 7bbe 6df5 253d 5a0c babd
00000090: 22b0 cb3c 7410 c73c d345 303e 14e7 d23e
000000a0: d1b0 553e 43b5 cd3d 9224 c23d 414d 9a3e
000000b0: 9462 393e d5e0 4b3c b316 4e3e 8586 6b3e
000000c0: 931f c7be ecfa 843d 9a65 053f 4b41 96bd
000000d0: 6f77 713d 56fa dfbd 0361 f73d a804 513d
000000e0: 9281 86bd 9e6d a0bb 8ccb da3c 7eaa 893e
000000f0: 7b57 b4be 4060 e8be 1e23 3dbe f176 21bd
00000100: 5c63 fc3d 18ca 7abe c36b ab3b 0ecf 5f3e
00000110: 1f24 903a cb3b 44be 1c51 da3d e4d7 c43b
00000120: fba1 a5be 60fe 693e f684 453e b38e cdbd
00000130: 29e1 9ebe c113 3fbe 8970 903e e86b 92bd
00000140: 800d f43c b513 c8be 6ad6 2c3e d243 0dbd
00000150: 4cde 7e3d 9b4d fd3d c80b 543e ddee dfbd
00000160: 533d c73d b23c 1c3d 5717 ed3c 5e0a 963d
00000170: 338c b53c 9d4e 8abe 180f 8bbe 7c1e 6abe
00000180: 61b5 c63e d730 ff3e 012c e13d e64e ba3d
00000190: 9f62 17be ad3c 95be 5a10 d13e 4f95 16be
000001a0: 2cea 6b3e e4d7 e33c 386e 06be 60ae dabd
000001b0: 463c f4be d808 893e ef7c babd ea98 683d
000001c0: 20d0 77be 8687 c6bd 00d9 8b3d 7a0f 06be
000001d0: 6cff 4abd 837a 1abe 3fcc d3bd 9b1a d93a
000001e0: 5b7c d4be daf2 40be 1b16 0a3f d1a2 cf3d
000001f0: 8f0e e33d b6bc ca3d 53e4 7a3d 022b ffbd
00000200: 25c3 2e3c 9e52 463e 778b 0ebd 3ae8 733e
00000210: faa6 0e3e 8eda d5bd 2d8a 4bbc 7669 f33c
00000220: e632 bebd b712 093e 2679 813d 0099 373b
00000230: f382 5e3e 72b4 17be 766a be3d 865f 82be
00000240: 9061 13be 055b 9c3e ad73 c7bd 258f a7bd
00000250: 5e92 5bbd f20c 283d 0394 56be 8df4 833e
00000260: a05c 72be 24c2 71bd d611 a23d 68aa 72bd
00000270: fe75 8d3d a343 dabd 2272 3f3e 8781 03bd
00000280: a093 2d3d 6a9d f13d 912b 28bd 63e5 bf3e
00000290: eec0 673e a259 35bd 286a 97be d935 84be
000002a0: 4d4f 4cbe cd7e a93d f4ef 58bd 6497 97bd
000002b0: c202 af3e 34c6 8dbe cec3 82bc f534 75be
000002c0: 8615 80be 1f7d 9b3d eae8 c33d be90 0dbd
000002d0: 8c2d 963e df93 c63d dfbb 573e 02ea e13e
000002e0: e7aa 04be 66ba 663d b146 32be 1082 b6bc
000002f0: d034 953e 103b 063e 7aa5 79be 3509 9c3d
00000300: 0559 29bf 8b11 4cbe 4f07 e83e 1094 b63e
00000310: 0d51 13be 5bed 3dbe aeb6 c0ba 3c1c c03b
00000320: cdaa 4b3d b204 1c3d 227e 363e 758e 99bd
00000330: d2d9 abbb 127e a9bd e698 37be e88c 1cbd
00000340: e44f 843e 8ecc 1e3e 50c2 2f3e 10fe 79be
00000350: ea2c 593e 2b5e 0a3e b597 9fbe 5a45 1fbe
00000360: 67b1 283e 2ae6 04be be29 cdbe 74ab 1e3d
00000370: f667 b53d 0b6f 73be 523e 203d ca9c 913e
00000380: 479e 1f3e 4cf0 203e b7a4 b03d a7b1 ec3e
00000390: 433b 3b3d 46bc 6abd e0c9 57be aa37 0cbe
000003a0: a646 023c 8169 1fbe e40a 3cbe 130e 173e
000003b0: e6a4 4a3e b5d9 11be 9baf 8ebe b6c6 6dbe
000003c0: 06b7 5cbd 3162 63bc 7e79 61be a606 cabb
000003d0: b31d 103f 28d1 013e ad80 b13e dc17 86bd
000003e0: e148 1abd d6a0 963e 457d 28bc 64c5 6b3d
000003f0: 6498 2e3d 03bb 973d 4136 123e 0dfd 12bd

fc1.bias f4 [64]
0.028284166 0.08537402 -0.025140861 -0.047217228 0.066357575 0.13506854 -0.04419173 -0.00076637627
0.09743737 0.006182513 0.13087751 -0.0073238597 0.0317193 0.020275297 -0.06659285 0.0410439
0.0461024 -0.031963464 -0.050199047 -0.026271978 0.007530809 0.09712356 0.102911875 0.07860346
0.1873144 0.13108324 -0.15993404 -0.09666119 -0.07550585 0.090553775 0.09027218 -0.01642257
0.092083335 0.094254404 -0.059294794 -0.053270172 -0.14007606 0.09344232 0.03241144 -0.064558215
-0.047754757 0.16552155 -0.18223251 -0.0681379 0.025394358 0.10198856 -0.16425046 0.052307434
0.08753152 0.035994824 0.050832327 0.06724215 0.04518294 -0.033636533 -0.055054262 -0.09483973
0.025652327 0.16527955 0.22855847 -0.046743285 -0.037757512 -0.0630758 0.1155781 0.12721784
00000000: 32b4 e73c 93d8 ae3d 35f4 cdbc da66 41bd
00000010: 7be6 873d 684f 0a3e 6302 35bd a4e6 48ba
00000020: 3e8d c73d ae96 ca3b c104 063e fdfc efbb
00000030: 19ec 013d 6118 a63c d561 88bd a61d 283d
00000040: dfd5 3c3d 1fec 02bd 849d 4dbd 5538 d7bc
00000050: 01c5 f63b b8e8 c63d 76c3 d23d dafa a03d
00000060: 59cf 3f3e af3a 063e c0c5 23be 4df6 c5bd
00000070: d0a2 9abd 4274 b93d 9fe0 b83d a088 86bc
00000080: 3096 bc3d 7408 c13d 19df 72bd d331 5abd
00000090: 1970 0fbe b05e bf3d dcc1 043d 1937 84bd
000000a0: 7e9a 43bd 7b7e 293e 299b 3abe e28b 8bbd
000000b0: d407 d03c 61df d03d 4631 28be 5240 563d
000000c0: ba43 b33d 4f6f 133d 8f35 503d 41b6 893d
000000d0: bf11 393d 76c6 09bd 9480 61bd 553b c2bd
000000e0: d424 d23c 0b3f 293e 3b0b 6a3e e375 3fbd
000000f0: 9fa7 1abd e32d 81bd 36b4 ec3d 6545 023e

fc2.weight f4 [64, 64]
0.12968391 0.30922318 0.1880496 0.13161612 -0.315997 0.05358803 -0.12649374 -0.20922314
-0.23026091 0.1993242 0.0762694 -0.05711344 0.2627432 0.17830977 -0.17723043 -0.046468955
0.26513413 -0.05085199 0.026025465 0.10295822 -0.02363027 -0.25122353 0.10979784 0.10383083
0.363593 -0.01591081 -0.48120865 -0.00038912092 0.095860176 0.19832608 -0.08927551 0.0033892125
0.09853789 0.12868813 -0.01779685 -0.03207559 -0.10182895 -0.22775641 -0.16258319 -0.07490465
0.15070419 0.20289394 -0.05481098 -0.2565131 -0.021929244 0.46168116 0.053520642 -0.056025233
0.15670593 -0.07317479 -0.10799154 -0.0079463525 -0.026887022 -0.2684905 -0.15651861 0.22189642
0.10983005 -0.1345046 -0.020753374 -0.0016397511 -0.46539956 -0.020871263 0.43236288 -0.030949246
-0.12416051 -0.09379422 -0.07976595 0.20068637 0.17511436 -0.0018280193 0.113187686 -0.043595985
-0.30584943 -0.26961836 -0.078087814 -0.10837391 0.03197171 0.03942349 -0.004378092 0.035612185
0.06889164 0.006476826 0.19874589 -0.016066223 -0.06334976 0.090709 0.12534805 -0.033897262
0.20985283 0.114205986 -0.23769918 -0.29257402 0.05367856 0.3150404 -0.11032636 -0.04517651
-0.08432363 0.018924616 -0.2553497 -0.17778257 0.0066629653 0.21036722 -0.31053585 0.3036678
-0.12973757 0.044587813 -0.14166974 -0.20540537 0.17199767 0.1243427 -0.1366337 0.08280857
-0.15276475 -0.2527045 -0.104531035 0.06893442 -0.15451705 -0.44583067 0.23700535 -0.24522051
-0.22407873 0.5938759 0.29196143 -0.25716442 -0.031862933 -0.12760732 0.0059668035 0.16540958
0.024144113 0.07310622 -0.0936398 0.12670729 -0.12090052 -0.17948517 0.095111765 0.10127114
0.2536275 0.1462463 -0.3204787 -0.30346736 -0.16337816 0.15815766 0.065618366 -0.26869178
0.16691041 0.07180998 -0.19404146 0.14446627 -0.060332455 0.08336689 -0.035557453 0.053047102
-0.3113491 -0.1160858 -0.091357194 0.23034495 0.28744256 0.0041302014 0.08751887 0.17060222
0.1951147 0.23622957 0.18991695 -0.28089783 -0.20342608 0.1046102 -0.10113068 0.39706224
0.036613137 -0.16403149 -0.05808181 -0.038668007 -0.08237949 -0.1788843 0.18000378 0.27580225
0.18450435 0.6338531 0.018863386 0.055160746 0.047687937 -0.25700927 0.21864088 0.07017818
-0.103802904 0.011356855 -0.035646345 -0.0966506 0.22531345 -0.072294496 0.29877007 0.04643708
0.14538942 -0.2970854 -0.08902332 -0.2138275 -0.100447886 -0.1239059 -0.115162015 -0.13130778
0.0031160894 0.10884159 0.053423893 0.11405498 0.44729155 0.16126408 -0.046653304 0.15971175
-0.16259782 0.05888198 -0.15690874 0.0016652432 0.2155455 -0.24492995 -0.24715064 -0.11658108
0.035591923 0.08466569 -0.12445837 -0.0079215905 0.08381522 0.020104105 -0.29755625 -0.0903912
-0.053231135 -0.14172934 -0.2584404 0.30501705 -0.17145969 -0.10041211 -0.44563505 -0.14856975
0.2806707 -0.018332621 -0.07113574 0.2809129 0.044532157 -0.3606766 0.17145 -0.16486396
0.076350234 -0.018392753 -0.028118644 0.10769213 0.19672532 -0.104428224 0.23136741 0.08605127
0.17713803 -0.05762531 -0.11814017 -0.23963031 0.37926283 -0.10609925 0.041454077 0.35336322
00000000: dccb 043e 8052 9e3e 1390 403e 60c6 063e
00000010: 5cca a1be 1f7f 5b3d 9387 01be 973e 56be
00000020: 84c9 6bbe a51b 4c3e 2233 9c3d c8ef 69bd
00000030: 4786 863e d696 363e e57b 35be 3b56 3ebd
00000040: a9bf 873e 2d4a 50bd 5b33 d53c c2db d23d
00000050: 4594 c1bc 5fa0 80be b1dd e03d 42a5 d43d
00000060: dd28 ba3e 6357 82bc fb60 f6be ed02 ccb9
00000070: 5752 c43d fe15 4b3e 14d6 b6bd 8d1d 5e3b
00000080: 3cce c93d d2c6 033e b3ca 91bc b261 03bd
00000090: b28b d0bd fa38 69be 357c 26be 9c67 99bd
000000a0: 3352 1a3e 6ec3 4f3e 7a81 60bd af55 83be
000000b0: f5a4 b3bc 7961 ec3e 7638 5b3d b77a 65bd
000000c0: 8577 203e aadc 95bd ab2a ddbd 6b31 02bc
000000d0: 2c42 dcbc 9677 89be 6a46 20be d138 633e
000000e0: 94ee e03d 93bb 09be fb02 aabc ebec d6ba
000000f0: da48 eebe 36fa aabc ab5e dd3e 4689 fdbc
00000100: de47 febd 2f17 c0bd 555c a3bd ba80 4d3e
00000110: 2e51 333e 269a efba f2ce e73d b491 32bd
00000120: 4c98 9cbe 6b0b 8abe 81ec 9fbd 24f3 ddbd
00000130: c5f4 023d 877a 213d 1976 8fbb 15de 113d
00000140: 0f17 8d3d 8e3b d43b 0b84 4b3e 509d 83bc
00000150: 85bd 81bd a4c5 b93d 3d5b 003e dbd7 0abd
00000160: a9e3 563e d4e4 e93d 6a67 73be 43cc 95be
00000170: 0dde 5b3d fa4c a13e c9f2 e1bd 010b 39bd
00000180: deb1 acbd cc07 9b3c 32bd 82be a20c 36be
00000190: 0155 da3b 816a 573e 8efe 9ebe 597a 9b3e
000001a0: edd9 04be b6a1 363d df11 11be c955 52be
000001b0: 2820 303e 63a7 fe3d b4e9 0bbe 8a97 a93d
000001c0: 5d6e 1cbe 7c62 81be 5e14 d6bd 7d2d 8d3d
000001d0: b839 1ebe eb43 e4be 88b1 723e 161b 7bbe
000001e0: e574 65be 4008 183f f87b 953e 0eab 83be
000001f0: b582 02bd 7eab 02be 2d85 c33b 2161 293e
00000200: e0c9 c53c b7b8 953d 39c6 bfbd 8ebf 013e
00000210: b19a f7bd f6ca 37be f5c9 c23d 3e67 cf3d
00000220: 77db 813e 97c1 153e c915 a4be 1360 9bbe
00000230: 9b4c 27be 15f4 213e ec62 863d f891 89be
00000240: 90ea 2a3e 1c11 933d ceb2 46be f7ee 133e
00000250: 2a1f 77bd 43bc aa3d b1a4 11bd eb47 593d
00000260: 2669 9fbe 64be edbd 7b19 bbbd 8cdf 6b3e
00000270: ac2b 933e a456 873b 183d b33d 59b2 2e3e
00000280: 26cc 473e 2ae6 713e 9779 423e d7d1 8fbe
00000290: ed4e 50be df3d d63d 9a1d cfbd be4b cb3e
000002a0: a8f7 153d dff7 27be 31e7 6dbd 5862 1ebd
000002b0: 94b6 a8bd 722d 37be e952 383e f435 8d3e
000002c0: b5ee 3c3e 3244 223f 6387 9a3c 3cf0 613d
000002d0: 6d54 433d b896 83be 65e3 5f3e 94b9 8f3d
000002e0: 9e96 d4bd 1a12 3a3c e701 12bd c0f0 c5bd
000002f0: 92b8 663e 230f 94bd 64f8 983e cf34 3e3d
00000300: f7e0 143e 941b 98be dc51 b6bd 99f5 5abe
00000310: 9fb7 cdbd 60c2 fdbd 10da ebbd 8c75 06be
00000320: 4e37 4c3b 57e8 de3d 03d3 5a3d a895 e93d
00000330: 6603 e53e 6922 253e 8917 3fbd 7a8b 233e
00000340: 0b80 26be 3b2e 713d afac 20be 4a44 da3a
00000350: f6b7 5c3e ebce 7abe 0f15 7dbe 10c2 eebd
00000360: d6c8 113d 3565 ad3d 08e4 febd 8fc9 01bc
00000370: 50a7 ab3d 5db1 a43c 4b59 98be 051f b9bd
00000380: e408 5abd 7f21 11be 4d52 84be 322b 9c3e
00000390: 2193 2fbe dda4 cdbd 472a e4be ab22 18be
000003a0: 12b4 8f3e 4b2e 96bc 9daf 91bd d1d3 8f3e
000003b0: 5a67 363d 9aaa b8be 9790 2f3e 19d2 28be
000003c0: 835d 9c3d 66ac 96bc 1259 e6bc b18d dc3d
000003d0: 5d72 493e 77de d5bd 94eb 6c3e a63b b03d
000003e0: ac63 353e 8408 6cbd 79f3 f1bd a661 75be
000003f0: bd2e c23e 904a d9bd c0cb 293d 06ec b43e

fc2.bias f4 [64]
0.1800235 0.13529304 -0.014949995 -0.04906315 -0.027299559 0.018203417 -0.14252932 0.060277797
-0.09655348 -0.08228799 0.17227356 -0.08840489 -0.10413374 -0.035125934 0.17841418 0.00040652673
0.00061961135 -0.056217734 -0.0030822759 0.045408733 -0.22206251 -0.020430533 0.011353009 0.19246657
-0.1575248 -0.069363065 0.061828446 0.020712512 -0.12975782 -0.088210665 -0.008285965 0.07822919
-0.0089992 0.02721227 -0.037733894 -0.0047808117 -0.08263933 -0.09298475 -0.09335774 0.07195672
-0.04465845 0.087852806 -0.1603948 0.02351698 -0.2444809 0.23681295 0.0015678222 -0.038716532
-0.04264652 -0.15131372 -0.037782677 -0.124340765 -0.03647087 -0.043606754 -0.14146441 -0.074535646
0.028247328 0.014766041 -0.058603358 0.032358237 -0.033231545 -0.039894003 0.071526706 0.10729906
00000000: 1558 383e 428a 0a3e d3f0 74bc 71f6 48bd
00000010: 53a3 dfbc 551f 953c 35f3 11be dae5 763d
00000020: d5bd c5bd 9b86 a8bd 7b68 303e 9f0d b5bd
00000030: 1244 d5bd 36e0 0fbd 35b2 363e 1823 d539
00000040: 6a6d 223a 9144 66bd 0200 4abb 82fe 393d
00000050: 5b64 63be ef5d a7bc f901 3a3c f515 453e
00000060: 2e4e 21be 390e 8ebd d33f 7d3d 49ad a93c
00000070: 3cdf 04be cba7 b4bd dbc1 07bc a036 a03d
00000080: 6171 13bc 44ec de3c db8e 1abd 5ba8 9cbb
00000090: cf3e a9bd ca6e bebd 5832 bfbd 0b5e 933d
000000a0: c7eb 36bd 2cec b33d 893e 24be afa6 c03c
000000b0: 3359 7abe 187f 723e 627f cd3a 3a95 1ebd
000000c0: 1eae 2ebd fcf1 1abe 02c2 1abd 5fa6 febd
000000d0: 7b62 15bd ff9c 32bd 0cdc 10be 25a6 98bd
000000e0: f166 e73c 44ed 713c 130a 70bd 128a 043d
000000f0: cd1d 08bd e567 23bd 987c 923d 9cbf db3d

critic.weight f4 [1, 64]
0.03954916 -0.082309775 -0.12792663 0.09314482 -0.055799305 -0.2965196 0.0064630997 -0.065969676
0.10919813 0.15807685 0.013238247 0.10290819 0.17082287 0.23568545 -0.011385627 -0.22386603
-0.35772324 0.13253632 -0.18564278 0.28759834 0.0199408 -0.14194988 0.14707144 -0.023521565
-0.013579069 0.11164665 -0.2618464 -0.21155252 -0.014201393 0.21271616 0.13873798 -0.08772706
-0.07539188 0.22363897 -0.062222883 -0.03664952 -0.00962669 0.05590788 0.076825134 -0.09920097
0.3419993 -0.1708812 0.075982414 0.21210712 0.014321552 -0.0053341417 0.10140809 0.0066803074
0.22025503 -0.060297515 0.19399862 0.069663614 0.15213177 -0.10390688 -0.05988358 0.1387669
-0.2820626 -0.25484788 0.1887114 -0.06789438 0.19067985 0.046818487 -0.22312932 -0.0050480566
00000000: 4dfe 213d 0792 a8bd 33ff 02be b6c2 be3d
00000010: d08d 64bd 6bd1 97be 69c8 d33b 1c1b 87bd
00000020: 45a3 df3d e6de 213e 3be5 583c 87c1 d23d
00000030: 31ec 2e3e 8757 713e c88a 3abc 233d 65be
00000040: 8027 b7be 9ab7 073e 2419 3ebe 1740 933e
00000050: e35a a33c 4f5b 11be e599 163e 4cb0 c0bc
00000060: be7a 5ebc 00a7 e43d bb10 86be 39a1 58be
00000070: f6ac 68bc 44d2 593e 5411 0e3e 3faa b3bd
00000080: 0f67 9abd 9d01 653e 6cdd 7ebd cf1d 16bd
00000090: 44b9 1dbc a9ff 643d 7f56 9d3d e129 cbbd
000000a0: 881a af3e 7bfb 2ebe ab9c 9b3d 9c32 593e
000000b0: f1a4 6a3c 06ca aebb 0baf cf3d 7be6 da3b
000000c0: 898a 613e 87fa 76bd 93a7 463e ccab 8e3d
000000d0: 6ec8 1b3e 21cd d4bd 7c48 75bd e918 0e3e
000000e0: 826a 90be 6c7b 82be 903d 413e 350c 8bbd
000000f0: 9441 433e bec4 3f3d 037c 64be 2b6a a5bb

actor_A.weight f4 [4, 64]
0.063068144 0.045470305 -0.0070853676 -0.017298788 -0.018834699 -0.0019246358 -0.051394407 0.0126264
-0.036588218 -0.04642178 0.048602097 -0.011781405 -0.05709315 0.010443021 0.034574978 -0.016028149
-0.009659267 -0.024477115 -0.0137111675 0.0120742 -0.042851668 -0.036594205 0.007971614 0.036350764
-0.018905526 -0.02242666 0.020484067 -0.0001652214 -0.030787123 -0.035686243 -0.0061485968 0.008633452
-0.015913675 0.012395264 -0.015155524 -0.013839948 -0.004485801 -0.018190462 -0.023687135 0.023472765
0.008344033 0.025786513 -0.04992304 0.04046703 -0.035205435 0.07054901 0.0050036963 0.0028535693
-0.012387746 -0.056016646 0.02306245 -0.023100846 -0.010195295 0.0022389342 -0.047928475 -0.023450168
0.000938665 -0.0025657392 -0.028474756 -0.004953687 -0.0010946136 -0.0055678044 0.047085285 0.029958658
0.06868451 0.04459258 -0.0052987947 -0.014362273 -0.022686906 -0.0028182205 -0.048198972 0.013740702
-0.030018527 -0.037916105 0.040223625 -0.009997616 -0.041513022 0.007478671 0.031739123 -0.010388589
-0.01502049 -0.0273646 -0.0154226385 0.016937507 -0.03270682 -0.03240726 0.017867787 0.030468937
-0.02421833 -0.022183055 0.027833369 0.0007501942 -0.030731196 -0.037500326 -0.0058696223 0.014454336
-0.017628005 0.02683037 -0.01644139 -0.01816811 -0.0062257764 -0.023650322 -0.02094193 0.01623368
0.011048485 0.031662315 -0.03697677 0.032773558 -0.041763615 0.08871664 -0.0015771393 -0.0070378818
-0.011862801 -0.045714945 0.029624952 -0.02369241 -0.011920441 0.003897867 -0.039822157 -0.024814308
0.0063160984 -0.008725618 -0.026688125 -0.005774471 0.0034103075 -0.010930461 0.048178926 0.022145469
0.06736348 0.04470743 -0.0069382 -0.01119299 -0.023982018 -0.0009780809 -0.04227124 0.012528924
-0.025855038 -0.037020616 0.03992643 -0.011268914 -0.05767333 0.009505649 0.034103863 -0.009180592
-0.010163482 -0.02465694 -0.014026249 0.011888312 -0.037052743 -0.030628312 0.0100665195 0.036336325
-0.024830678 -0.025694333 0.027474001 0.0010345884 -0.028730815 -0.032546848 -0.007363833 0.01072446
-0.017287636 0.021616776 -0.012471243 -0.01710051 -0.0029858276 -0.018830953 -0.018428866 0.021223681
0.0132500585 0.025836598 -0.039208006 0.03754984 -0.05258837 0.08057311 -0.0018967284 -0.002833313
-0.00714221 -0.04541091 0.02553452 -0.027513718 -0.009169973 -0.0019804323 -0.037999503 -0.02384506
0.0060272454 -0.003982602 -0.026696468 -0.0064015454 0.0026373432 -0.010975328 0.046199914 0.028083555
0.055104498 0.05255478 -0.011401969 -0.011826995 -0.021793915 0.0012822605 -0.044996697 0.012427613
-0.027740048 -0.028189406 0.039577074 -0.013396763 -0.06943811 0.0019951775 0.029632656 -0.007733675
-0.008928458 -0.024402086 -0.0106854215 0.018331848 -0.03563745 -0.026475444 0.011482648 0.03555705
-0.026474297 -0.024195265 0.025809683 0.0040657097 -0.032351896 -0.032261387 -0.009425749 0.009389622
-0.017089294 0.020197071 -0.01670156 -0.015129602 -0.0054182364 -0.021106893 -0.017432533 0.01954271
0.008982819 0.02638514 -0.042477652 0.035830583 -0.05350241 0.07017834 0.0009579326 -0.0019688332
-0.011847716 -0.050773792 0.026853863 -0.025617946 -0.0119238235 0.0010047969 -0.038362578 -0.023491058
0.004566015 -0.0078879725 -0.02529766 -0.0073120785 0.008249353 -0.004385995 0.04778677 0.020593418
00000000: df29 813d 123f 3a3d 5f2c e8bb 30b6 8dbc
00000010: 3a4b 9abc 1044 fcba f182 52bd f6de 4e3c
00000020: 87dd 15bd c424 3ebd fe12 473d cb06 41bc
00000030: 82da 69bd 3419 2b3c 7e9e 0d3d 774d 83bc
00000040: e741 1ebc 3b84 c8bc cea4 60bc ded2 453c
00000050: 3b85 2fbd cee3 15bd 5f9b 023c 8ae4 143d
00000060: c3df 9abc 1db8 b7bc 34ce a73c 483f 2db9
00000070: 4735 fcbc bd2b 12bd 2b7a c9bb 5273 0d3c
00000080: 655d 82bc 8115 4b3c e04e 78bc f3c0 62bc
00000090: a0fd 92bb 2a04 95bc 860b c2bc f549 c03c
000000a0: 69b5 083c 3d3e d33c 1a7c 4cbd c2c0 253d
000000b0: 9333 10bd 007c 903d 0cf6 a33b f302 3b3b
000000c0: f9f5 4abc b671 65bd 77ed bc3c fc3d bdbc
000000d0: 2b0a 27bc 15bb 123b a650 44bd 911a c0bc
000000e0: be10 763a f625 28bb e443 e9bc 8a52 a2bb
000000f0: 2379 8fba 2172 b6bb 80dc 403d dc6b f53c
00000100: 77aa 8c3d b6a6 363d 83a1 adbb bd4f 6bbc
00000110: e4d9 b9bc e5b1 38bb 496c 45bd ae20 613c
00000120: 6ae9 f5bc eb4d 1bbd 87c1 243d 0acd 23bc
00000130: 8f09 2abd a40f f53b e200 023d e734 2abc
00000140: 8018 76bc ba2b e0bc 3caf 7cbc 87c0 8a3c
00000150: 96f7 05bd 7abd 04bd 775f 923c fe99 f93c
00000160: 8565 c6bc 3db9 b5bc ce02 e43c aea8 443a
00000170: fdbf fbbc f199 19bd f655 c0bb e1d1 6c3c
00000180: 9b68 90bc 5dcb db3c 18b0 86bc 4ad5 94bc
00000190: 9901 ccbb 52be c1bc 698e abbc 7ffc 843c
000001a0: b404 353c 58b0 013d f474 17bd 913d 063d
000001b0: 5310 2bbd 12b1 b53d 03b8 ceba 089e e6bb
000001c0: 325c 42bc 983f 3bbd 07b0 f23c 9616 c2bc
000001d0: f44d 43bc 5b73 7f3b 8f1c 23bd 6047 cbbc
000001e0: 46f7 ce3b e5f5 0ebc 0ea1 dabc c637 bdbb
000001f0: 777f 5f3b ad15 33bc 4457 453d 6a6a b53c
00000200: ddf5 893d 231f 373d d759 e3bb cd62 37bc
00000210: f075 c4bc f332 80ba 9c24 2dbd 1e46 4d3c
00000220: f2cd d3bc eea2 17bd e589 233d 40a1 38bc
00000230: df3a 6cbd 95bd 1b3c 7eb0 0b3d 326a 16bc
00000240: bc84 26bc 5afd c9bc 5ace 65bc 32c7 423c
00000250: 9ec4 17bd 3ae8 fabc 0bee 243c 66d5 143d
00000260: b569 cbbc ec7c d2bc 2811 e13c 079b 873a
00000270: e35c ebbc d84f 05bd 4f4c f1bb a5b5 2f3c
00000280: cd9e 8dbc aa15 b13c 2f54 4cbc 5e16 8cbc
00000290: e0ad 43bb 5f43 9abc 22f8 96bc 49dd ad3c
000002a0: c616 593c 46a7 d33c 9398 20bd dccd 193d
000002b0: e766 57bd 8403 a53d a59b f8ba 1baf 39bb
000002c0: 3309 eabb ca00 3abd c52d d13c 7364 e1bc
000002d0: a83d 16bc 24ca 01bb 5ea5 1bbd b756 c3bc
000002e0: 3380 c53b 7d80 82bb 8db2 dabc 0ec4 d1bb
000002f0: 47d7 2c3b ddd1 33bc 1f3c 3d3d 7c0f e63c
00000300: 41b5 613d ae43 573d 53cf 3abc 03c6 41bc
00000310: 2789 b2bc 8611 a83a 754e 38bd 309d 4b3c
00000320: 193f e3bc 78ed e6bc 921b 223d 197e 5bbc
00000330: 9135 8ebd 86c1 023b 2fc0 f23c c56a fdbb
00000340: ab48 12bc e2e6 c7bc e811 2fbc ac2c 963c
00000350: 93f8 11bd 08e3 d8bc b721 3c3c 45a4 113d
00000360: a0e0 d8bc 2635 c6bc d46e d33c a539 853b
00000370: 6c83 04bd 8424 04bd 756e 1abc eed6 193c
00000380: d9fe 8bbc 5474 a53c b6d1 88bc 26e2 77bc
00000390: 768b b1bb 5de8 acbc acce 8ebc 0918 a03c
000003a0: ac2c 133c a625 d83c 0cfd 2dbd 17c3 123d
000003b0: 5825 5bbd a9b9 8f3d c51d 7b3a 8a07 01bb
000003c0: ec1c 42bc 2ef8 4fbd a2fc db3c badc d1bc
000003d0: 245c 43bc 64b3 833a 1422 1dbd 5270 c0bc
000003e0: 839e 953b 8e3c 01bc 0a3d cfbc 299a efbb
000003f0: 4b28 073c 65b8 8fbb 0fbc 433d 87b3 a83c

actor_A.bias f4 [4]
0.051145826 0.07700782 0.07863325 0.0764946
00000000: 497e 513d 47b6 9d3d 780a a13d 33a9 9c3d

actor_B.weight f4 [4, 64]
0.063552774 0.041467015 -0.005448961 -0.014117606 -0.019780034 -0.0013639807 -0.043546297 0.013930975
-0.02731443 -0.035218686 0.04424234 -0.014878763 -0.05376786 0.0046673534 0.028154528 -0.011728883
-0.009681915 -0.031682998 -0.012832552 0.016270299 -0.037312973 -0.03183665 0.008407616 0.033583064
-0.027564645 -0.023707999 0.023430942 -0.00088615227 -0.029805122 -0.033102278 -0.006535177 0.015040113
-0.015544927 0.01952451 -0.016810777 -0.0136796525 -0.004543819 -0.02100429 -0.021968154 0.018369924
0.011092015 0.0298042 -0.041861117 0.035292543 -0.048083436 0.08676223 -0.0020672742 -0.0025602013
-0.011920152 -0.04099188 0.024053935 -0.026341531 -0.013223728 -0.0030987074 -0.037297785 -0.026741346
0.0025205438 -0.0047231563 -0.026844287 -0.007032717 0.0017120123 -0.00999748 0.045490365 0.022108246
0.059867743 0.04584437 -0.0049280156 -0.012757626 -0.025138017 -0.00029002782 -0.0492367 0.016445026
-0.026752466 -0.043118197 0.040140558 -0.013158515 -0.051157463 0.00531585 0.0323115 -0.0074733007
-0.009547431 -0.021894136 -0.015226629 0.013910883 -0.03614402 -0.028048918 0.010031567 0.04004823
-0.021700116 -0.024426252 0.026474511 0.0014768528 -0.034162708 -0.035132002 -0.009999664 0.016145563
-0.022156565 0.018596135 -0.013951382 -0.019718815 -0.0009514625 -0.022739198 -0.018729268 0.022701528
0.0103428215 0.030610844 -0.0358281 0.036968656 -0.051886693 0.08468751 -0.004904903 -0.0034865418
-0.015861118 -0.047892574 0.022330683 -0.027161669 -0.011162282 0.0013018416 -0.03368587 -0.025916038
0.0026629276 -0.006223338 -0.024627833 -0.0075830487 0.001972112 -0.0095088165 0.04280953 0.024158144
0.05608115 0.037560944 -0.0066091693 -0.016093725 -0.026340883 -0.00043833136 -0.04845939 0.013061131
-0.025448823 -0.043812945 0.044794876 -0.015662976 -0.055720974 0.002124585 0.026066756 -0.01151152
-0.01228914 -0.018157283 -0.014989098 0.015310879 -0.038375396 -0.031901725 0.010099345 0.034911375
-0.02447678 -0.020369066 0.028259901 0.0047829384 -0.035877105 -0.028918508 -0.0022876621 0.012118
-0.01660527 0.020432236 -0.012159685 -0.013524842 -0.0044402326 -0.018961338 -0.024050105 0.017577125
0.008885692 0.027880246 -0.035803057 0.029539913 -0.04656578 0.08016419 0.0026616217 -0.0010869264
-0.009451126 -0.048903283 0.024471538 -0.025528997 -0.01368267 -0.003918524 -0.03351871 -0.027511034
0.0052621444 -0.0023909297 -0.026134532 -0.0025671509 0.0033650757 -0.008129919 0.047087613 0.022064218
0.06582106 0.046364773 -0.004911506 -0.012617473 -0.022245027 -0.00016720146 -0.049043037 0.010406726
-0.029195363 -0.040570468 0.048888464 -0.01090069 -0.052142136 0.009157514 0.033176024 -0.007427389
-0.010546073 -0.026243106 -0.01789428 0.016929593 -0.032616433 -0.034918074 0.012986944 0.040968012
-0.020663098 -0.023358822 0.024154695 0.0005748753 -0.03158354 -0.033735953 -0.0036157141 0.012641535
-0.017593633 0.016358968 -0.015092586 -0.018367382 -0.001370263 -0.024257036 -0.01996236 0.021230495
0.0055598496 0.025561042 -0.041422438 0.035607662 -0.042464282 0.07991985 0.0015538561 -0.0046147695
-0.011911203 -0.046352267 0.02444869 -0.021862881 -0.014062413 0.00059849315 -0.0428137 -0.027755268
0.0019550682 -0.0034431089 -0.028364152 -0.0027107156 0.0012114333 -0.007271787 0.05050161 0.02443004
00000000: f527 823d 51d9 293d 338d b2bb 884d 67bc
00000010: bd09 a2bc 99c7 b2ba 9a5d 32bd bf3e 643c
00000020: 83c2 dfbc 7841 10bd 7537 353d 0ec6 73bc
00000030: b03b 5cbd 99f0 983b 53a4 e63c 802a 40bc
00000040: e5a0 1ebc 08c6 01bd a03f 52bc 4a49 853c
00000050: 7dd5 18bd 2667 02bd 19c0 093c 658e 093d
00000060: 40cf e1bc 4737 c2bc 3ff2 bf3c ac4c 68ba
00000070: df29 f4bc 4196 07bd 0a25 d6bb ce6a 763c
00000080: 26b0 7ebc ddf1 9f3c c1b6 89bc 9f20 60bc
00000090: 51e4 94bb 3011 acbc 8ff6 b3bc 867c 963c
000000a0: 48bb 353c f027 f43c 9076 2bbd ea8e 103d
000000b0: 23f3 44bd 65b0 b13d 1b7b 07bb 0dc9 27bb
000000c0: be4c 43bc 1ae7 27bd c20c c53c 32ca d7bc
000000d0: 56a8 58bc af13 4bbb 90c5 18bd ab10 dbbc
000000e0: b52f 253b b5c4 9abb 8de8 dbbc b572 e6bb
000000f0: 9a65 e03a 78cc 23bc 1b54 3a3d 5a1c b53c
00000100: e137 753d 4ec7 3b3d 317b a1bb 5d05 51bc
00000110: 3eee cdbc e00e 98b9 6cac 49bd b8b7 863c
00000120: fd27 dbbc b59c 30bd 6d6a 243d d096 57bc
00000130: 7d8a 51bd 9530 ae3b 1059 043d 97e2 f4bb
00000140: d46c 1cbc 555b b3bc 1c79 79bc 79ea 633c
00000150: c00b 14bd d8c6 e5bc 715b 243c 9d09 243d
00000160: 71c4 b1bc 9019 c8bc 13e1 d83c f592 c13a
00000170: 32ee 0bbd 93e6 0fbd a1d5 23bc b343 843c
00000180: af81 b5bc ec56 983c 5694 64bc 5a89 a1bc
00000190: 916b 79ba 8e47 babc 1f6e 99bc 8ef8 b93c
000001a0: f074 293c 98c3 fa3c 7cc0 12bd 726c 173d
000001b0: 2487 54bd a570 ad3d 4fb9 a0bb 777e 64bb
000001c0: 2def 81bc 012b 44bd d6ee b63c 2682 debc
000001d0: 01e2 36bc 8ea2 aa3a 32fa 09bd df4d d4bc
000001e0: 8384 2e3b 25ed cbbb 4fc0 c9bc 397b f8bb
000001f0: 8d3e 013b deca 1bbc 0c59 2f3d 4de7 c53c
00000200: 59b5 653d 81d9 193d bb91 d8bb fdd6 83bc
00000210: d6c8 d7bc d7cf e5b9 5a7d 46bd 5bfe 553c
00000220: 0d7a d0bc 3475 33bd d57a 373d a44f 80bc
00000230: ad3b 64bd 9f3c 0b3b f389 d53c d09a 3cbc
00000240: 6458 49bc 95be 94bc d594 75bc 7bda 7a3c
00000250: 852f 1dbd 62ab 02bd b977 253c 3bff 0e3d
00000260: 8783 c8bc 07dd a6bc 4f81 e73c 32ba 9c3b
00000270: dff3 12bd 82e6 ecbc 9aec 15bb 938a 463c
00000280: c607 88bc 8161 a73c 6a39 47bc 4d97 5dbc
00000290: 5f7f 91bb cf54 9bbc ba04 c5bc e7fd 8f3c
000002a0: 4b95 113c 1d65 e43c 3aa6 12bd b0fd f13c
000002b0: c2bb 3ebd 1f2d a43d 9a6e 2e3b 3377 8eba
000002c0: e5d8 1abc cf4e 48bd 8978 c83c 3022 d1bc
000002d0: 472d 60bc f666 80bb ea4a 09bd d25e e1bc
000002e0: 116e ac3b 25b1 1cbb 1618 d6bc a53d 28bb
000002f0: 9a88 5c3b 5a33 05bc f1de 403d 05c0 b43c
00000300: 31cd 863d fde8 3d3d b3f0 a0bb 84b9 4ebc
00000310: 343b b6bc cd52 2fb9 5ae1 48bd f980 2a3c
00000320: 1d2b efbc 382d 26bd 453f 483d cf98 32bc
00000330: fe92 55bd 6609 163c 95e3 073d 7461 f3bb
00000340: 70c9 2cbc c8fb d6bc 0697 92bc eeaf 8a3c
00000350: cf98 05bd 4106 0fbd 31c7 543c 13ce 273d
00000360: a845 a9bc 005b bfbc 11e0 c53c 3ab3 163a
00000370: be5d 01bd b62e 0abd 9ef5 6cbb 711e 4f3c
00000380: 8620 90bc 3e03 863c e546 77bc 3177 96bc
00000390: 669a b3ba b1b6 c6bc 1a88 a3bc 93eb ad3c
000003a0: 662f b63b 6465 d13c 93aa 29bd 57d9 113d
000003b0: 07ef 2dbd 05ad a33d c2aa cb3a 7e37 97bb
000003c0: 3527 43bc e0db 3dbd 9e48 c83c c919 b3bc
000003d0: 0966 66bc 32e4 1c3a 6b5d 2fbd 045f e3bc
000003e0: 9a20 003b c8a5 61bb f05b e8bc 43a6 31bb
000003f0: f5c8 9e3a 2c48 eebb c7da 4e3d 8221 c83c

actor_B.bias f4 [4]
0.07590042 0.07773226 0.07833322 0.06303263
00000000: ae71 9b3d 1732 9f3d 2b6d a03d 4017 813d
