PPO_continuous_solved_Ant-v5.pth (torch, 94786 bytes, 11 tensors)

actor.0.weight f4 [64, 105]
-0.06973647 -0.03677444 -0.04774012 -0.014764748 -0.08474688 0.06193444 -0.057060253 0.04963654
-0.07001462 0.050608765 0.031420592 0.05401086 -0.08564672 -0.08239188 -0.024511905 0.014558853
-0.011618354 0.047439065 -0.06022939 0.08290593 -0.08526352 0.056276955 0.023410229 -0.06900523
0.09294968 -0.067027666 -0.006874523 -0.014491694 0.018941129 0.04205857 -0.0598497 -0.006885123
-0.036854006 0.018815288 -0.061874617 -0.0061689564 0.007672836 -0.037300147 -0.07765293 -0.07351285
0.012357539 0.08255423 -0.06706899 -0.08997155 0.065770656 -0.038958322 0.039255373 -0.0115398
-0.05307756 0.00857599 -0.01341788 -0.025347795 -0.04513882 0.065713346 0.040029883 0.043953773
0.09486536 -0.059136804 0.089478865 -0.04849722 -0.072112866 0.08000116 -0.08175692 -0.07966862
-0.031026581 0.053781766 0.06217645 0.044710685 0.023361694 -0.010287787 -0.040537637 0.08530069
0.06620502 -0.08739891 -0.02538743 -0.06315348 0.07694999 -0.081484266 0.036421318 -0.037261788
0.051019482 -0.03843659 0.057625774 0.04862165 0.043379225 -0.08040221 -0.08631152 0.08357745
-0.06350364 -0.07415198 -0.053954788 -0.08902245 0.053286504 0.057447612 -0.035469897 -0.085705414
0.04651928 -0.03723353 -0.08171775 0.020393834 -0.07251468 -0.08421395 0.018060286 0.0718172
0.041062515 0.0012943296 -0.007592576 0.07957252 -0.05687916 -0.083590016 -0.07522007 0.010233491
-0.07433057 -0.057357475 -0.05341257 -0.07870141 0.07323067 -0.06616282 0.02821503 -0.09478094
-0.092057586 -0.011347608 0.08892038 0.035210826 -0.015040226 0.0573861 -0.088619456 -0.054665554
0.08461239 -0.04173211 0.0010750167 0.04315012 -0.004648812 0.0147059625 0.081427366 -0.04105602
-0.0894618 -0.058949307 0.0023143373 0.052564766 -0.05716909 -0.08513308 0.02597536 -0.005364246
-0.015729979 -0.053288613 -0.009244401 0.0089321425 0.009583556 0.042894844 0.049636174 -0.06237201
0.038941752 -0.041082345 0.035917126 0.09275821 0.058804862 -0.04083163 -0.09741452 0.0053806845
-0.0742794 0.086043715 -0.061536197 0.021831203 0.0697353 -0.030400703 -0.025662066 -0.06146929
-0.0064467727 -0.005372955 -0.07658797 -0.08613017 0.0506529 0.08700742 0.09093452 0.047760412
0.06134635 0.013032673 0.06735868 0.09314255 0.07252061 -0.03402189 -0.028117146 0.007433579
0.03799559 -0.087096944 0.055326387 -0.062984794 -0.0024484487 -0.0019379403 -0.033844844 0.089978464
0.07601872 -0.05796715 -0.08815985 0.07498005 -0.088517286 0.047021 0.08556951 -0.0755467
-0.075271286 0.0033438907 -0.027622078 0.06484099 0.051606454 0.035984706 0.0027536992 0.0445326
0.07252746 -0.033921402 -0.079017706 -0.09322318 -0.027961256 0.066733345 0.057787716 0.016775513
0.0002943934 -0.09544526 -0.050744373 -0.072407134 -0.0107144825 0.054938942 -0.032907188 0.024566835
0.023559358 -0.029774709 -0.022437928 0.057363395 0.02602018 0.061146535 -0.025900729 -0.057686944
0.07910477 0.000555647 -0.06945689 -0.083330154 0.029464899 -0.031568892 0.05488663 -0.011414155
0.046052605 0.05895041 -0.04980578 0.007025273 -0.012578078 -0.058791354 -0.09209256 -0.002246548
0.021439824 0.01829701 0.06560582 0.027341427 0.07313045 -0.040681332 0.051306974 -0.02117962
00000000: ffd1 8ebd cca0 16bd 258b 43bd d7e7 71bc
00000010: c68f adbd f8ae 7d3d 03b8 69bd af4f 4b3d
00000020: d363 8fbd 234b 4f3d e1b2 003d 7e3a 5d3d
00000030: 8c67 afbd 13bd a8bd 31cd c8bc 4188 6e3c
00000040: e95a 3ebc 774f 423d 18b3 76bd 96ca a93d
00000050: a49e aebd aa82 663d cfc6 bf3c 9d52 8dbd
00000060: 675c be3d cd45 89bd ae43 e1bb 926e 6dbc
00000070: 6d2a 9b3c 9b45 2c3d f624 75bd 999c e1bb
00000080: 3af4 16bd 8522 9a3c 3d70 7dbd f524 cabb
00000090: 6a6c fb3b 0ac8 18bd 8008 9fbd e88d 96bd
000000a0: 4677 4a3c 3112 a93d 775b 89bd 0143 b8bd
000000b0: c4b2 863d c392 1fbd 3eca 203d 6e11 3dbc
000000c0: db67 59bd 4f82 0c3c abd6 5bbc 2ea6 cfbc
000000d0: 7ce3 38bd b894 863d 60f6 233d df08 343d
000000e0: c548 c23d 6f39 72bd b240 b73d 05a5 46bd
000000f0: e9af 93bd a6d7 a33d 2c70 a7bd 4d29 a3bd
00000100: 752b febc 454a 5c3d bcac 7e3d 8d22 373d
00000110: 0661 bf3c 1b8e 28bc cb0a 26bd 21b2 ae3d
00000120: 7f96 873d 33fe b2bd 4df9 cfbc 9d56 81bd
00000130: f597 9d3d 39e1 a6bd 852e 153d d19f 18bd
00000140: cef9 503d b06f 1dbd 0109 6c3d 7f27 473d
00000150: 6aae 313d eaa9 a4bd 18c4 b0bd a72a ab3d
00000160: 320e 82bd fedc 97bd b2ff 5cbd 6751 b6bd
00000170: f342 5a3d 304e 6b3d e248 11bd 5286 afbd
00000180: 008b 3e3d 3082 18bd a35b a7bd f810 a73c
00000190: 9482 94bd 5d78 acbd 2af3 933c e514 933d
000001a0: 2b31 283d 7fa6 a93a 25cb f8bb ebf6 a23d
000001b0: 1ffa 68bd 3e31 abbd fb0c 9abd 5faa 273c
000001c0: a03a 98bd acef 6abd 24c7 5abd 342e a1bd
000001d0: f6f9 953d 5f80 87bd 3523 e73c 821c c2bd
000001e0: b088 bcbd 51eb 39bc e31b b63d 3a39 103d
000001f0: 486b 76bc b00d 6b3d 1e7e b5bd fde8 5fbd
00000200: 4349 ad3d 4aef 2abd 93e7 8c3a 2ebe 303d
00000210: 1055 98bb 47f1 703c 64c3 a63d 5b2a 28bd
00000220: c037 b7bd d474 71bd 23ac 173b 274e 573d
00000230: 232a 6abd 415a aebd 47ca d43c 8fc6 afbb
00000240: 28dc 80bc 2945 5abd d475 17bc 1f58 123c
00000250: 5904 1d3c 81b2 2f3d 4d4f 4b3d cb79 7fbd
00000260: 6381 1f3d f645 28bd d61d 133d 04f8 bd3d
00000270: 5edd 703d 113f 27bd 4481 c7bd 7450 b03b
00000280: cc1f 98bd b037 b03d 610d 7cbd 5ad7 b23c
00000290: 62d1 8e3d e50a f9bc 4139 d2bc 39c7 7bbd
000002a0: 733f d3bb 9d0f b0bb 27da 9cbd 0465 b0bd
000002b0: 6a79 4f3d f230 b23d e13b ba3d 6ca0 433d
000002c0: 4f46 7b3d fe86 553c 59f3 893d 85c1 be3d
000002d0: b085 943d 8a5a 0bbd ee55 e6bc 6195 f33b
000002e0: 44a1 1b3d e25f b2bd ec9d 623d 2cfe 80bd
000002f0: 2776 20bb 7c02 feba e4a0 0abd a146 b83d
00000300: b4af 9b3d f66e 6dbd 278d b4bd 248f 993d
00000310: 8d48 b5bd 1899 403d 113f af3d 3ab8 9abd
00000320: d527 9abd 2d25 5b3b b247 e2bc 5acb 843d
00000330: 4a61 533d b364 133d 6877 343b d167 363d
00000340: 4789 943d 2bf1 0abd 09d4 a1bd cbeb bebd
00000350: 010f e5bc 7eab 883d d0b2 6c3d cd6c 893c
00000360: d058 9a39 ce78 c3bd 55d9 4fbd 314a 94bd
00000370: cc8b 2fbc a807 613d b0c9 06bd 6340 c93c
00000380: 8eff c03c 17ea f3bc bfcf b7bc e1f5 6a3d
00000390: 4628 d53c ca74 7a3d c42d d4bc 2549 6cbd
000003a0: af01 a23d d7a8 113a 6a3f 8ebd 00a9 aabd
000003b0: 5f60 f13c 624e 01bd ced0 603d 7002 3bbc
000003c0: a8a1 3c3d fc75 713d 2501 4cbd 4334 e63b
000003d0: 4814 4ebc 34cf 70bd 069b bcbd d23a 13bb
000003e0: 92a2 af3c 9ce3 953c 585c 863d 21fb df3c
000003f0: 6bc5 953d 78a1 26bd 4327 523d e280 adbc

actor.0.bias f4 [64]
0.025232187 -0.09721031 0.06287512 -0.065603495 -0.07342822 -0.083575055 -0.009616711 -0.08690569
-0.02275937 0.09261412 0.005094457 0.09456708 0.06498752 0.03837079 0.0506111 0.08228166
0.07245058 0.028127333 -0.021957936 0.0621075 0.038642146 -0.093999706 0.026636764 0.09258615
0.053828597 -0.028699359 -0.027067235 -0.013011799 -0.03706359 0.08095304 -0.08576637 0.03590575
-0.037494935 0.017209988 0.058797013 -0.01591504 0.09019283 -0.07695008 0.026768757 -0.037072264
-0.09417631 -0.05795092 0.020700384 -0.0072105653 -0.019489316 -0.086814605 -0.026121167 0.014672411
0.05577805 0.0144602945 0.073911004 0.045743156 0.08868469 -0.02081411 -0.051151156 0.0821055
0.067310296 0.03724946 0.03012175 0.015191914 0.07916072 -0.061948344 0.007485713 0.084739216
00000000: bbb3 ce3c 3316 c7bd acc4 803d 205b 86bd
00000010: 8961 96bd 6629 abbd 698f 1dbc 9cfb b1bd
00000020: dc71 babc 79ac bd3d 67ef a63b 63ac c13d
00000030: 2d18 853d b12a 1d3d 964d 4f3d 4983 a83d
00000040: f860 943d 4b6b e63c 21e1 b3bc 6f64 7e3d
00000050: 3a47 1e3d eb82 c0bd 5835 da3c cf9d bd3d
00000060: 607b 5c3d eb1a ebbc 1bbc ddbc 712f 55bc
00000070: fecf 17bd b5ca a53d 47a6 afbd e811 133d
00000080: 4a94 19bd f6fb 8c3c 23d5 703d 4260 82bc
00000090: 05b7 b83d 0198 9dbd 274a db3c 16d9 17bd
000000a0: 82df c0bd f25d 6dbd da93 a93c 9b46 ecbb
000000b0: 0fa8 9fbc dbcb b1bd 0ffc d5bc 8d64 703c
000000c0: 8677 643d dfea 6c3c a75e 973d 2d5d 3b3d
000000d0: 52a0 b53d 5a82 aabc e083 51bd ee26 a83d
000000e0: fbd9 893d e492 183d e3c1 f63c 81e7 783c
000000f0: 041f a23d 8cbd 7dbd b64a f53b c18b ad3d

actor.2.weight f4 [64, 64]
0.063655786 -0.114066705 -0.11095828 -0.09720241 0.019480804 0.03525273 0.0055532544 -0.044244397
0.066650085 0.044527143 0.1001252 0.099988826 -0.102542795 0.12447568 0.08281475 0.06758517
-0.057209115 -0.053213127 0.11858626 0.024724605 -0.09480996 0.08990768 0.06216614 -0.0064054686
-0.0056712343 -0.11065928 0.04395705 -0.10179687 -0.049403407 0.10758651 0.09115228 -0.06870677
-0.047048204 -0.059414282 0.0083675375 0.10423082 -0.0701308 -0.069853 0.04921571 -0.03382476
0.067390315 0.029332502 0.0146007 -0.015543728 0.030616475 0.116646804 0.0878681 0.060255907
0.086199164 -0.067291066 -0.018108511 0.049473803 0.025551448 0.08394733 0.056903586 -0.06239545
0.03384566 -0.048153 0.001987909 -0.09828633 0.05124121 -0.08504006 -4.3441374e-05 -0.050758302
0.058672357 -0.121516764 0.1099526 0.044657826 -0.0855185 -0.0064154663 -0.08180635 -0.0008643079
0.08771338 0.032003846 -0.083239816 0.040025156 -0.11337661 -0.03729729 -0.020832056 0.009040859
0.06333754 0.107081816 -0.10068455 0.061535377 0.050082095 -0.1053952 0.0992855 -0.04700104
-0.01105312 0.074797176 0.10099808 0.057898216 -0.007531675 0.0011071679 -0.005137827 -0.11236644
0.079230465 -0.10658411 -0.04798999 0.082403414 0.07268343 0.09433696 0.050989766 -0.06476968
0.0069726366 0.10710752 0.04480065 0.058028523 -0.077565275 0.10858232 0.12180592 0.081991516
0.07581363 0.1246035 -0.054323327 -0.053070113 0.03938989 -0.11072189 -0.022760311 -0.024743354
-0.0010988804 0.050002407 0.05541305 -0.0066228863 0.10262701 0.024962727 0.036744166 0.117248125
-0.07218388 -0.020645702 0.08856597 -0.074093446 0.06599463 0.015900264 -0.04216594 0.047137305
-0.11213273 -0.029026456 0.0735426 0.023109475 0.12622641 -0.04995563 -0.10139327 0.04129373
-0.09818308 0.047810096 -0.031033771 -0.08858845 -0.08195763 -0.044502147 0.11745641 -0.081723504
0.086728305 0.010087487 0.050767057 -0.05849205 0.06687458 -0.08587179 -0.040740598 0.06595457
0.10351276 0.084483355 -0.05564532 -0.00044140403 -0.036224034 0.09728635 -0.04909282 -0.081624374
0.017033916 -0.049633704 -0.0860012 0.09627784 0.08125846 0.056270093 0.07836345 -0.0007570217
-0.024595676 0.10659702 -0.053623512 0.018229993 -0.017406119 0.12347478 -0.033895772 -0.118530504
-0.1171324 0.11793257 0.013476859 0.07891703 -0.114084534 -0.016979381 0.10716845 0.04977545
0.017868187 0.048506625 -0.037507955 -0.07070634 -0.12268936 0.06858521 -0.056776848 -0.09455989
-0.10544705 0.09294384 0.0448252 -0.0044232532 -0.008656632 -0.06229399 -0.11738711 -0.00028269363
0.06423323 -0.026789676 0.06299158 -0.0036218902 0.01283281 0.06688599 -0.062831745 -0.12022917
0.030546661 -0.00478187 0.07623121 -0.05059668 0.070055984 -0.07978833 -0.075643055 -0.018400343
-0.06725977 0.11883334 -0.10632756 0.10100324 -0.054744303 0.062780485 0.053805728 0.021579266
-0.024648638 0.08591492 0.08496136 -0.10183661 0.115353145 -0.014511053 0.10427012 -0.080308065
-0.09371858 -0.008252182 0.06880469 -0.076414734 0.0075283474 -0.01922742 -0.022776598 0.09035511
-0.034548137 -0.10594851 -0.055634852 -0.11371095 0.05400633 0.07048877 0.061511006 -0.02139543
00000000: f75d 823d ce9b e9bd 183e e3bd 0f12 c7bd
00000010: 3596 9f3c 2b65 103d 13f8 b53b 9d39 35bd
00000020: d77f 883d 1862 363d 710e cd3d f1c6 cc3d
00000030: f501 d2bd 1bed fe3d c89a a93d 186a 8a3d
00000040: 1b54 6abd 02f6 59bd 5add f23d 418b ca3c
00000050: b92b c2bd 8521 b83d eca1 7e3d f7e4 d1bb
00000060: c3d5 b9bb 55a1 e2bd 4f0c 343d e17a d0bd
00000070: 3a5b 4abd 5156 dc3d 0cae ba3d 23b6 8cbd
00000080: 9eb5 40bd 645c 73bd ff17 093c f876 d53d
00000090: bda0 8fbd 170f 8fbd 6a96 493d d58b 0abd
000000a0: ef03 8a3d b74a f03c c637 6f3c 1fab 7ebc
000000b0: 67cf fa3c 85e4 ee3d 31f4 b33d e6ce 763d
000000c0: 3089 b03d e6cf 89bd 4d58 94bc 0ba5 4a3d
000000d0: 4551 d13c 94ec ab3d bc13 693d 5f92 7fbd
000000e0: bfa1 0a3d 153c 45bd 9447 023b 584a c9bd
000000f0: 4ee2 513d 7c29 aebd d234 36b8 f0e7 4fbd
00000100: 6d52 703d c8dd f8bd d42e e13d 20eb 363d
00000110: 5324 afbd d538 d2bb 168a a7bd b992 62ba
00000120: 13a3 b33d 7716 033d a379 aabd 6bf1 233d
00000130: ff31 e8bd 0bc5 18bd fda7 aabc 1c20 143c
00000140: 1db7 813d b64d db3d b433 cebd 850c 7c3d
00000150: e222 4d3d 70d9 d7bd 3256 cb3d 2a84 40bd
00000160: 2518 35bc 432f 993d 15d8 ce3d ae26 6d3d
00000170: 45cc f6bb 641e 913a 375b a8bb 6020 e6bd
00000180: 9543 a23d c548 dabd 2791 44bd 1fc3 a83d
00000190: 0ddb 943d bc33 c13d a5da 503d f7a5 84bd
000001a0: b77a e43b 305b db3d e380 373d 51af 6d3d
000001b0: 8bda 9ebd 6860 de3d 6275 f93d 2beb a73d
000001c0: 2d44 9b3d 1f30 ff3d 2382 5ebd 0c60 59bd
000001d0: 4b57 213d 29c2 e2bd d573 babc 93b2 cabc
000001e0: 4f08 90ba 53cf 4c3d cbf8 623d cc04 d9bb
000001f0: 1c2e d23d a27e cc3c 0d81 163d c91f f03d
00000200: 24d5 93bd 2d21 a9bc 1362 b53d 4ebe 97bd
00000210: 3128 873d 4541 823c 31b6 2cbd 0c13 413d
00000220: d8a5 e5bd e4c8 edbc 819d 963d 1550 bd3c
00000230: 7f41 013e 469e 4cbd 46a7 cfbd 9d23 293d
00000240: 3614 c9bd 85d4 433d 893a febc dc6d b5bd
00000250: 67d9 a7bd e247 36bd fc8c f03d a75e a7bd
00000260: 9c9e b13d fd45 253c 1ef1 4f3d 5c95 6fbd
00000270: 8af5 883d 8ddd afbd 9ddf 26bd 3113 873d
00000280: 7ffe d33d 9c05 ad3d 59ec 63bd 3f6c e7b9
00000290: a75f 14bd 113e c73d 8e15 49bd ae2a a7bd
000002a0: b68a 8b3c b64c 4bbd 6621 b0bd 512d c53d
000002b0: d66a a63d 787b 663d 047d a03d de72 46ba
000002c0: df7c c9bc 8a4f da3d 54a4 5bbd 1157 953c
000002d0: 4797 8ebc 58e0 fc3d 4bd6 0abd 1fc0 f2bd
000002e0: 1de3 efbd a286 f13d 0bce 5c3c 409f a13d
000002f0: 27a5 e9bd 5818 8bbc 227b db3d 58e1 4b3d
00000300: 4e60 923c e2ae 463d f1a1 19bd 7cce 90bd
00000310: 8f44 fbbd 6776 8c3d d78e 68bd 9ea8 c1bd
00000320: 9ff4 d7bd 5759 be3d a19a 373d f0f0 90bb
00000330: 8cd4 0dbc fc27 7fbd a768 f0bd 7f36 94b9
00000340: b68c 833d 0676 dbbc bb01 813d 3c5d 6dbb
00000350: b540 523c 86fb 883d eead 80bd b63a f6bd
00000360: fe3c fa3c 3cb1 9cbb 1c1f 9c3d 773e 4fbd
00000370: 8379 8f3d 1068 a3bd bfea 9abd 51bc 96bc
00000380: 7ebf 89bd e55e f33d 44c2 d9bd c9da ce3d
00000390: 903b 60bd 0e93 803d 6563 5c3d 00c7 b03c
000003a0: f1eb c9bc 29f4 af3d 3900 ae3d b68f d0bd
000003b0: 453e ec3d c5bf 6dbc 938b d53d 8e78 a4bd
000003c0: 87ef bfbd 2934 07bc 79e9 8c3d 547f 9cbd
000003d0: 5bb0 f63b d382 9dbc fd95 babc 1a0c b93d
000003e0: 5982 0dbd 88fb d8bd 5fe1 63bd 49e1 e8bd
000003f0: be35 5d3d 6b5c 903d f7f2 7b3d 7845 afbc

actor.2.bias f4 [64]
-0.0803836 -0.012508169 0.076254494 0.09689735 0.049568962 0.122076616 -0.043328606 0.06954078
0.046119194 -0.12016764 -0.097861946 -0.06563512 0.0084978305 0.0833644 0.08987456 -0.059383396
0.0037781058 0.045277752 0.02415693 -0.021165533 -0.009078633 0.011540936 0.11714104 0.08806694
-0.028919224 -0.07750271 0.031365484 -0.001898986 0.12422063 0.03487156 0.08225374 -0.03620915
-0.012897649 0.033469636 0.08045377 -0.0057600327 0.04721209 0.019650131 -0.097911395 0.03005558
0.06092057 -0.06970536 -0.04753894 0.012477627 0.016334806 -0.04670779 0.023220947 -0.11947357
0.050056733 -0.0013518801 0.08271611 0.028060386 -0.115517795 -0.115063384 0.08280529 0.049172096
0.09179624 -0.095828004 -0.019797634 -0.044423055 0.05174833 -0.090860374 -0.001065898 -0.08388761
00000000: 28a0 a4bd 10ef 4cbc 512b 9c3d 1e72 c63d
00000010: d308 4b3d 4e03 fa3d 5679 31bd 656b 8e3d
00000020: 7be7 3c3d 741a f6bd d86b c8bd b56b 86bd
00000030: 7c3a 0b3c f4ba aa3d 2710 b83d 013c 73bd
00000040: 199a 773b 2a75 393d c1e4 c53c 5763 adbc
00000050: 8cbe 14bc 3216 3d3c a4e7 ef3d 715c b43d
00000060: 02e8 ecbc beb9 9ebd 1879 003d 66e7 f8ba
00000070: 6367 fe3d 7bd5 0e3d a674 a83d 0c50 14bd
00000080: a950 53bc 7517 093d f2c4 a43d a8be bcbb
00000090: 7761 413d 50f9 a03c c585 c8bd 1f37 f63c
000000a0: d987 793d afc1 8ebd 31b8 42bd f66e 4c3c
000000b0: 92d0 853c ab50 3fbd db39 be3c 8fae f4bd
000000c0: 4a08 4d3d 9231 b1ba 1067 a93d e5de e53c
000000d0: 9894 ecbd 5aa6 ebbd d295 a93d ae68 493d
000000e0: abff bb3d 7941 c4bd a62e a2bc f3f4 35bd
000000f0: 0ff6 533d 0115 babd 9ab5 8bba 44cd abbd

actor.4.weight f4 [8, 64]
0.10289315 -0.063073374 -0.08246317 -0.056775514 -0.11055902 0.11970275 0.0638314 0.03480079
0.105690025 0.039690826 0.06790605 -0.018836286 0.099381715 -0.0937914 0.10966476 -0.07149805
0.08166264 0.07156716 0.10140902 -0.057681266 -0.038189393 0.05122789 -0.10539819 0.052700654
-0.023476033 -0.069022134 -0.05712375 0.014215791 -0.011351204 -0.07430659 -0.11420215 -0.071740866
-0.016097663 -0.10977943 -0.0376579 -0.10606326 0.0014548973 0.026138373 0.11041993 0.04494448
0.005693787 0.11517645 -0.069340535 -0.081898466 -0.024898686 0.116695225 -0.09259952 0.101214156
-0.122651845 -0.09980563 0.07154704 -0.0021185896 -0.06270399 -0.061373614 -0.05066111 0.03338032
0.064566456 -0.07551247 0.12271451 -0.1158086 -0.09569951 -0.09811528 0.10082865 -0.114563644
-0.08525189 0.05198312 0.056547455 -0.037637804 0.10052313 0.09109456 0.032953028 0.032266337
-0.014200839 0.02489411 -0.03229949 0.114627875 0.07729219 0.05901973 3.2320397e-05 -0.034977105
0.027367247 0.013973212 -0.1242144 0.11432502 0.030743057 -0.02029112 0.038442373 0.026069714
-0.10045773 0.048427984 0.06802924 0.030833397 -0.061374277 0.122348756 0.0033976675 0.10785017
0.03839576 -0.044290204 0.028904924 -0.05490377 -0.10120839 0.0036302179 0.11942673 -0.096821174
0.11635861 0.11310517 0.040371027 -0.07023545 -0.053476963 0.09005253 -0.11766468 -0.016103165
0.061462212 -0.06767712 -0.07704657 -0.11585279 -0.08863701 0.113023534 -0.030615112 0.040375173
0.09803194 0.064208955 -0.0738256 -0.11979894 0.059490874 -0.08076997 -0.014035717 -0.06520706
0.06721945 -0.04678872 -0.033035014 -0.052042995 -0.043706227 -0.012900139 -0.09156163 -0.055180624
0.028691426 -0.1162747 -0.09580723 -0.06715031 -0.047728907 0.018035257 0.114280716 -0.032131933
0.09330395 0.0025325757 0.04089279 -0.11863768 0.07188752 0.0060871355 0.021539565 -0.02289478
-0.010830305 -0.11973611 0.07681691 -0.08399102 -0.09602453 -0.040649176 0.025350044 0.08240539
-0.005419227 -0.05888409 -0.006740112 -0.08073997 0.11249026 -0.08856642 -0.08742513 0.079585016
0.10381894 -0.05904428 0.05423265 -0.089316174 -0.07059103 -0.026368951 -0.066092595 0.031510096
0.084210515 0.100761704 0.029415937 -0.06114276 -0.030515648 -0.054392427 0.052909654 0.07265222
0.10639344 0.0025215754 0.07919436 0.06559967 -0.102952324 0.09550276 0.081073694 -0.054459527
-0.06037183 -0.10639912 0.08075404 -0.03836018 0.091558225 -0.11777658 0.11493837 0.04460114
0.04546471 -0.03629874 -0.08320068 0.08168243 0.084171765 0.024765706 0.12106004 -0.11341737
0.03386806 -0.09269818 -0.03071809 0.08563503 -0.0025048465 0.116917215 -0.05946238 0.059277844
0.031153882 -0.08875446 0.07560742 -0.028895712 0.07813355 0.05885219 -0.049106423 0.055245157
-0.11486299 0.040587094 -0.11596794 -0.011920398 -0.07301175 0.052084558 -0.07271637 0.09176971
0.075906776 -0.09118308 -0.083816014 -0.00074571854 -0.11327092 0.022185322 0.015879897 0.04541785
0.021853646 -0.087850004 0.104032956 0.10952615 -0.11025695 0.0022562675 -0.0013986292 0.07836308
-0.12524617 0.0643224 -0.044429902 0.08975911 0.007075325 0.09491347 0.08555882 -0.048333794
00000000: a5b9 d23d 9d2c 81bd 73e2 a8bd 718d 68bd
00000010: c46c e2bd b726 f53d 09ba 823d 468b 0e3d
00000020: 0374 d83d d992 223d 5412 8b3d 8e4e 9abc
00000030: a488 cb3d b515 c0bd eb97 e03d 926d 92bd
00000040: be3e a73d ce91 923d 88af cf3d 3143 6cbd
00000050: 7b6c 1cbd 56d4 513d 02db d7bd a4dc 573d
00000060: cf50 c0bc 7a5b 8dbd 98fa 69bd 59e9 683c
00000070: 66fa 39bc 0e2e 98bd d1e2 e9bd e0ec 92bd
00000080: 3fdf 83bc 0ad4 e0bd 2c3f 1abd b237 d9bd
00000090: 41b2 be3a 2420 d63c d823 e23d b417 383d
000000a0: f292 ba3b a1e1 eb3d 6902 8ebd 62ba a7bd
000000b0: 54f8 cbbc e8fd ee3d d1a4 bdbd 5e49 cf3d
000000c0: e430 fbbd e566 ccbd 4187 923d 09d8 0abb
000000d0: f36a 80bd e662 7bbd 0682 4fbd cdb9 083d
000000e0: 6b3b 843d 48a6 9abd bf51 fb3d 0f2d edbd
000000f0: 1bfe c3bd aaf0 c8bd 407f ce3d 58a0 eabd
00000100: 8b98 aebd 41ec 543d 4e9e 673d 192a 1abd
00000110: 12df cd3d c98f ba3d c1f9 063d b529 043d
00000120: a3aa 68bc bcee cb3c 784c 04bd 05c2 ea3d
00000130: 5e4b 9e3d acbe 713d c38f 0738 2744 0fbd
00000140: 4731 e03c e6ef 643c 1f64 febd 3c23 ea3d
00000150: ddd8 fb3c 9039 a6bc c075 1d3d 2790 d53c
00000160: c8bc cdbd 6c5c 463d ea52 8b3d 5296 fc3c
00000170: 9863 7bbd fc91 fa3d 67ab 5e3b 8de0 dc3d
00000180: df44 1d3d a569 35bd 05ca ec3c c7e2 60bd
00000190: 5846 cfbd f3e8 6d3b 0096 f43d 2e4a c6bd
000001a0: 6c4d ee3d afa3 e73d 175c 253d 9bd7 8fbd
000001b0: a90a 5bbd 766d b83d 2efa f0bd c9ea 83bc
000001c0: cdbf 7b3d 4d9a 8abd 98ca 9dbd 3a44 edbd
000001d0: 5287 b5bd e278 e73d 8bcc fabc 7060 253d
000001e0: f8c4 c83d fc7f 833d e031 97bd 2659 f5bd
000001f0: b4ac 733d ba6a a5bd 10f6 65bc 478b 85bd
00000200: 5aaa 893d 87a5 3fbd b94f 07bd 092b 55bd
00000210: 4d05 33bd 1b5b 53bc aa84 bbbd 1405 62bd
00000220: 480a eb3c 6e21 eebd 9536 c4bd 1a86 89bd
00000230: 637f 43bd adbe 933c 020c ea3d c69c 03bd
00000240: 2416 bf3d 92f9 253b 337f 273d 50f8 f2bd
00000250: c439 933d 9876 c73b be73 b03c d58d bbbc
00000260: 9771 31bc 3538 f5bd 2f52 9d3d 7c03 acbd
00000270: 82a8 c4bd c07f 26bd e5aa cf3c 28c4 a83d
00000280: c593 b1bb 7230 71bd 28dc dcbb ff5a a5bd
00000290: 4b61 e63d 5062 b5bd f20b b3bd 78fd a23d
000002a0: 069f d43d 6ad8 71bd 0e23 5e3d 66eb b6bd
000002b0: 0892 90bd b303 d8bc 8e5b 87bd bb10 013d
000002c0: 9076 ac3d 275c ce3d b1f9 f03c d570 7abd
000002d0: f4fb f9bc 98ca 5ebd cbb7 583d b0ca 943d
000002e0: cee4 d93d 0441 253b a730 a23d 1f59 863d
000002f0: abd8 d2bd f396 c33d f709 a63d f410 5fbd
00000300: 7448 77bd c8e7 d9bd 6062 a53d 901f 1dbd
00000310: e182 bb3d d934 f1bd cf64 eb3d afaf 363d
00000320: 3439 3a3d fdad 14bd 1e65 aabd 1e49 a73d
00000330: 3f62 ac3d 73e1 ca3c 54ee f73d 5e47 e8bd
00000340: 3cb9 0a3d 8bd8 bdbd 81a4 fbbc 6b61 af3d
00000350: 5a28 24bb 4b72 ef3d d38e 73bd 53cd 723d
00000360: 6d36 ff3c e6c4 b5bd 10d8 9a3d b3b6 ecbc
00000370: 7c04 a03d fe0e 713d d123 49bd bf48 623d
00000380: 4a3d ebbd a73e 263d 9980 edbd c64d 43bc
00000390: 2f87 95bd 9e56 553d 52ec 94bd c2f1 bb3d
000003a0: 0375 9b3d 32be babd bba7 abbd 537c 43ba
000003b0: 96fa e7bd febd b53c 8f16 823c 1108 3a3d
000003c0: 6b06 b33c b4ea b3bd 3b0f d53d 3f4f e03d
000003d0: 65ce e1bd e3dd 133b 3552 b7ba d37c a03d
000003e0: 8840 00be 76bb 833d 21fc 35bd a0d3 b73d
000003f0: 21d8 e73b fe61 c23d 7639 af3d a8f9 45bd

actor.4.bias f4 [8]
-0.10155124 -0.0015424165 -0.102203235 0.021605242 0.044503838 -0.051564317 -0.05830519 -0.07691886
00000000: 19fa cfbd e92a caba ee4f d1bd 7afd b03c
00000010: a849 363d 1b35 53bd 6cd1 6ebd a387 9dbd

critic.0.weight f4 [64, 105]
0.04753838 -0.021292785 0.005717265 0.03189406 -0.017398372 0.05863644 -0.08567655 -0.0735133
0.022529306 -0.025304936 0.023362711 -0.004782095 0.051626362 0.077591985 0.027920458 -0.05952198
0.026757127 0.08154807 -0.021267334 -0.04974691 0.07763874 -0.013411044 -0.04441358 0.06520272
0.06395989 0.017084386 0.052150838 0.09070807 0.048941504 0.078097604 -0.090428375 0.06849088
0.06488023 -0.08697222 -0.0028219942 0.04678214 -0.034775753 0.018350163 0.086135656 -0.043829698
-0.07946807 -0.005452266 -0.03251886 -0.00065253064 -0.05337441 0.085804015 0.050863672 -0.045427844
0.037999127 -0.061876196 -0.07494633 0.05248035 0.070617646 0.04814082 0.05064353 0.06488635
0.05070619 0.08306995 -0.052896746 -0.01738135 -0.0039863815 0.07437521 -0.016875716 0.04640208
0.015299515 -0.064287156 -0.046687275 0.037546284 -0.019621253 -0.097140014 -0.02384395 0.0008990822
-0.062449586 0.0608845 0.08481217 0.088318944 0.050567307 0.07138719 -0.08181734 0.0012714284
0.032710746 -0.019038428 0.012154574 -0.07268841 0.07680148 -0.092790574 0.06961663 -0.0089051295
-0.052242912 0.05113589 0.01342162 -0.062716536 0.013466701 -0.08341531 0.017447695 0.039957583
-0.035179134 0.018461544 -0.08008376 -0.08369317 -0.0944013 -0.09550419 -0.020900764 -0.041427836
-0.073300526 0.015168539 -0.003862586 0.011817162 -0.07019738 -0.08992525 0.0577187 0.067244545
-0.0775173 0.103772864 -0.0065003163 -0.09061042 0.06755786 -0.0017257907 -0.024993645 0.015993813
-0.07436548 -0.030419113 0.07990714 0.05913907 -0.016371174 0.06942066 -0.05271589 0.0839057
-0.081362 -0.05666899 0.037343692 0.028628474 -0.07460057 0.073332444 -0.023885436 0.0511465
-0.011963123 0.07687437 -0.00017651715 0.06859303 -0.019464782 0.03222758 -0.015035904 -0.05391457
-0.050205488 -0.057538938 0.067190096 0.014180029 -0.037437968 0.04947891 -0.085363455 -0.06682275
0.046022724 0.06069781 -0.030230861 0.031782374 0.016440304 -0.074104264 -0.0121216085 -0.060698796
-0.041756377 0.07938825 0.073590726 -0.037283264 0.05283177 0.0019130699 0.083284825 0.08346545
0.02542566 -0.027821118 -0.08367984 -0.09708914 -0.084037066 -0.044137314 -0.022278562 0.024403179
-0.058438823 0.073150575 0.05467107 -0.021790335 -0.04019719 0.0051132618 0.0049600936 -0.08530146
-0.015272392 0.045806903 -0.060391977 0.051841207 -0.07174816 0.05319093 0.047187366 -0.09923783
0.058338504 0.06008732 -0.091062725 0.02395562 0.095814876 -0.09494873 -0.056405682 -0.05754152
-0.058318205 0.08177431 -0.040745925 -0.02570019 0.07329935 -0.031552188 -0.0831203 0.04588986
0.07581317 -0.068685465 -0.036625694 -0.055870347 -0.027921064 -0.07797696 0.012522418 0.02189873
-0.023598675 -0.0024268953 -0.064719066 -0.07299719 0.09279638 -0.105758 -0.062043 0.08085614
-0.034743536 -0.06295452 -0.029314233 0.03507363 -0.015362404 0.029394211 0.035258617 -0.035439428
0.056779485 -0.06960424 0.048912898 0.011157616 0.057088725 0.040554482 0.040613346 0.014235637
-0.08210273 0.03829993 -0.053883348 0.04003413 -0.08072205 0.031371333 -0.06716974 0.050525226
-0.006974539 0.026947664 -0.054511808 -0.05145614 0.05090731 -0.03520764 0.017677879 -0.012620222
00000000: 9bb7 423d 356e aebc e557 bb3b 59a3 023d
00000010: 0887 8ebc c42c 703d 3077 afbd 248e 96bd
00000020: 618f b83c 4c4c cfbc 2863 bf3c 1fb3 9cbb
00000030: 2a76 533d 8ce8 9e3d 72b9 e43c 52cd 73bd
00000040: c331 db3c ad02 a73d d538 aebc 6ac3 4bbd
00000050: 0f01 9f3d ffb9 5bbc 04eb 35bd 0189 853d
00000060: 67fd 823d 8ef4 8b3c 1e9c 553d 27c5 b93d
00000070: e376 483d a3f1 9f3d 8332 b9bd f244 8c3d
00000080: eddf 843d 7e1e b2bd 35f1 38bb a19e 3f3d
00000090: 0571 0ebd 1553 963c e467 b03d c586 33bd
000000a0: 28c0 a2bd eca8 b2bb 7f32 05bd 970e 2bba
000000b0: 209f 5abd 04ba af3d 6d56 503d 8c12 3abd
000000c0: f9a4 1b3d e571 7dbd 767d 99bd a3f5 563d
000000d0: fc9f 903d 4f2f 453d 976f 4f3d 22e3 843d
000000e0: 4bb1 4f3d 9420 aa3d 42aa 58bd 5563 8ebc
000000f0: 31a0 82bb 0852 983d f13e 8abc 1c10 3e3d
00000100: d1aa 7a3c fca8 83bd 283b 3fbd 22ca 193d
00000110: c0bc a0bc 58f1 c6bd 6354 c3bc 63b0 6b3a
00000120: 23cb 7fbd 0762 793d 01b2 ad3d 90e0 b43d
00000130: aa1f 4f3d 7233 923d d98f a7bd 0fa6 a63a
00000140: b4fb 053d 7af6 9bbc fa23 473c a9dd 94bd
00000150: 184a 9d3d fc08 bebd 2a93 8e3d d2e6 11bc
00000160: aafc 55bd de73 513d 5be6 5b3c 8771 80bd
00000170: 70a3 5c3c a5d5 aabd 78ee 8e3c 90aa 233d
00000180: ff17 10bd aa3c 973c f402 a4bd 5367 abbd
00000190: 7855 c1bd b397 c3bd 1438 abbc 3cb0 29bd
000001a0: 961e 96bd 7785 783c 7123 7dbb c59c 413c
000001b0: a5c3 8fbd bb2a b8bd 726a 6c3d 82b7 893d
000001c0: 64c1 9ebd de86 d43d 9b00 d5bb f591 b9bd
000001d0: c65b 8a3d ed33 e2ba 79bf ccbc 7505 833c
000001e0: ee4c 98bd 8131 f9bc 5ba6 a33d cf3b 723d
000001f0: d71c 86bc 6b2c 8e3d 9eec 57bd c0d6 ab3d
00000200: 1fa1 a6bd be1d 68bd b3f5 183d 4386 ea3c
00000210: 2fc8 98bd 522f 963d 64ab c3bc fe7e 513d
00000220: fa00 44bc 4f70 9d3d 7617 39b9 817a 8c3d
00000230: 9b74 9fbc 1101 043d 2759 76bc 86d5 5cbd
00000240: 45a4 4dbd f3ad 6bbd f69a 893d 5a53 683c
00000250: 8e58 19bd 66aa 4a3d 09d3 aebd 5eda 88bd
00000260: 5382 3c3d 449e 783d b6a6 f7bc 3c2e 023d
00000270: d1ad 863c fac3 97bd b699 46bc 4d9f 78bd
00000280: bc08 2bbd 4f96 a23d bcb6 963d 56b6 18bd
00000290: 2066 583d f9bf fa3a 3c91 aa3d efef aa3d
000002a0: 7949 d03c 1de9 e3bc 5660 abbd acd6 c6bd
000002b0: a01b acbd 54c9 34bd 8881 b6bc 2de9 c73c
000002c0: 8c5d 6fbd f8cf 953d c6ee 5f3d a581 b2bc
000002d0: cfa5 24bd 268d a73b 4888 a23b 88b2 aebd
000002e0: 0e39 7abc 05a0 3b3d 945d 77bd 7257 543d
000002f0: b3f0 92bd bcde 593d 8a47 413d 343d cbbd
00000300: 5bf4 6e3d 1f1e 763d 187f babd 943e c43c
00000310: 973a c43d 7b74 c2bd a509 67bd a8b0 6bbd
00000320: 12df 6ebd 4a79 a73d 33e5 26bd 3489 d2bc
00000330: f81d 963d de3c 01bd fa3a aabd 01f7 3b3d
00000340: ef43 9b3d f7aa 8cbd d304 16bd 4ed8 64bd
00000350: b7ba e4bc 62b2 9fbd d42a 4d3c f764 b33c
00000360: 0252 c1bc 8c0c 1fbb 6e8b 84bd 8d7f 95bd
00000370: 070c be3d a697 d8bd cd20 7ebd e797 a53d
00000380: 3d4f 0ebd 4dee 80bd 6724 f0bc 5ea9 0f3d
00000390: 98b2 7bbc 21cc f03c 576b 103d ef28 11bd
000003a0: 9b91 683d ab8c 8ebd e458 483d 6fce 363c
000003b0: ded5 693d 751c 263d 2e5a 263d 973c 693c
000003c0: 7a25 a8bd 63e0 1c3d c9b4 5cbd d4fa 233d
000003d0: 9a51 a5bd 3a7f 003d 4a90 89bd 8af3 4e3d
000003e0: ac8a e4bb 59c1 dc3c c647 5fbd acc3 52bd
000003f0: 2f84 503d e335 10bd 33d1 903c 0cc5 4ebc

critic.0.bias f4 [64]
-0.098446034 0.023295453 0.049170703 0.07285647 0.030917523 0.0012906572 -0.052148286 -0.011484321
0.052414376 -0.08851488 0.04286145 0.05829938 0.05234608 0.07378334 0.07228439 0.051322784
0.055391915 -0.09901963 0.036363676 0.04865105 0.028010907 0.03295984 -0.104161605 -0.090939224
0.02106 -0.08045127 0.07209252 -0.06992422 -0.025184384 0.076720804 0.097697884 -0.041635603
-0.038947716 0.06985239 0.00065578904 0.06318357 -0.039292112 -0.011598559 -0.016439 -0.01138212
-0.02623042 -0.049506783 -0.034563802 0.07304534 0.039636817 -0.06271797 -0.042011376 0.02291873
-0.050877053 -0.07459295 0.041363236 0.08007457 -0.0025144673 -0.02485485 0.082384355 -0.016578669
0.09759568 0.1069539 -0.10097634 0.008433906 0.05828174 -0.06748123 -0.03952065 -0.08349191
00000000: 139e c9bd 1bd6 be3c 3867 493d c635 953d
00000010: bf46 fd3c 452b a93a 7199 55bd bc28 3cbc
00000020: 75b0 563d 4a47 b5bd 7d8f 2f3d 55cb 6e3d
00000030: d868 563d b81b 973d d709 943d d737 523d
00000040: a2e2 623d ceca cabd 14f2 143d 5346 473d
00000050: 2177 e53c e600 073d ae52 d5bd 583e babd
00000060: 0586 ac3c a3c3 a4bd 3ea5 933d 6e34 8fbd
00000070: 7b4f cebc cc1f 9d3d d415 c83d 188a 2abd
00000080: a487 1fbd c50e 8f3d 42e9 2b3a 6366 813d
00000090: c4f0 20bd e207 3ebc 15ab 86bc 127c 3abc
000000a0: 2ee1 d6bc a0c7 4abd c692 0dbd cc98 953d
000000b0: 375a 223d 4772 80bd 1f14 2cbd 0fc0 bb3c
000000c0: 7564 50bd 30c4 98bd 7f6c 293d 23fe a33d
000000d0: c3c9 24bb 669c cbbc 21b9 a83d fdcf 87bc
000000e0: 3ee0 c73d a50a db3d afcc cebd 5e2e 0a3c
000000f0: d5b8 6e3d 9933 8abd 68e0 21bd cefd aabd

critic.2.weight f4 [64, 64]
-0.04297788 -0.12099918 0.11895658 0.108901925 0.092310905 -0.10708269 -0.01644172 -0.04119366
0.088833764 0.014419217 0.041795917 0.09675387 -0.028915897 0.1268807 -0.035974033 0.055114143
-0.10649029 0.11728336 0.06277483 0.010148711 0.123693086 -0.012042309 0.0025105877 0.033054065
-0.0798989 -0.046372052 0.08306515 0.03241455 0.084396645 0.04776581 -0.056641646 -0.033939168
0.0059149866 -0.0658583 0.047430746 -0.02217748 -0.08597669 -0.048185065 0.07632993 -0.031206362
-0.12078377 0.0560158 -0.013448844 0.081902206 -0.10870484 0.03132746 -0.105678186 -0.066118784
-0.034613244 -0.11252399 -0.07680779 0.04586407 -0.054715343 0.03224621 -0.051927328 -0.11897282
0.1168171 0.063237146 -0.009737295 0.0735742 0.0013016942 -0.1284742 0.070546895 0.090614684
-0.0068558436 0.032438885 0.08180741 -0.1041813 -0.009583915 0.06334856 0.03343617 0.028034808
-0.062498476 -0.009386384 -0.03145003 -0.07844317 0.05827741 -0.0035031196 -0.06975553 -0.0938855
0.07795929 -0.09112613 -0.032489043 -0.09013845 -0.041693617 0.0047681415 -0.092625275 -0.0885573
-0.10640799 -0.04679974 0.034083486 0.1081942 -0.043448944 -0.00028514417 0.08653583 -0.10273166
0.10936503 0.022595406 0.116864614 -0.022257255 0.10519108 -0.07678307 -0.021332039 0.07104642
-0.12871727 -0.027980002 0.012941631 0.0462785 -0.061612323 0.0013369658 0.04077819 -0.09420154
0.050011136 -0.123873785 0.05296707 0.09431449 0.1338928 0.13042665 -0.027058689 -0.016824562
0.06576585 0.11553135 -0.008987366 0.11268934 0.046046425 -0.12542278 -0.028049193 0.10598424
0.056044437 -0.092356056 0.022120656 -0.10793402 0.041266877 0.08887941 0.065182835 -0.08170945
-0.06500097 0.0829642 -0.11403023 -0.016198797 1.5465092e-06 -0.04612466 -0.03141604 -0.09635525
-0.09609375 0.04506135 -0.019557081 -0.06730056 0.114098415 0.09216763 -0.05516834 -0.012307683
-0.033190712 -0.115140945 -0.0057453653 -0.022752848 0.007817055 0.019595869 0.08060826 -0.08185826
-0.12760869 0.053403817 -0.05225541 0.061178453 0.081598215 -0.04620149 -0.027260961 -0.00066958106
-0.031808298 -0.05906902 0.04047868 -0.0045095803 0.06205904 -0.022477765 0.020399177 0.031102618
0.06569822 0.11431257 -0.06741416 -0.0398878 0.011420297 -0.0841374 0.021763092 0.059751675
0.09407629 0.092678495 0.094759844 0.014402889 -0.0939191 -0.09914714 -0.026694447 -0.09635303
0.09466114 0.0182142 -0.06924182 0.011977015 -0.023249747 0.1197443 0.07072408 -0.0058309925
-0.08510651 -0.06351803 0.0644807 0.06906019 0.004394535 -0.10102479 0.0012438799 -0.028716478
0.011438867 -0.038479872 -0.06681107 -0.10713153 0.0070505626 0.08452145 -0.02721722 -0.0022279795
-0.078286886 -0.060724597 -0.054733016 0.028139573 -0.09535883 0.080048576 0.027998319 0.09486279
0.017231023 0.08343474 -0.03539153 0.05094781 -0.099790186 0.04166364 0.09402326 -0.121258415
-0.010138 -0.09616979 0.095187254 -0.08367011 0.074818864 -0.10927579 -0.06178227 -0.063319646
-0.08251252 -0.07518792 -0.04715235 0.11553244 0.03782942 -0.05787348 -0.04142246 0.11853486
-0.051929552 0.021995202 0.113861576 -0.12812799 -0.056216236 0.026317932 -0.005607897 -0.03226832
00000000: 9309 30bd 6bce f7bd 829f f33d f907 df3d
00000010: 800d bd3d 2b4e dbbd c9b0 86bc afba 28bd
00000020: 7aee b53d 943e 6c3c 3232 2b3d e526 c63d
00000030: 08e1 ecbc 04ed 013e 8259 13bd 5ebf 613d
00000040: 9517 dabd 4232 f03d 1790 803d c746 263c
00000050: cd52 fd3d 1b4d 45bc ac88 243b b363 073d
00000060: 09a2 a3bd 9ff0 3dbd 101e aa3d 1fc5 043d
00000070: 26d8 ac3d 15a6 433d 1201 68bd cc03 0bbd
00000080: 81d2 c13b b7e0 86bd be46 423d 8cad b5bc
00000090: 8c14 b0bd b45d 45bd de52 9c3d 7ca4 ffbc
000000a0: 7b5d f7bd d370 653d 8a58 5cbc 58bc a73d
000000b0: a5a0 debd 3951 003d ce6d d8bd 4969 87bd
000000c0: 9ec6 0dbd fa72 e6bd 674d 9dbd f7db 3b3d
000000d0: 321d 60bd 9a14 043d c0b1 54bd 06a8 f3bd
000000e0: ce3d ef3d 7a82 813d 2d89 1fbc 12ae 963d
000000f0: 9c9d aa3a be8e 03be e47a 903d 3194 b93d
00000100: fca6 e0bb a3de 043d a58a a73d 015d d5bd
00000110: da05 1dbc e4bc 813d 5ef4 083d 41a9 e53c
00000120: 67fe 7fbd 59c9 19bc bfd1 00bd d0a6 a0bd
00000130: 4bb4 6e3d 9894 65bb fddb 8ebd 0b47 c0bd
00000140: 1fa9 9f3d 56a0 babd 3b13 05bd 829a b8bd
00000150: edc6 2abd 123e 9c3b 52b2 bdbd 885d b5bd
00000160: 6fec d9bd 16b1 3fbd 209b 0b3d ec94 dd3d
00000170: 85f7 31bd 677f 95b9 b239 b13d fa64 d2bd
00000180: c6fa df3d 001a b93c b756 ef3d d954 b6bc
00000190: 6c6e d73d 7140 9dbd 87c0 aebc c980 913d
000001a0: 76ce 03be 5136 e5bc 2209 543c 868e 3d3d
000001b0: 345d 7cbd 213d af3a 0807 273d bdec c0bd
000001c0: 7ad8 4c3d 8ab1 fdbd 00f4 583d f527 c13d
000001d0: 321b 093e 908e 053e 2faa ddbc aad3 89bc
000001e0: 3fb0 863d b39b ec3d bf3f 13bc abc9 e63d
000001f0: 2d9b 3c3d d46e 00be 6cc7 e5bc 440e d93d
00000200: da8e 653d 2c25 bdbd 6136 b53c 830c ddbd
00000210: 7507 293d 6806 b63d 947e 853d 4957 a7bd
00000220: 3b1f 85bd 22e9 a93d ae88 e9bd 57b3 84bc
00000230: a791 cf35 36ed 3cbd 1bae 00bd e755 c5bd
00000240: cdcc c4bd 4092 383d 2c36 a0bc e0d4 89bd
00000250: 6eac e93d 62c2 bc3d 33f8 61bd 2aa6 49bc
00000260: fcf2 07bd 04cf ebbd 9e43 bcbb 2e64 babc
00000270: 1b13 003c 8487 a03c f215 a53d 4ea5 a7bd
00000280: daab 02be f6bd 5a3d c509 56bd 4296 7a3d
00000290: f71c a73d c63d 3dbd 6152 dfbc d386 2fba
000002a0: 6b49 02bd 5bf2 71bd f9cc 253d 1ac5 93bb
000002b0: 9f31 7e3d 4a23 b8bc 2d1c a73c ebca fe3c
000002c0: ca8c 863d b51c ea3d 6f10 8abd 6461 23bd
000002d0: 331c 3b3c 3b50 acbd 8348 b23c 2cbe 743d
000002e0: 12ab c03d 39ce bd3d 7311 c23d 18fa 6b3c
000002f0: a858 c0bd a80d cbbd 50ae dabc bd54 c5bd
00000300: b3dd c13d f235 953c a8ce 8dbd 3e3b 443c
00000310: 4176 bebc 803c f53d c9d7 903d e911 bfbb
00000320: 524c aebd be15 82bd 750e 843d 6e6f 8d3d
00000330: 0800 903b 16e6 cebd af09 a33a d23e ebbc
00000340: 166a 3b3c 129d 1dbd 3ed4 88bd c767 dbbd
00000350: 6808 e73b 9519 ad3d a6f6 debc 4b03 12bb
00000360: e054 a0bd 5bba 78bd ba2f 60bd f684 e63c
00000370: 7e4b c3bd 82f0 a33d bb5c e53c 6c47 c23d
00000380: 1328 8d3c d5df aa3d b5f6 10bd a7ae 503d
00000390: cc5e ccbd 7ea7 2a3d 448f c03d 5556 f8bd
000003a0: db19 26bc abf4 c4bd 89f1 c23d 3c5b abbd
000003b0: a23a 993d fccb dfbd 680f 7dbd bbad 81bd
000003c0: 53fc a8bd 20fc 99bd d322 41bd 469c ec3d
000003d0: 06f3 1a3d be0c 6dbd 99aa 29bd 68c2 f23d
000003e0: 15b4 54bd 482f b43c 4230 e93d fc33 03be
000003f0: ff42 66bd b498 d73c 73c2 b7bb c92b 04bd

critic.2.bias f4 [64]
-0.0306467 -0.097354315 -0.0412844 0.09206449 0.057357237 -0.011226561 -0.05381319 -0.10205894
0.08519576 0.0712252 0.00085028855 -0.12707086 -0.011368672 0.057113927 0.06379442 -0.06236844
-0.10858089 0.088855095 0.10841991 0.07572461 0.02973897 -0.026607173 -0.0315939 -0.047110774
0.0787292 -0.03176151 -0.092519775 -0.087026335 0.048192818 -0.022552148 -0.0015036152 0.104111426
-0.10459311 0.12050767 -0.1340049 -0.038863845 0.08060669 -0.0062843296 0.036066405 0.01801375
-0.06443222 -0.015501548 0.054599516 -0.026530446 0.03059194 -0.010844234 0.03606912 -0.079239324
-0.12864299 -0.012377257 0.108942285 -0.036421724 -0.12179992 -0.02569058 -0.10083881 -0.024731994
0.041798186 0.06771169 0.071679495 -0.027515445 0.03503595 -0.11203754 -0.10507536 0.0022109654
00000000: ca0e fbbc b361 c7bd d519 29bd 4f8c bc3d
00000010: 6cef 6a3d 9cef 37bc 386b 5cbd 4704 d1bd
00000020: 1d7b ae3d 85de 913d e6e5 5e3a dd1e 02be
00000030: ab43 3abc 4bf0 693d a6a6 823d 0d76 7fbd
00000040: a85f debd a9f9 b53d 420b de3d 8115 9b3d
00000050: 249f f33c 49f7 d9bc 9b68 01bd 3af7 40bd
00000060: c63c a13d 5b18 02bd 027b bdbd dd3a b2bd
00000070: d565 453d 48bf b8bc f414 c5ba 5f38 d53d
00000080: ea34 d6bd bacc f63d 9538 09be b22f 1fbd
00000090: 1f15 a53d c7ec cdbb 5eba 133d 9291 933c
000000a0: 0af5 83bd 34fa 7dbc bea3 5f3d 6156 d9bc
000000b0: f39b fa3c 04ac 31bc 37bd 133d 3a48 a2bd
000000c0: fdba 03be fbc9 4abc 221d df3d f22e 15bd
000000d0: 3d72 f9bd 0d75 d2bc 9484 cebd c09a cabc
000000e0: 9334 2b3d 6dac 8a3d b3cc 923d 1268 e1bc
000000f0: db81 0f3d f073 e5bd c031 d7bd d8e5 103b

critic.4.weight f4 [1, 64]
0.10514764 0.03180933 0.02770283 0.020085057 0.015592004 0.041203927 -0.094261594 0.04513442
0.123275 -0.06506533 0.079106994 -0.01617225 0.08075565 0.075605 0.033433247 0.041133452
-0.030965414 0.022197267 -0.05501217 0.054445688 0.010276236 -0.032811314 0.08639312 0.024601197
0.06942294 0.070526935 0.031267367 0.018332213 0.046307746 0.04729524 -0.050116327 -0.017666114
0.057798807 0.11395887 -0.050057936 0.07456941 0.09114107 -0.029511984 0.07291671 0.10193503
-0.03835006 -0.057954878 -0.099848546 -0.03687521 0.062429823 -0.12303218 -0.065314665 -0.08185698
-0.055470686 -0.12978989 0.122874685 0.11347451 -0.026167875 0.051147837 -0.1100837 0.10085203
0.09140375 -0.08058963 -0.08430478 0.019903826 0.04544251 0.070754185 0.07097925 -0.07997416
00000000: a557 d73d 804a 023d 0cf1 e23c 6b89 a43c
00000010: 9b75 7f3c 73c5 283d 390c c1bd dfde 383d
00000020: 9a77 fc3d f940 85bd d902 a23d ab7b 84bc
00000030: 3863 a53d cbd6 9a3d 4df1 083d 8d7b 283d
00000040: 2eab fdbc 0bd7 b53c 7154 61bd 7102 5f3d
00000050: a85d 283c 2865 06bd e0ee b03d 7388 c93c
00000060: 9d2d 8e3d 6d70 903d 3612 003d 702d 963c
00000070: 31ad 3d3d a7b8 413d c746 4dbd 87b8 90bc
00000080: 71be 6c3d 4563 e93d 8d09 4dbd d9b7 983d
00000090: 2ba8 ba3d 1ec3 f1bc 5b55 953d 50c3 d03d
000000a0: f414 1dbd 1862 6dbd 657d ccbd 760a 17bd
000000b0: 6ab6 7f3d 4cf8 fbbd b2c3 85bd a2a4 a7bd
000000c0: 3b35 63bd a4e7 04be b9a5 fb3d 5365 e83d
000000d0: 035e d6bc 6580 513d 9073 e1bd 828b ce3d
000000e0: e431 bb3d 2d0c a5bd fca7 acbd 590d a33c
000000f0: ed21 3a3d 92e7 903d 925d 913d 7ec9 a3bd
