PPO_continuous_LunarLanderContinuous-v3.pth (torch, 43826 bytes, 11 tensors)

actor.0.weight f4 [64, 8]
000000 a3 9d 29 3e 8e 44 3f be 74 c8 34 3e b3 30 88 be
       0.1656404 -0.18678495 0.17654592 -0.26599655
000010 5e b5 e4 bd 4f 2b d3 bc e3 51 01 3d 6e cc a1 be
       -0.111674055 -0.025777487 0.031572234 -0.3160128
000020 6c 3b 1f be 53 6f 38 3d 99 cc 83 be 44 1c 0e 3e
       -0.15550011 0.045028042 -0.25742033 0.1387797
000030 60 42 4c 3e f9 3b 5d be ee c3 4d 3d 98 1e 98 3e
       0.19947195 -0.21604909 0.05023568 0.2971084
000040 b7 fc 85 be f4 92 17 be b7 5c 99 be ac e3 3b 3e
       -0.2616937 -0.14802152 -0.29953548 0.18348569
000050 08 19 78 3e 6d 79 b0 be 83 73 bb 3d 72 27 7c be
       0.24228299 -0.3446764 0.091528915 -0.24624422
000060 93 ea 20 3d cf c9 a0 3e f3 ee a0 3d 9b d2 91 3e
       0.039286207 0.31403968 0.07858076 0.28480992
000070 a5 10 50 be 91 3a 97 be 39 5a 65 be a7 fb 90 be
       -0.2031885 -0.2953687 -0.22397698 -0.28316996
000080 1a 76 b6 3e 90 a9 12 3e 02 e2 e4 3d e0 f7 a3 3d
       0.3563698 0.14322495 0.1117592 0.08006263
000090 67 20 7f be c2 73 17 be bc bf 3f be a3 b8 a4 3c
       -0.24914704 -0.14790252 -0.18725485 0.020107573
0000a0 19 91 a9 bd 9d ee 9b 3d 8b 01 6f 3e f0 f0 a3 3e
       -0.08279628 0.07613871 0.23340432 0.32019758
0000b0 84 e6 7f 3e 3f 94 c6 3d 8e de 1c 3c 8f c1 07 3e
       0.24990278 0.096962444 0.009574546 0.1325743
0000c0 57 92 0e be 20 e6 8f 3d 5d 2e 93 be 83 cb 3d be
       -0.13923012 0.07026315 -0.2874631 -0.18534665
0000d0 05 6d 60 be 11 a6 14 3d f6 ad 91 3e f0 40 a9 3d
       -0.21916588 0.036291186 0.28453034 0.08264339
0000e0 af 0b 48 be eb cd 4c 3e e3 b9 6c 3d c6 28 52 be
       -0.19535707 0.20000426 0.057794463 -0.20523366
0000f0 32 26 c0 bd fa 78 89 be 2b 73 06 bd 21 f5 ed bd
       -0.09382285 -0.2685011 -0.032824676 -0.1161902
000100 9f 46 92 be fd b6 6c bb 1a c0 9d 3d d6 b9 a1 3e
       -0.28569505 -0.0036119812 0.07702656 0.31587094
000110 52 46 58 3d 1b 0b 92 3e 76 fe 8d be a3 b1 30 3e
       0.052801438 0.28524098 -0.277332 0.17255263
000120 c7 16 b1 3e 78 09 90 be 40 bf 2a 3e 89 de e7 3b
       0.3458769 -0.28132224 0.16674519 0.007076089
000130 8a 53 87 3e b1 d5 4f be 30 86 55 bd 45 7b 61 be
       0.26430923 -0.2029636 -0.052129924 -0.2201968
000140 4d e1 9b bc ba 92 5d be ae 6d 34 3e 12 89 85 bc
       -0.01902833 -0.21638003 0.17619964 -0.016300712
000150 7e 03 15 3e 71 e9 c2 be 12 ec a8 bc 05 cd 40 3d
       0.14552113 -0.38068727 -0.02062038 0.04707052
000160 36 d9 d4 bd 66 c6 27 bb 0c 1e a9 be 0a d1 8c bd
       -0.10392992 -0.0025600432 -0.33030736 -0.068758085
000170 49 f0 28 bb 6a 2d e8 3d 39 c0 b3 3e 02 eb 9c bc
       -0.0025777987 0.11336787 0.35107592 -0.01915503
000180 e2 9e 80 be d7 f9 25 be 21 6e a9 be de a3 49 bd
       -0.25121218 -0.16208588 -0.33091834 -0.04922854
000190 f6 76 4b be c4 66 ac be 11 97 5b 3d cb d7 26 bd
       -0.19869599 -0.33672154 0.053610865 -0.04073314
0001a0 38 eb 37 3d c6 51 b1 be df bd 21 3e a6 ba 22 be
       0.044902056 -0.346327 0.15795086 -0.15891513
0001b0 d4 82 92 be e0 fd 9d be 58 b6 c5 be a2 91 0f 3d
       -0.2861544 -0.30857754 -0.3861568 0.035050996
0001c0 ed 81 8a 3e 19 3e 96 3e c8 c4 ba 3e ba 02 ac 3e
       0.2705225 0.29344252 0.36478257 0.3359583
0001d0 e1 ef 6d be 5e 37 b5 bc 7a a0 57 be 75 d8 c9 bd
       -0.23236038 -0.022121128 -0.2105731 -0.09855739
0001e0 9e c8 9a be 9b c0 b0 be 00 7e ab be af b9 c1 bd
       -0.30231184 -0.34521946 -0.33494568 -0.094592445
0001f0 8f b7 1f be ed d0 29 be 7a 2f 2b 3d 2d 5d d2 bd
       -0.15597366 -0.16583605 0.041793324 -0.10271678
000200 91 75 59 3e d8 58 19 3e de 77 2f bd 41 32 83 3e
       0.21236254 0.14975297 -0.042838924 0.25624278
000210 24 8c 05 bd a9 1b a7 be c3 d8 e7 bd d3 a4 6a 3e
       -0.03260435 -0.3263829 -0.11320641 0.22914438
000220 51 e8 68 3e c7 8a 7a 3d 77 40 8e 3e d4 7b c8 3e
       0.22744872 0.061167505 0.27783558 0.39156973
000230 e8 1c 95 bd f2 e5 77 3e fd c6 27 3e f6 89 94 be
       -0.07280904 0.24208811 0.16384502 -0.29011506
000240 1d 0a e6 bd 91 a6 4d 3e da 30 25 be a7 3c a5 bc
       -0.11232398 0.20083071 -0.16131917 -0.020170523
000250 33 0b 53 3e e6 a8 42 3e 1a a9 6a 3e f2 fe d0 3d
       0.20609741 0.19009742 0.2291607 0.10204877
000260 1f ea b1 bc 35 cd 7a be 08 77 07 3e 02 30 cb 3d
       -0.021718083 -0.24492343 0.13229 0.09921266
000270 e4 df 3a 3c 95 ce 63 3e ce ce a7 be e7 8b 88 bd
       0.011405919 0.22246774 -0.32774967 -0.06667309
000280 45 f2 8c bd 4e d0 76 3e a1 e8 06 be d6 c1 bf 3e
       -0.06882147 0.241029 -0.13174678 0.37452573
000290 dd b6 6d be d6 f9 52 be 51 1d 5b 3e 8d c6 8e 3e
       -0.23214288 -0.20603117 0.21397902 0.27885857
0002a0 8d 37 63 3d c1 4d 93 be d1 04 3c 3e b8 7f 33 be
       0.0554729 -0.2877026 0.18361212 -0.1752919
0002b0 a1 cd 1e 3d 86 0f 49 be 95 a6 3f 3e ac 73 61 be
       0.03877032 -0.19634828 0.1871589 -0.22016782
0002c0 78 46 b3 3e 27 34 4b be 93 f4 f6 3c 57 88 a5 bc
       0.350147 -0.19844113 0.030145919 -0.020206613
0002d0 d9 ea e2 bd 56 d8 6f be 9c 5a 4e be bb 24 8f 3e
       -0.1107995 -0.2342237 -0.20151752 0.2795771
0002e0 3b 37 e5 bd 0c 5b 91 3e d0 2e 9b bc 4d 31 73 be
       -0.11192175 0.28389776 -0.01894322 -0.23749276
0002f0 72 e4 0f bd 72 dd 23 3e cc aa 90 3d a5 9a 98 3e
       -0.03512997 0.16002443 0.07063827 0.29805484
000300 f6 0b 8f 3d 91 e2 fa 3c 36 32 3e 3e bf 99 a5 be
       0.06984703 0.030625613 0.18573841 -0.3234386
000310 4e a7 52 be ac 7f 8f 3e 55 fb 63 3e ea 1f 3b be
       -0.20571634 0.28027093 0.22263844 -0.18273893
000320 f6 bd a7 3e f6 6c 34 be 03 ca 5b be 00 d4 ef 3d
       0.32762116 -0.1761969 -0.2146378 0.11710358
000330 10 82 aa bd 81 82 4e 3e 6b 1d 16 3e 6c fc 9e 3e
       -0.08325589 0.20166971 0.1465966 0.31051958
000340 3b f6 9b 3e 12 8e 51 be 27 a4 7b 3e 79 67 de 3d
       0.30461296 -0.20464352 0.24574338 0.108595796
000350 70 47 90 3c 3b ad 3d 3e 31 aa 94 be c9 a3 70 3e
       0.017612189 0.18523113 -0.29036096 0.23499979
000360 65 eb eb 3d c9 ba b0 3e 41 92 93 bc 59 b9 ad bd
       0.11519507 0.34517506 -0.018014075 -0.08482618
000370 da e4 5b 3e 9c 2e 0f 3e 48 64 bb 3a 43 d0 30 3e
       0.21474019 0.13982624 0.0014296854 0.17266946
000380 40 74 17 be 83 a6 71 3e d3 bb 0b be 7c 38 93 bd
       -0.1479044 0.23598675 -0.13645868 -0.07188508
000390 98 df 50 bd 64 bf 70 be ee 7e 19 bd 37 8e 7f 3e
       -0.050994486 -0.2351051 -0.037474565 0.24956594
0003a0 b1 7a 63 3e 2d b4 b1 be 18 0c 05 be 86 1a 5c 3d
       0.22214772 -0.34707776 -0.12992895 0.053736232
0003b0 b1 b2 0f 3c d5 1b f5 bd ef 3f 2b be 8c c5 7b be
       0.008770631 -0.11968199 -0.16723607 -0.24587077
0003c0 db 32 7f 3e 71 9a ac bd b2 48 71 3e 4a ea d0 3d
       0.24921744 -0.08427895 0.23562887 0.10200937
0003d0 19 44 9c 3e a4 99 a9 3e ef b4 c0 3e cc 1f e3 bd
       0.30520704 0.3312503 0.3763804 -0.11090049
0003e0 af 3b ac be cb 66 87 3e b7 d4 0d 3d cc 4e a3 3e
       -0.33639285 0.26445612 0.03462669 0.31896055
0003f0 0c e5 94 3d 9f 51 f5 bd 95 5f 83 3d 9b 4e 1e bd
       0.0727025 -0.119784586 0.06414715 -0.038649183

actor.0.bias f4 [64]
000000 4a d8 b0 bd e7 af f3 bd f2 00 d7 3d fd 1d 7d 3e
       -0.08635004 -0.11898785 0.10498227 0.24718471
000010 0e fd 4f be f9 58 80 be a7 75 36 3c 75 d1 a1 3e
       -0.20311376 -0.2506788 0.011136449 0.31605116
000020 d4 2d ae be d3 ab 1e 3e 75 bb 43 3e 07 ec 03 be
       -0.3401934 0.15495233 0.19114478 -0.12883006
000030 00 f0 df 3d 05 af 85 bd 4b 3e cc bc 69 9b 83 3e
       0.10934448 -0.06527523 -0.024932047 0.25704506
000040 4c 8e 4d 3e fc 82 96 be 89 84 a8 3e af a2 9c bd
       0.20073813 -0.29396808 0.32913616 -0.07648217
000050 aa 22 54 be 25 d7 24 bc 8d 5f 65 3e 77 97 30 3e
       -0.20716348 -0.01006106 0.22399731 0.17245279
000060 5c 73 26 3e 33 f5 3d be b0 be c1 3c 59 89 a5 bd
       0.16254944 -0.18550567 0.023650497 -0.080828376
000070 df ef 9f be 31 41 92 bd da 2c 72 3d c3 bb 7a 3e
       -0.31237695 -0.071413405 0.059124805 0.24485688
000080 66 3c ee 3d d2 db 0e 3e 40 ad e0 bc 0e d8 fa bd
       0.11632614 0.13951042 -0.027426362 -0.122482404
000090 12 5b 78 3d 46 aa 60 bd 56 22 81 be 08 6e 97 3e
       0.060633726 -0.054849885 -0.2522151 0.29576135
0000a0 1b d0 24 3e 43 00 3f bd 8b 3d 81 3e b7 dc ab bd
       0.16095011 -0.04663111 0.25242266 -0.083917074
0000b0 be 37 3a be 2b 50 4b 3e 7d bc 76 be 4e c6 db bd
       -0.18185326 0.198548 -0.2409534 -0.10731183
0000c0 7e 88 44 be 6a 99 fc bd 5a 8f 46 be 64 ce 99 be
       -0.19192693 -0.12333949 -0.19390622 -0.30040276
0000d0 cd 9c c9 3d 8e 85 11 be 78 c6 a9 bd 99 1e 86 be
       0.098443605 -0.14211103 -0.08289808 -0.2619522
0000e0 ca b4 96 be 78 67 00 be 11 ac 54 be 99 93 13 3e
       -0.29434806 -0.1253947 -0.20768763 0.14411773
0000f0 7b 71 71 3e f3 93 66 be 06 38 35 be 10 34 27 3e
       0.23578446 -0.22517376 -0.17697152 0.16328454

actor.2.weight f4 [64, 64]
000000 ed ae b1 bc f3 fc d5 3d 0d eb a8 3c 96 a9 01 3e
       -0.021689856 0.10448637 0.020619893 0.12662348
000010 8e 7d 9c 3d 23 94 a9 3d 04 3a 8c 3d 56 0a c2 bd
       0.07641135 0.08280208 0.06847003 -0.09474628
000020 bb 3a 2b 3d 99 25 d2 3c 55 74 77 3d 17 d4 27 bd
       0.041804057 0.025652694 0.060413677 -0.04097375
000030 40 39 d8 3d 3e bb 05 be 66 11 ba 3d 6b a1 8f bc
       0.105577946 -0.13059708 0.0908535 -0.017533025
000040 07 78 76 3d d6 b3 12 bd a6 31 96 bd 70 cd c8 bd
       0.06017306 -0.035816036 -0.073336884 -0.09804809
000050 55 ea 5f bc af a7 2c 3d 9f 43 68 3d 09 5a 76 bd
       -0.013666709 0.042152103 0.056705114 -0.060144458
000060 c0 12 87 3d c1 ed 42 bd e5 5b d4 3c e9 b7 8c 3d
       0.06595373 -0.04759002 0.025922725 0.068710156
000070 25 20 c5 3d f2 a5 8e bd e5 bb a6 3d 6d f2 db 3c
       0.09625272 -0.06965245 0.08141307 0.026848996
000080 68 0e 3a 3d 15 86 f7 3d 2b 3d c0 bc 43 6e 11 3d
       0.045423895 0.12086121 -0.023466667 0.035505544
000090 94 5e cc bd 6b 76 bc bc 66 d5 a2 bb 01 a1 bd bd
       -0.09978977 -0.023005685 -0.0049692867 -0.09259225
0000a0 45 bf 1c bd ae c5 a2 39 60 b1 96 3c 8a 9d 66 3d
       -0.038268346 0.0003104633 0.018395126 0.056302585
0000b0 41 3b 80 bd 91 9c 83 bd e6 e6 d4 bd 7b ad f1 bb
       -0.06261302 -0.06426347 -0.10395603 -0.007375417
0000c0 8f b2 5c bd 0f 95 70 3d 2c bf 92 bd 18 bb 9d 3d
       -0.053881224 0.058735903 -0.071653694 0.07701701
0000d0 c6 82 dd bc 72 8e 1a bd 22 70 cc 3d 4e 65 06 3e
       -0.027039897 -0.037733503 0.09982325 0.13124582
0000e0 5e 3d 37 bd 4f f2 a0 bb c7 27 9a bb 1a 6e 96 3d
       -0.04473626 -0.004911698 -0.004704449 0.07345219
0000f0 87 f5 9e 3c 50 e2 ed 3d 41 94 67 bd 1d 70 bc 3d
       0.019404186 0.11615431 -0.05653787 0.092010714
000100 fa 87 b8 bc 0c a9 c3 3d 8b 8d eb 3c 78 68 b7 3c
       -0.022525776 0.095537275 0.028754016 0.022388682
000110 66 88 b2 bd 3e 1e 93 bc 2e 06 a2 3c ce 69 3a bc
       -0.08717422 -0.017958757 0.019778337 -0.011377765
000120 38 c7 87 3c 51 13 66 3d 1b 95 76 bd bc da 17 bd
       0.016574487 0.056170765 -0.06020079 -0.037073836
000130 b4 e8 d4 3d 19 17 31 bd 19 e1 85 3b d6 cb e6 bc
       0.10395947 -0.04323492 0.0040856716 -0.028173368
000140 83 22 b5 3c e0 e3 61 bd 42 84 19 3d de ad 22 bd
       0.022111183 -0.05514896 0.037479647 -0.039716594
000150 b9 34 f4 3d e8 c5 1b 3d 06 f9 b0 3d c1 5d b1 3d
       0.119241185 0.038030535 0.086412475 0.0866046
000160 04 f3 70 3d 2b 0c 70 bd b3 1b 88 bd 6e c5 8e 3d
       0.058825508 -0.058605354 -0.06645908 0.069712505
000170 1c af 73 3d ab 1a c3 3d 54 51 f5 3b d6 28 ad 3d
       0.05949317 0.09526571 0.0074865017 0.084550545
000180 5b c5 bc bd 3b 68 2d bd b9 ee b9 bc e5 39 ff bc
       -0.0921733 -0.04233573 -0.02269684 -0.031155536
000190 cf 2a c1 bc 50 c0 5f bc 21 1e fc 3d ac 52 0d bd
       -0.023579983 -0.013656691 0.12310434 -0.03450267
0001a0 c2 ae 93 3d ac 5d 7a 3d e2 ee 8a bc b5 b9 6c 3b
       0.07211067 0.06112449 -0.016959611 0.0036121432
0001b0 3e 72 88 3d 7d 65 ff 3d ee d7 b2 bc cb 6a 3e 3d
       0.06662415 0.12470529 -0.021831479 0.046488564
0001c0 fd 2f a7 3d 5c c0 2f bc a7 6e 74 3c a5 74 97 3d
       0.0816345 -0.010727014 0.01491896 0.07395295
0001d0 88 54 73 bd 9c 01 d9 bc 6f 7a ea bd 11 2f 87 bd
       -0.059406787 -0.026490025 -0.114491336 -0.06600774
0001e0 2a 4b 8d 3c 9c cc d4 bd 2d 68 b6 3d 7a e5 09 3d
       0.017247755 -0.10390589 0.08906589 0.03366611
0001f0 c4 da 8c 3c 8e 3f 70 3d 39 e7 77 3d fa 4e b3 bd
       0.01719416 0.05865436 0.060523245 -0.08755298
000200 71 79 78 3d a8 56 ab bd 98 54 af bd 53 a8 07 be
       0.06066269 -0.08366138 -0.08561057 -0.13247804
000210 00 3f b9 ba e5 bd 0a bd 17 d5 53 3d 7f f2 09 bc
       -0.0014133155 -0.033872504 0.05171689 -0.008419632
000220 0a 0b 36 3d 40 e3 d4 bd 3e d0 8b bd af ef f4 b9
       0.04444412 -0.10394907 -0.068268284 -0.00046717885
000230 4b 37 6b bc 1a d0 81 bd 88 91 48 3d 06 5b a9 bc
       -0.014356445 -0.0633852 0.048966914 -0.020673286
000240 64 f6 37 bd e2 74 6d bd 3a e5 c3 3c 03 28 0c 3d
       -0.04491271 -0.057972796 0.023913015 0.034217846
000250 85 7b 1f 3c 46 ff c4 3a 0c 2d f8 bc 10 72 d5 bd
       0.009734039 0.0015029691 -0.030294918 -0.10422146
000260 48 07 55 bd 64 ec 2d 3d 2c 87 b2 bd cc aa 24 bd
       -0.052008897 0.042461768 -0.08717188 -0.040201947
000270 be a4 c4 3c 0a 1a 32 3d 1f 01 9d bd a2 00 90 bd
       0.024004336 0.043481864 -0.076662295 -0.07031371
000280 52 ad cc bd 62 1c ea bc f6 c8 61 bc 47 67 b4 3d
       -0.09993996 -0.028577987 -0.013780823 0.08808761
000290 6a 42 f1 bd 8c 81 9b 3d 1d 2c 92 bd 52 6a 52 bd
       -0.117802456 0.075930685 -0.0713732 -0.051370926
0002a0 1b c4 5b bc 56 70 ec bd 07 ab de bd 66 e2 37 bd
       -0.013413454 -0.11544864 -0.108724646 -0.044893645
0002b0 3c 08 c4 bc 97 e1 a1 bc 91 53 ba bd a4 15 83 3d
       -0.023929708 -0.01976089 -0.0909797 0.06400612
0002c0 1d 3e 95 3c f0 e7 f3 bc 9e 33 01 bd 3c a7 64 bc
       0.018218094 -0.029773682 -0.031543367 -0.013955887
0002d0 5e 34 8f bd 9d ae 68 bd 1b fa 46 3c ff 98 b3 bd
       -0.0699241 -0.05680715 0.012144591 -0.08769416
0002e0 9f f9 c1 bd a7 c5 bd 3d 3c cb f0 bd c0 50 08 be
       -0.094714396 0.09266215 -0.11757514 -0.13312054
0002f0 07 8b ec bd 53 df 75 bd 6e e8 58 bd a3 7f a1 3d
       -0.11549955 -0.06002743 -0.052956037 0.07885673
000300 c6 75 ea ba 96 bc d5 bd 3a ed 54 bc 40 df cc 3d
       -0.0017887882 -0.104363605 -0.012996012 0.10003519
000310 37 03 fe 3d 95 c2 23 bd 9f 8f 0b be 33 73 ab 3d
       0.12402957 -0.03998049 -0.13629006 0.08371582
000320 7c 96 90 3d 62 eb 79 3c b3 d3 70 3d ff 8e a7 bc
       0.070599526 0.015253874 0.058795642 -0.020453928
000330 86 a4 9c bc cb 2d 9e bd 6f a8 0a 3e 9e b2 46 3c
       -0.01912142 -0.07723578 0.13540815 0.012127547
000340 17 49 1b bd 09 5d 3a ba e8 f2 bc bd 3f 12 58 3d
       -0.0379115 -0.00071092 -0.09226018 0.052751776
000350 56 40 13 bd 2f a7 ff bc 27 f0 11 3e 53 9d e4 3d
       -0.035950027 -0.031207649 0.14251767 0.1116282
000360 96 14 f4 3c 8b 72 b8 3d a5 00 db 3d df 70 1c 3d
       0.029794972 0.09006222 0.10693482 0.03819358
000370 41 88 fa bd 5b a2 20 3d 94 dd 8e 3d fc dc 6c bd
       -0.122330196 0.039217334 0.069758564 -0.057827935
000380 11 27 c2 bd 21 cf 03 bd 15 00 2f 3d 8a 90 ae 3d
       -0.094801076 -0.032179955 0.042724688 0.085236624
000390 a4 bd 19 3c 0d 11 2e 3c 45 e0 6b bd 9d 64 5d bc
       0.009383593 0.010624182 -0.057586927 -0.013512758
0003a0 c0 35 3d 3c 4a 8e a6 3d b8 4f 4b 3d f0 7d 33 bd
       0.0115484595 0.08132608 0.049636573 -0.043821275
0003b0 9c 7a ed bd 96 e6 3c bd db 10 b3 bc 5f d8 66 bd
       -0.115956515 -0.04611834 -0.021858623 -0.05635869
0003c0 d5 7c d8 bd ca 75 f4 3c 43 cb 33 bd 4f 34 89 bd
       -0.10570685 0.029841322 -0.043895017 -0.0669943
0003d0 69 16 fb 3d af 5b 6f 3b b8 a4 c2 3d aa ba 18 3c
       0.12260134 0.0036523154 0.09504074 0.009321848
0003e0 75 a8 e2 3c 81 9f c5 bc 5e 6e 05 be 5b b8 d0 3d
       0.027668217 -0.024123909 -0.13030383 0.10191413
0003f0 71 4b 38 3d f5 67 1b bd 78 3f e8 3d 88 e8 f1 bc
       0.04499382 -0.037940938 0.11340231 -0.029529825

actor.2.bias f4 [64]
000000 77 99 37 bd db 80 9e bd 1d 33 3d bc e4 b1 13 bd
       -0.04482409 -0.07739421 -0.011547831 -0.03605832
000010 ef da 8c bc 6a 51 a3 bc 29 77 de bd 6d 2e 86 3d
       -0.01719424 -0.019936282 -0.10862572 0.06551824
000020 47 36 f1 3d 12 b2 0f 3c 49 3b bc bb 88 9a 26 3d
       0.11777931 0.008770483 -0.005744372 0.040674716
000030 46 df a2 bd 7b 83 08 bd b1 6b 9b bb 5a 14 41 bd
       -0.07952742 -0.033328515 -0.0047430624 -0.04713855
000040 60 0a c9 bc 2b 5c 5e bd 98 ce 3b bd 30 8e b0 3c
       -0.02454108 -0.054287117 -0.04585132 0.021552175
000050 6e 7d 19 bb fe 73 c0 bd 6f bd cb bd c1 c9 b9 3b
       -0.002342071 -0.09397124 -0.09948241 0.005669803
000060 d8 35 14 3c 59 c0 83 bc de 96 14 bc 30 fc e3 bc
       0.0090460405 -0.01608293 -0.009069173 -0.027830213
000070 9f 27 20 bd c2 d7 f6 bd 23 86 1d 3d d0 b6 b6 3d
       -0.039100286 -0.12052871 0.038458 0.089215875
000080 12 d9 20 3d 4a 67 a2 3d f4 df a0 3d 75 0c ac 3c
       0.039269514 0.07929857 0.07855216 0.021002034
000090 3a a5 b5 bd 14 0f 9b bd 02 cc bc 3b bb 6c 4b 3d
       -0.08869405 -0.07571235 0.0057616243 0.04966424
0000a0 06 23 b4 3d ed 79 f6 3d 80 00 d7 3d 53 0b 9a bd
       0.08795743 0.12034974 0.10498142 -0.07521691
0000b0 29 1a a7 3d 15 f0 a5 bd 53 59 b0 bd 28 d0 80 bd
       0.081592865 -0.08102433 -0.08610787 -0.06289703
0000c0 50 be f3 bd ca df 79 bd d4 67 d2 bd 54 44 7c 3d
       -0.119015336 -0.061004438 -0.1027371 0.0615886
0000d0 f3 4d da bc 47 3f 90 bd 39 46 d9 bb 45 0a f3 bd
       -0.026648497 -0.07043319 -0.0066306856 -0.11867193
0000e0 07 32 8a 3d 59 01 e7 bd 17 dc b5 3c 3c 33 0e 3b
       0.06747823 -0.11279554 0.022199674 0.0021698019
0000f0 71 f7 80 3d f3 44 34 3d 88 8d 54 bd 08 3f ab 3a
       0.06297196 0.044011068 -0.051892787 0.001306505

actor.4.weight f4 [2, 64]
000000 1b 13 7c bd be a1 b1 bd b1 df db 3d e0 8c ed 3b
       -0.061541658 -0.08673428 0.10736025 0.0072494596
000010 58 6d 2f 3d aa 50 45 bd b4 d8 9f 3d d8 46 22 bd
       0.042828888 -0.04817263 0.07805005 -0.039618343
000020 7d 27 96 3d d8 ba ab 3a 1c 7e 61 bd 09 47 0a bd
       0.073317505 0.0013101948 -0.055051908 -0.03375915
000030 8c ac 82 bd 34 69 05 be ea e2 ef 3d 8d f5 76 3c
       -0.06380567 -0.13028413 0.11713202 0.015073192
000040 b0 f9 34 bc 86 87 de 3c d1 db d8 bd d0 cc cc 3d
       -0.011045858 0.027164232 -0.10588802 0.100000024
000050 3a 9e a5 bd b0 88 7b 3d ff 8d ef 3d a5 e8 f4 bc
       -0.0808682 0.061409652 0.116970055 -0.02989609
000060 91 72 3b bd 52 4c 06 3d d5 8a 4d bd f6 11 1c bd
       -0.045763556 0.03278763 -0.05018123 -0.038103066
000070 fd ec 23 bd a7 34 79 bb dc 4a ac bd 8f c2 e9 3d
       -0.04002093 -0.0038025768 -0.08412716 0.11414062
000080 7d 77 0e 3d 1c da c1 3d 4e 39 ed bd da 82 b9 3d
       0.03478192 0.09465429 -0.115831956 0.09058161
000090 db e4 2e bd 57 ce 60 3d 11 3a 52 3d 9f f4 9f 3d
       -0.042698722 0.05488428 0.051324908 0.0781033
0000a0 95 fd 03 3e 59 71 19 3e 44 19 76 3c 69 7f 01 bb
       0.12889703 0.14984645 0.015020672 -0.001975978
0000b0 86 66 84 3d 93 45 88 3d c4 42 f4 bc cd 5e f9 bd
       0.06464867 0.06653895 -0.029816993 -0.12176285
0000c0 ce 94 38 bd 87 a8 31 bc af 42 f3 bc 7c 33 51 bc
       -0.045063786 -0.010843403 -0.029694883 -0.0127686225
0000d0 28 4e 1d bd 4f ec d0 3d ee eb 62 3d f2 03 a9 bd
       -0.038404614 0.10201322 0.05540078 -0.08252706
0000e0 c5 ea ba 3d c1 1f 6d 3d a9 87 a3 bc ad 14 2e bc
       0.0912681 0.05789161 -0.019962149 -0.010625047
0000f0 1b 92 80 bd 26 44 e5 3c df 0a 05 be f5 bc fb bb
       -0.062778674 0.027986597 -0.12992428 -0.0076824375
000100 d2 a1 6b bb b1 64 c7 bc a8 ea 0a bd 70 ae c2 bd
       -0.0035954607 -0.024340006 -0.033915192 -0.095059276
000110 9f c1 8e 3d 09 82 b6 3c 41 84 e9 bd 1d b6 42 bd
       0.06970524 0.022278802 -0.114021786 -0.047536958
000120 de 48 02 3e 82 ba 70 bd 2c b9 fd bb 6d 98 c5 3d
       0.12723109 -0.058771618 -0.0077430215 0.096482135
000130 cf 69 74 bc a3 3b 9a bd e5 15 17 3d d5 ba c4 bd
       -0.014917805 -0.07530906 0.036886115 -0.09605948
000140 32 65 7d 3d aa 77 c5 3d 4a f5 9f bd c8 41 9d bd
       0.061864085 0.09641965 -0.07810457 -0.076785624
000150 5c 63 bb bd 9a f7 61 3d 15 32 60 3d 7a 32 3c bd
       -0.09149811 0.055167772 0.054735262 -0.045946576
000160 eb 8f 3d bd 18 7c d0 bc 80 2c a6 3d 47 1b 9f 3d
       -0.04627983 -0.025449798 0.081139565 0.077688746
000170 4c 3e b7 bc 56 a2 e7 bd 2d d0 75 bd 35 82 89 bd
       -0.022368573 -0.1131026 -0.060012985 -0.06714288
000180 19 ed e7 3d 61 63 0c bc e4 01 ab 3d af 3a 02 bd
       0.1132452 -0.008568616 0.0834997 -0.031794246
000190 92 7b ac 3d 91 0b 1f bd 53 f3 e7 bd 11 71 95 bd
       0.08422007 -0.03882939 -0.11325707 -0.07296956
0001a0 69 44 c2 bd ee 04 cc 3d 29 08 bb 3d a7 42 d6 3d
       -0.094857045 0.09961878 0.09132416 0.10461932
0001b0 91 6e c7 3d 29 a1 01 3e 35 af b2 3d d0 3e 83 3d
       0.09737886 0.12659134 0.08724824 0.06408465
0001c0 17 0f 8d 3d d9 82 57 bd aa 05 af 3d 61 49 79 3d
       0.06887644 -0.05261502 0.08546002 0.060860995
0001d0 31 74 a4 bd 06 40 0b bd 9f 9f 0a 3d be a1 92 bd
       -0.08029974 -0.033996604 0.033843633 -0.07159756
0001e0 a3 76 ca bd 4c 1e 3e bd 49 a3 e9 3d d0 e6 e1 bb
       -0.098859094 -0.046415612 0.11408097 -0.00689397
0001f0 cf 6d ed 3d b0 0b ba bd 1c f7 f0 3c 67 03 5d bd
       0.1159321 -0.090842605 0.029414706 -0.053958323

actor.4.bias f4 [2]
000000 d5 c0 82 3d a6 c8 c0 bd
       0.06384436 -0.09413271

critic.0.weight f4 [64, 8]
000000 d4 c4 8f 3c bf 6a 91 3d 8c 1f 37 bd 23 6c 14 3e
       0.01754991 0.07100438 -0.04470782 0.14494376
000010 bd 77 d8 3d a2 14 a0 bd f4 8d 81 3e da 58 13 3e
       0.10569713 -0.078164354 0.25303614 0.14389363
000020 89 ac 00 3e bc c8 ac 3e de fe 27 3e 88 cc 39 bd
       0.12565817 0.33746898 0.16405818 -0.04536107
000030 5a 25 39 be 03 84 2c 3e 15 fb 8d 3e 2a d0 31 3d
       -0.18080655 0.16847233 0.27730623 0.04341141
000040 1f cd 6c 3e d3 15 8e 3e 4c 87 dc 3d fa df 93 3e
       0.23125122 0.27751026 0.10767993 0.28881818
000050 18 2f 31 be 9e af 6c be 35 97 60 bc 0e 05 de 3e
       -0.17303121 -0.23113868 -0.013707926 0.4336323
000060 37 b8 8e 3d c8 bf 9e be a8 fa be be a9 19 4a bd
       0.0696873 -0.31005692 -0.3730061 -0.049340878
000070 0e 5e 10 be 01 63 c2 3d 10 a3 75 3e b6 07 32 be
       -0.14098379 0.0949154 0.23987985 -0.17385754
000080 75 57 6e 3d 7b ab 79 3e 2c 86 dd 3d 40 f9 c3 bd
       0.058188874 0.24381821 0.10816607 -0.09569025
000090 65 4e 9a be 30 2d a0 bd 50 f6 2d be a4 67 76 3e
       -0.30137935 -0.07821119 -0.16988492 0.24062973
0000a0 d0 20 a4 3e ad 0a a5 be f0 a7 9a 3e 67 54 a5 3e
       0.32056284 -0.32234707 0.3020625 0.32290956
0000b0 b1 ef 30 be 3a 23 26 bc 31 46 17 be aa 04 cf 3e
       -0.17278935 -0.010140235 -0.1477287 0.40433246
0000c0 84 10 91 be 37 c4 f9 bd a5 3a 2b be c6 28 4e be
       -0.28332913 -0.12195628 -0.1672159 -0.20132741
0000d0 19 82 91 be 6c 2b 96 be 62 a7 50 bd 1a bf 77 3e
       -0.2841957 -0.29330003 -0.05094088 0.24193993
0000e0 99 64 53 bb ed 31 c7 be 38 22 9a 3d 7b 2f 17 3e
       -0.0032256006 -0.38905278 0.07526058 0.14764206
0000f0 ef ac 9e 3d 6f 2f 33 bb 4e db 70 be 56 cb 5b be
       0.07747828 -0.0027341505 -0.23521158 -0.21464285
000100 39 28 a6 be 3b 3d 87 3e dc 11 8c 3d 1c 32 1d bc
       -0.32452562 0.26413903 0.06839344 -0.009594467
000110 45 4d 96 be 08 ba ad be 64 ad 9c bc ad e8 e6 3d
       -0.29355827 -0.33930993 -0.019125648 0.11274848
000120 34 ae 98 bc 08 65 77 3b 6e 10 8e 3e 5a f0 9b be
       -0.018637754 0.0037749428 0.2774691 -0.3045681
000130 8b 5a 74 be 47 d9 42 be 91 90 3e be 9e d6 7b 3e
       -0.23862664 -0.19028197 -0.18609835 0.24593589
000140 b0 4d a1 be f5 50 d4 bd fb d7 41 3e 91 8d 33 3e
       -0.31504583 -0.10367004 0.18930046 0.17534472
000150 e8 7a 12 3e 0a f5 99 3e 7f 60 96 bd 39 d4 7c 3e
       0.14304698 0.30069762 -0.07342624 0.24690332
000160 e9 56 45 be a0 db 9f 3e 8f 8e 9d 3e 17 41 bc 3d
       -0.19271435 0.31222248 0.30772826 0.091921024
000170 03 3d 75 3e 19 3d 6e be e4 f6 7c 3e ff 58 14 3e
       0.23949055 -0.23265494 0.24703556 0.14487074
000180 52 a9 ac bc 16 75 36 3e 73 01 f3 bd 3b 84 1c 3d
       -0.021076832 0.17818102 -0.11865511 0.038212042
000190 e9 9d 84 3e 0f 6b a5 be 32 7d 71 be d5 57 8d 3b
       0.25901726 -0.32308242 -0.23582914 0.004313449
0001a0 32 b5 17 be 3c 33 cc bd 46 ef 77 be 11 f2 0d 3e
       -0.14815214 -0.0997071 -0.2421237 0.13861872
0001b0 03 be 99 3e 59 3e 81 3e f0 24 89 be f3 c1 99 be
       0.3002778 0.2524288 -0.26785994 -0.30030784
0001c0 d3 e2 fa 3d cc e7 0e be 0a e9 54 bd 21 94 b8 3e
       0.122502945 -0.13955611 -0.051980056 0.36050513
0001d0 5e 56 ad be 6c 42 79 be 40 50 b9 bc 79 81 b5 3e
       -0.33854955 -0.24341744 -0.022621274 0.35450342
0001e0 d4 a0 16 3e ca c6 69 bd 88 a1 a0 bd 0f ef a0 3e
       0.14709789 -0.057074346 -0.0784331 0.31432387
0001f0 54 fd 60 be b1 e7 bb 3c 23 89 a2 3e 3f 45 c0 bd
       -0.21971637 0.022937628 0.31745252 -0.09388208
000200 0d a1 ba 3d 6a 58 3b be 4b b8 66 be 85 33 a3 be
       0.09112749 -0.18295446 -0.2253124 -0.31875244
000210 42 7c 5b 3e b1 e2 a3 3e 64 47 b7 3c 4d f8 10 3e
       0.2143412 0.3200889 0.022372909 0.14157219
000220 af 93 15 3d 4a 0b 26 3e 9d 6e 7f 3d 01 c7 91 3c
       0.036517795 0.16215244 0.06236135 0.017795088
000230 71 cc 50 3e 2d 85 67 be b6 2b e3 bd 1c 30 8d bd
       0.20390488 -0.22609396 -0.110923216 -0.06893942
000240 21 78 0f 3b cf 51 14 3c 39 0f 7e 3c ab ce cc 3d
       0.002189167 0.009052708 0.015506559 0.10000356
000250 3a db 07 be 89 af 97 3e 39 f4 62 bd a4 3b 7a be
       -0.13267222 0.2962611 -0.05540869 -0.24436814
000260 9e b8 2c bd e8 56 cd bd 25 26 96 be 03 f0 a2 be
       -0.042168252 -0.10026342 -0.29325977 -0.3182374
000270 f0 36 02 be c1 a3 44 3e 1f c2 a5 bd 13 ab 9d 3d
       -0.1271627 0.19203092 -0.08093666 0.076986454
000280 be d3 8a 3e 1c 13 97 3e bd 71 2e be 7d 5c 4a 3e
       0.2711467 0.29506767 -0.17035575 0.19761844
000290 85 cc b4 3e ca 82 22 3e 24 af 85 3d 73 e0 31 3e
       0.35312286 0.15870205 0.06527546 0.17370777
0002a0 19 68 d7 bd 54 6e 51 bd 2a cc 97 be 9d 57 53 bd
       -0.10517902 -0.051130608 -0.29647952 -0.051597226
0002b0 8c 1e f1 3d 0a b5 8c be 93 64 93 be 58 7a 0f 3e
       0.117734045 -0.27481872 -0.2878767 0.14011514
0002c0 a9 ea 67 be 4b 7c 31 3d f4 44 c4 3d e5 82 7f bc
       -0.2264811 0.043331426 0.09583464 -0.0155951725
0002d0 d5 55 06 3e 4d 7a 86 3e 21 dd 8a be 86 f7 c1 38
       0.1311868 0.26265183 -0.27121833 9.249062e-05
0002e0 f1 d5 ee 3d ad 04 8f 3e ad 21 2d 3e 80 0b 81 be
       0.116619 0.27933255 0.16907378 -0.25204086
0002f0 f1 14 ba bd 46 70 90 3e 9e e8 58 bd d7 d8 cf be
       -0.090860255 0.28210658 -0.052956216 -0.40595123
000300 e9 75 40 3e f4 6f 99 bd 4a dc 91 3e dc 03 44 be
       0.18794979 -0.074920565 0.2848838 -0.19142097
000310 f4 84 0b bd b0 93 8b be 71 8f 8f 3e a3 db c5 3c
       -0.03406234 -0.27261114 0.28039125 0.024152583
000320 45 e6 c1 3d 42 03 40 be 89 df 8a be c6 f5 67 3e
       0.094677486 -0.18751243 -0.2712367 0.22652349
000330 0f 61 92 bd 6f 16 5e bd be d6 51 be 0b a3 b8 3e
       -0.07147419 -0.054220613 -0.20492074 0.36061892
000340 b8 21 9f 3c 67 68 35 3e 05 1a b7 3e d9 04 d9 bd
       0.019425258 0.17715608 0.3576204 -0.10596628
000350 d5 0c 39 3d 53 b9 02 be 07 8e 73 3e c3 1f cd 3d
       0.045178253 -0.12766008 0.23784648 0.10015824
000360 2e 0d 23 3e 58 21 2d 3d 59 0b a3 be e6 3e 65 bd
       0.15922996 0.042268127 -0.31844595 -0.055968188
000370 b2 c5 5a be 11 68 12 3e c4 c5 bb 3c 49 15 b3 be
       -0.21364477 0.1429751 0.02292145 -0.34977177
000380 00 52 d3 3d 62 10 88 3d cd a1 ba be 80 b4 37 be
       0.10318375 0.0664375 -0.3645157 -0.17939949
000390 72 59 e2 3d f9 20 cc 3c 98 8d 3e be 30 11 d1 be
       0.110522166 0.024918066 -0.18608701 -0.40833426
0003a0 99 71 77 be d0 d4 b8 bd 97 1e c8 bd 6a 2b 83 bd
       -0.24164428 -0.09024966 -0.097714595 -0.06404765
0003b0 2f b2 a3 be 12 69 2c be f2 ad a3 3e ee 06 89 3e
       -0.3197188 -0.16836956 0.31968647 0.267631
0003c0 ff cb 34 3d fc 75 a7 3e 59 4c ff 3d 0b ba 88 3e
       0.04413986 0.32707202 0.12465734 0.2670444
0003d0 76 34 9a 3e 48 88 b9 bd 8b fb 9d bd a4 39 bc be
       0.3011815 -0.09059197 -0.07713994 -0.36762726
0003e0 3d 26 27 bc 3b 2d 39 bd 32 6d 5c 3e 51 3c ba 3e
       -0.010201988 -0.04520915 0.2152603 0.36374143
0003f0 4b 11 3e be 1c 25 db bd 2e 06 82 3e 2c 84 ec 3d
       -0.18561284 -0.107004374 0.2539534 0.11548647

critic.0.bias f4 [64]
000000 71 f5 73 3d 67 9a 0b 3e 73 ca 34 bd 3c c7 40 3e
       0.059560243 0.13633119 -0.044138383 0.18826002
000010 30 81 2f 3e fe 6a 71 bd 28 dc 66 3e 71 2b 8a 3d
       0.17139125 -0.058939926 0.2254492 0.06746567
000020 9e 38 a1 be 0b 3b 8a be d5 15 53 3e 23 d4 c0 bc
       -0.31488508 -0.2699817 0.20613797 -0.023538655
000030 6b 64 8f be f3 30 5d be 0c d0 6b 3e 14 35 bc be
       -0.280063 -0.21600704 0.23028582 -0.36759245
000040 73 a6 9e 3e eb 4c 0c be a7 57 55 be 60 50 7d be
       0.30986366 -0.13701217 -0.20834218 -0.24737692
000050 fc 13 ba 3e 5f c1 64 be c4 d8 17 be 2e 5a 12 3e
       0.36343372 -0.2233939 -0.14828783 0.14292213
000060 ab 8e 93 be b4 f6 7e be 71 9a 23 be a8 28 53 3d
       -0.28819785 -0.24898797 -0.15976883 0.051552445
000070 c4 b4 89 3e af b6 ec 3d 21 52 59 3e d7 db 60 3e
       0.26895726 0.11558282 0.21222736 0.21958862
000080 3b f3 22 3e 4b 14 a2 be 74 57 2a be cb 21 ba be
       0.15913098 -0.31656107 -0.16634923 -0.36353907
000090 c9 f3 76 3e 78 2f 0a be b7 dc 4a be ae de ca bc
       0.24116434 -0.1349467 -0.19810759 -0.024764385
0000a0 ee 40 df 3d 78 fa a3 be ad 36 b1 3b 43 a2 9b be
       0.10901056 -0.3202703 0.005408129 -0.30397233
0000b0 74 8a 4d be 6f fb f1 bd 22 3c 37 be 0b d0 07 be
       -0.20072347 -0.11815535 -0.17894033 -0.13262956
0000c0 0a 50 b1 3e d6 24 c7 3d 6a b6 2a bd a0 46 a2 be
       0.34631377 0.09723823 -0.04167787 -0.31694508
0000d0 cc 73 4b 3b 94 63 58 be 66 b6 a3 3d 79 ab 34 bd
       0.0031044362 -0.21131736 0.07993774 -0.04410884
0000e0 13 62 7d be 48 1a ab 3e ac 93 eb 3d 9a 70 b3 3e
       -0.24744444 0.33418489 0.115027755 0.35046846
0000f0 70 8d 27 3e ff 5a 41 be 87 37 66 3e c9 b7 34 bc
       0.16362548 -0.18882369 0.2248212 -0.011030146

critic.2.weight f4 [64, 64]
000000 a9 10 da bd e5 88 77 3d 76 47 c5 bd 9d 8e b5 bd
       -0.10647709 0.060433287 -0.09632771 -0.08865092
000010 2a 92 ef bc 23 04 0c ba 1c 1b 9e bd 9c 07 0e 3a
       -0.029244501 -0.00053411926 -0.077200145 0.0005418004
000020 d9 04 c2 bb 03 2e bc 3d e8 7c d7 3d cf d7 2e 3d
       -0.005920988 0.091884635 0.10521871 0.04268628
000030 1d 9a 1d bd 58 b1 a2 3d 9c bb 84 ba 6b f2 17 bd
       -0.038477052 0.07943982 -0.0010126713 -0.037096422
000040 51 41 87 3d 73 62 82 3d fe cc aa 3d ae 25 d5 39
       0.06604255 0.06366434 0.083398804 0.000406546
000050 e7 cb c5 3d 63 49 b9 bd 1c eb d4 bd 22 e9 cb 3c
       0.09658032 -0.090472005 -0.10396406 0.02489144
000060 d1 5d 01 be ff 2f 81 bd 5d 0f db bd bb da 2a bd
       -0.12633444 -0.06307983 -0.1069629 -0.041712504
000070 dc ef b0 3b 8e ef aa bd 21 a3 c6 bd 07 70 03 3e
       0.005399687 -0.08346473 -0.09699083 0.12835704
000080 4b 8b fd 3d a7 06 f0 3c 7e 49 e8 bc 4e e7 0a 3e
       0.12380084 0.029300047 -0.028355356 0.13564798
000090 2c 1e c5 3c cd 08 46 3c 14 b9 db 3d 23 24 77 3c
       0.024062239 0.012087059 0.1072866 0.015084299
0000a0 24 b1 96 bd 05 91 a0 bd 0d a3 ab 3d 67 99 c2 3d
       -0.07358006 -0.0784016 0.08380709 0.095019154
0000b0 55 f1 dd bd 46 99 1d bc 98 ab b0 3d 3b 19 d3 3c
       -0.10837046 -0.009619063 0.08626479 0.025768867
0000c0 99 64 dd bd e0 88 d7 3d b6 03 ab 3d f9 0a 93 bd
       -0.10810203 0.10524154 0.08350317 -0.07179827
0000d0 e9 06 d9 3d e7 51 f6 bd 61 3b 8a 3d bc fc 9d bd
       0.10597021 -0.120273404 0.06749607 -0.07714221
0000e0 ef be 24 3c cd fb ba bb 98 a3 79 bd 1d 0d 9e bd
       0.010055288 -0.0057062865 -0.06094703 -0.07717345
0000f0 11 83 19 3d 8e 83 e5 bd 57 d7 9d 3d f3 67 d1 bc
       0.03747851 -0.11206733 0.077070884 -0.025562262
000100 b1 38 b3 3c e2 04 a1 3c 3b 77 36 3c 64 7d 40 3b
       0.021877619 0.019655649 0.011136825 0.0029371614
000110 3f c7 ab 3d 50 4b bd bd 25 ef 2c bd 76 83 e6 bc
       0.083876126 -0.0924288 -0.042220253 -0.028138857
000120 3e e6 9e bd 3c 62 6d 3d 01 f0 b2 3d eb a4 af bd
       -0.07758759 0.05795501 0.08737183 -0.085763775
000130 f4 2f c8 bd a5 e6 a4 bd 31 e9 38 bd 61 5e ad 3d
       -0.09774771 -0.080518045 -0.045144264 0.08465267
000140 7c fb 24 bc 58 75 c6 3d 66 2a 4a 3d e0 96 0f be
       -0.010069724 0.0969035 0.04935684 -0.14022398
000150 a7 e9 5e bd d4 7d c6 3c 21 11 bd bd a3 28 70 3d
       -0.054422047 0.024229921 -0.09231783 0.058632504
000160 8d 0f d1 bd bd 0f ef 3a 25 ad e4 bd 7a 7d 9d 3d
       -0.10208044 0.0018238943 -0.11165837 0.076899484
000170 82 37 f2 3c e0 05 34 bd 92 d5 d1 bd 8e c4 af bd
       0.029567484 -0.043950915 -0.102458134 -0.08582412
000180 b6 a6 b5 3d aa 13 cd bd 01 46 90 bd 3e c0 61 bd
       0.08869688 -0.10013516 -0.07044602 -0.055114977
000190 64 fd 0b 3d d3 d2 39 3d 91 e6 9b bd 09 1e 1b bc
       0.0341772 0.045367073 -0.076123364 -0.00946761
0001a0 a6 fc 21 3a 0f cf 60 bd 82 5f 83 3b 1f 1a 47 bd
       0.000617931 -0.054884966 0.004009188 -0.048608895
0001b0 95 31 d1 3d a6 e7 13 3d b0 63 0c 3d c7 f1 5c 3d
       0.10214535 0.03610959 0.034274757 0.053941514
0001c0 84 23 b0 3c a6 d4 f5 bd b0 b5 37 3d 82 d5 9d 3d
       0.02150131 -0.1200345 0.044851005 0.07706739
0001d0 58 6f d6 3d 3b a7 00 bd ae a6 6d bd 6b 9f 33 3d
       0.10470456 -0.031409483 -0.058020286 0.043853205
0001e0 ab f9 cf 3d 4d 9e cb bd 6f 2f f6 3a c3 51 8b bc
       0.10155042 -0.09942303 0.0018782447 -0.01700676
0001f0 5e 4c 6d bc 4f ab ea 3d 46 82 2f bc d2 2d b5 3d
       -0.014483539 0.11458456 -0.010712212 0.0884663
000200 3e 4c d0 ba 88 a4 c0 3d 15 53 e4 bd 4a 3f 95 bd
       -0.0015891863 0.09406382 -0.11148659 -0.07287462
000210 6b 1d 0b be 8c 65 d7 bb f0 c3 d2 3d e1 45 a8 bc
       -0.13585441 -0.0065733846 0.10291278 -0.020541133
000220 64 77 cc bd db 13 ff bd 52 c4 cc bd 15 9d a7 3d
       -0.099837095 -0.12454959 -0.09998383 0.08184258
000230 4d 73 eb bc 36 6e e2 bd 24 ce 98 bc 0b ad a7 3d
       -0.028741503 -0.11056177 -0.018652983 0.08187302
000240 46 c0 81 bd 1c 38 90 bd db 1f 0c 3c 5a cc 84 3c
       -0.063355014 -0.07041952 0.008552517 0.016210724
000250 a5 37 47 3d 14 06 93 3a c9 e5 cb 3d e5 60 7b bd
       0.04863705 0.0011217021 0.099559374 -0.061371703
000260 dc 34 ab 3d f7 18 92 3b 31 67 ad bd a5 dd 38 3d
       0.083596915 0.0044585424 -0.08466948 0.04513325
000270 21 e2 e1 3d 12 d0 cd bd f9 f7 86 bd 66 70 d7 3d
       0.11029459 -0.10049452 -0.06590266 0.10519485
000280 4f 51 62 bd 6d 01 ab bd e1 0b 01 be 4c c9 06 3d
       -0.055253323 -0.08349881 -0.12602188 0.032906815
000290 d2 b0 7b 3d 1d 25 5e 3d 2c a0 c0 bb 16 e4 99 3c
       0.061447926 0.054234613 -0.005878469 0.018785518
0002a0 cb d3 96 bd 1b e7 ce 3d 2a cc 42 bd 35 5b 10 bc
       -0.07364615 0.101026736 -0.047557987 -0.008810808
0002b0 4a 32 8e 3d ad 91 4f 3d 97 e3 97 bd 7a cd d5 bd
       0.069431856 0.050676037 -0.07416456 -0.10439582
0002c0 af 49 d9 bc 7c 9d ff 3d f7 8e 06 3e f5 66 91 bd
       -0.026524393 0.1248121 0.13140474 -0.070997156
0002d0 f2 7f 92 bd 60 76 b1 3d 4a af 33 3d e2 e6 be 3d
       -0.0715331 0.08665156 0.04386834 0.09321381
0002e0 19 c7 ed 3d e1 6c ef bd 10 1b 94 3c 30 13 64 bd
       0.116102405 -0.11690689 0.01807931 -0.05568236
0002f0 0a 8d e4 3d 83 2c a8 3d 13 da 34 3d 79 50 af 3d
       0.111597136 0.08211615 0.044153284 0.08560271
000300 90 c6 7f bd 4e 31 b0 bc 9f 61 0a bd a7 ac 63 3d
       -0.062445223 -0.021507885 -0.033784505 0.055584576
000310 b0 1b 8e 3d b3 b1 de bd 55 c4 07 be ca 64 65 bd
       0.06938875 -0.10873737 -0.13258488 -0.056004323
000320 82 90 1d 3e 86 53 40 bd 40 d9 ab 3d ea c5 a4 bd
       0.15387157 -0.046954654 0.083910465 -0.080455616
000330 04 e2 af 3d 49 eb 83 3d 3b f5 96 bd 7f 71 09 be
       0.08588031 0.064413615 -0.07370993 -0.13422202
000340 c4 42 c4 bd 6d f8 87 bd cc 88 21 bd 86 83 c4 3d
       -0.09583047 -0.0663918 -0.0394371 0.095953986
000350 d1 59 79 bd 16 17 5f 3d 00 35 2a bd 83 51 e3 bd
       -0.06087667 0.054465376 -0.04155445 -0.110995315
000360 dc c8 ef 3d 81 91 4b 3b 67 4f 90 bd 8b 44 b3 bd
       0.11708233 0.003106207 -0.07046395 -0.08753308
000370 aa 1a b3 3d 5b ca 49 3d 14 44 e7 bd 67 6d 0e be
       0.0874532 0.049265247 -0.11292282 -0.13908921
000380 7c e8 08 be bb b7 ca bc df c8 fc bd fa 6d e3 3d
       -0.13369936 -0.024745813 -0.123430006 0.11104961
000390 be 2f c4 3d fe ba 1b bd 2e fb ab 3c eb 7d 8d 3d
       0.095794186 -0.038020127 0.020993795 0.069087826
0003a0 84 25 00 be c5 f9 3b 3d 42 af e3 bc 9a 57 da 3d
       -0.12514311 0.045892496 -0.02779353 0.1066124
0003b0 b6 05 02 be 47 4e f9 3b c8 af 63 3d 84 13 d9 3b
       -0.12697491 0.0076082083 0.05558756 0.006624641
0003c0 9c b8 b3 3d 2f e1 05 3d b6 97 6e 3d 1f 98 e7 3d
       0.08775446 0.032685455 0.05825015 0.11308312
0003d0 92 68 2d 3c a2 72 44 ba 7e bc 2a 3d 1b 38 be 3d
       0.010584014 -0.0007493888 0.041683666 0.09288045
0003e0 cb 08 c4 3c 9c 06 4f 3c 97 28 de bc aa 6a ce 3d
       0.023929974 0.012635853 -0.027118964 0.10078938
0003f0 51 3c 7b bb 8b fc ad 3d c2 8e 95 bc 12 6f b6 bd
       -0.0038335512 0.084954344 -0.018256549 -0.08907904

critic.2.bias f4 [64]
000000 b4 c9 ce bd 51 b1 51 bc 11 1b fb 3d 4a 87 9b 3d
       -0.100970656 -0.012798623 0.12261022 0.07594164
000010 74 07 8a 3c 42 65 bd 3c 47 f6 09 3e ec ae 09 3e
       0.016849257 0.023119573 0.13472854 0.13445634
000020 77 72 a7 bd 03 55 ba bd cb 8f 17 be 00 73 77 3d
       -0.08176129 -0.09098246 -0.14800946 0.060412407
000030 e6 5f 70 bd 6b 1a 7a 3d e1 da ba 3c d6 55 05 3e
       -0.058685206 0.06106035 0.022809448 0.13021025
000040 c7 3b 9d bc d2 54 ce 3d 51 c0 9b 3d 45 58 15 bd
       -0.019193543 0.10074772 0.07605041 -0.036461134
000050 8e 41 d0 bd 53 d2 b8 3c 39 97 b0 3d a8 dd b2 3c
       -0.101687536 0.022561228 0.086225934 0.02183421
000060 07 f3 ae 3d 1d 84 a4 3c 3a 76 51 bd c8 76 8a bc
       0.085424475 0.020082528 -0.05113814 -0.016902342
000070 85 92 a7 bd 90 42 8e bd ec 50 2f bc 52 0f 9a 3d
       -0.08182243 -0.069462895 -0.010700446 0.07522453
000080 4f 76 08 bd 2a 34 84 3d 54 36 19 3d ea bf 99 bd
       -0.033315953 0.06455262 0.037405327 -0.07507308
000090 41 35 bc ba ce b3 d3 bd 65 76 9e 3d c8 47 1f 3d
       -0.0014359133 -0.103370294 0.07737426 0.038886815
0000a0 0d ca a9 3d a8 62 3b bd 22 91 ce 3d 00 f3 22 3e
       0.08290491 -0.045748383 0.10086276 0.1591301
0000b0 5d 39 3d bd 0a 56 2e 3c 2c 7a 1f 3e 96 bb 8f 3d
       -0.046197284 0.0106406305 0.15573949 0.07018201
0000c0 7d 2c 46 ba ff 04 a7 3c 51 d9 07 3d 66 f0 0b 3d
       -0.000755973 0.020388125 0.033166233 0.03416481
0000d0 26 05 47 bd 56 9a 89 bd f3 66 95 3d 09 4d 52 bd
       -0.048588894 -0.0671889 0.07295027 -0.051342998
0000e0 90 47 61 3c fb e6 49 3d 95 11 0a bd 6a 0a 9e bd
       0.013749972 0.049292546 -0.033708174 -0.0771683
0000f0 de 11 26 be f1 7d 07 3e ee 2d ca bd 07 8b 3b 3d
       -0.16217753 0.13231637 -0.09872042 0.045786884

critic.4.weight f4 [1, 64]
000000 7c a0 ba 3d 6c a3 ba 3d b9 e4 fb bc a4 28 d5 bd
       0.09112641 0.091132015 -0.030748712 -0.10408142
000010 8f d0 65 3d 25 6c e1 3c dc b5 bf bd 28 e4 b9 bd
       0.0561071 0.027517388 -0.09360859 -0.090767205
000020 c2 73 9f 3d 3d 7d 79 bc 84 a0 cd 3d 2a 5c 98 3d
       0.07785751 -0.015227613 0.100403816 0.07439454
000030 76 b8 b4 bd f8 80 21 be 4f 52 8a bd 8b 68 4a bd
       -0.08824246 -0.15771854 -0.0675398 -0.049416106
000040 8e 46 13 3e fc 80 52 3d b2 e2 cf 3d 80 e8 02 be
       0.14382383 0.05139254 0.101506606 -0.12784004
000050 0b fb 1c 3e a1 5d 9c 3d 63 30 25 bc 2e 12 7d 3c
       0.1533014 0.07635046 -0.010082337 0.015446229
000060 d3 2d d4 3c be 67 97 bd a3 39 d8 bd 31 47 c9 bc
       0.025900757 -0.07392834 -0.10557868 -0.02457008
000070 33 5f 79 bc 34 17 ee 3b 49 ba c7 3d e3 38 d2 bd
       -0.015220451 0.0072659496 0.09752328 -0.102647565
000080 ee 9d a6 3d b2 e9 db bb 31 37 05 3d 3a e9 ad 3d
       0.081355914 -0.0067112083 0.032523338 0.0849175
000090 bb 5d 6e 3d df d5 fa bb 0f 13 c2 3d 8a ef 32 bd
       0.058194857 -0.00765489 0.094762914 -0.043685474
0000a0 74 83 07 bd 1f 5d d0 bc 31 47 f0 bd 5a 91 40 bd
       -0.033084348 -0.025435029 -0.11732329 -0.047013618
0000b0 a7 81 d4 bd 97 5d 91 3d 87 b5 15 be dd 1c 8f 3d
       -0.10376292 0.07097929 -0.14620028 0.06987927
0000c0 b4 e3 1c 3e 37 1a ee 3c 50 d0 62 bd a6 d4 cd bc
       0.15321237 0.029065235 -0.055374444 -0.025125813
0000d0 73 39 2e 3d 19 b4 9d 3d c4 82 7e bc 75 db a3 3d
       0.042535257 0.077003665 -0.015534107 0.080008425
0000e0 25 3f 58 3d 0b 8c 99 bd 00 e2 a6 bd fe 3d 43 3c
       0.052794594 -0.07497414 -0.08148575 0.011916636
0000f0 d5 fe bf 3c 10 9c dd bc 5f 45 56 bd 5e 58 27 bd
       0.023436943 -0.027051955 -0.05231225 -0.040855758
