PPO_continuous_Ant-v5.pth (torch, 94610 bytes, 11 tensors)

actor.0.weight f4 [64, 105]
000000 58 14 85 bd c4 a3 ac bc 55 2b 57 bc 27 1f d7 3b
       -0.06498021 -0.021074183 -0.01313289 0.006564993
000010 a3 d3 21 bc b3 e9 76 bb 75 7c c6 bd 14 f2 bd bc
       -0.009877118 -0.0037675917 -0.09691707 -0.02318672
000020 d0 05 66 bd a2 c2 a4 bc af 24 59 bc e0 5d 74 3d
       -0.056157887 -0.02011234 -0.013253375 0.05965984
000030 b0 2d 64 3d 7c e6 23 bd 06 ec bd 3d 17 d0 ba bc
       0.055707633 -0.04001473 0.092735335 -0.022804303
000040 38 2d d7 bc c7 8d 16 bd f2 b4 94 bd bd 7a 55 3d
       -0.02626668 -0.036756303 -0.07261075 0.052119005
000050 31 bd 75 bd 18 f1 0f bd cb 3f 04 bd 3b d1 ce 3d
       -0.05999488 -0.035142034 -0.0322874 0.10098501
000060 54 ef 85 3c e4 fc 71 bc 9a c8 71 3c 7a 7b d5 bc
       0.016349472 -0.0147697665 0.0147573 -0.026059855
000070 24 a1 f7 bb eb f7 8d bd 6f e2 69 bd c1 76 a7 bc
       -0.0075570513 -0.06932052 -0.05710071 -0.020442368
000080 69 2f a7 3d 44 cf 27 bd 2b 21 71 3d 2f af 16 bb
       0.0816334 -0.04096915 0.058869522 -0.00229926
000090 67 d3 4c bc 58 3c 22 bd 8e 67 48 bd 0e f7 9a 3c
       -0.012501574 -0.03960833 -0.048926882 0.018916633
0000a0 4e 5b 04 3d c4 2f c3 3c cb a4 2f 3d 96 67 d4 bc
       0.032313637 0.023826487 0.04288177 -0.0259283
0000b0 c5 33 94 bd 1a 45 1f 3c fc 0a 00 3d ff 91 bd bd
       -0.07236437 0.009721065 0.031260476 -0.09256362
0000c0 eb ad 20 bd 97 ab cf bd 34 5f e2 bb 34 cb b2 3c
       -0.03922836 -0.1014015 -0.0069083218 0.02182541
0000d0 ee a8 9c bc 52 70 5f 3d 30 b3 55 3d c0 54 35 bd
       -0.01912352 0.054550476 0.05217284 -0.044270277
0000e0 fe 60 a2 3d 59 c8 2e 3d 5e c5 16 bd 38 dc ff bb
       0.07928656 0.042671535 -0.036809318 -0.0078082345
0000f0 f0 09 c0 3c 87 c3 74 3a 76 17 ee bc b7 ef f2 bc
       0.023442239 0.0009336997 -0.029063921 -0.02965532
000100 e2 94 33 3d 7e 5c 0f 3c c5 07 41 b8 ac db ec bd
       0.043843158 0.008750079 -4.602202e-05 -0.115653366
000110 25 52 ec b9 60 e3 10 bc 0b 2d c4 bd a1 09 7a 3d
       -0.0004507463 -0.008843273 -0.09578904 0.06104434
000120 47 0d 56 bc 3a 6c ad bd ff 59 57 3d 39 aa d2 bd
       -0.013064689 -0.08467908 0.05257606 -0.10286374
000130 2c f6 1e bd 09 c7 59 3d 73 04 60 3c e2 54 70 bd
       -0.038808987 0.05316833 0.013672936 -0.0586747
000140 c4 95 70 3d 8c d3 ca 3c d3 13 4a 3d 90 cf 55 3d
       0.058736578 0.024759077 0.049335312 0.0521999
000150 d3 14 34 3d 01 21 a0 bd 8a 69 d3 bd 6d 8b 05 bd
       0.043965172 -0.07818795 -0.10322864 -0.03260367
000160 49 a7 7a bc a4 a7 3e bd 4a 83 73 bd 3e fa 1a bb
       -0.015298673 -0.046546593 -0.05945138 -0.002364769
000170 cd ba 8f bc a9 cf a0 3d 53 26 ab 3d 69 d7 bf 3d
       -0.017545128 0.07852108 0.08356919 0.09367258
000180 ec 1d 58 bc bb 06 28 3d 6a c4 ad 3d 8e ab a9 3c
       -0.013190728 0.041022044 0.08484729 0.020711686
000190 e6 a0 50 3d da 99 2a 3d ba c9 03 39 dd ca f1 bc
       0.050934695 0.04165063 0.00012568283 -0.029515678
0001a0 81 cb cc 3d c3 af 2b 3d 69 3f d8 bd ce a8 74 3c
       0.09999753 0.041915666 -0.105589695 0.014932824
0001b0 da 25 3d 3d cf ed c7 3c 96 2c 83 3c 2e 48 2a 3d
       0.046178676 0.024405388 0.016012471 0.041572742
0001c0 8e 99 59 bb f3 b8 39 3d fb 3f c3 3a 5f 1a b0 3d
       -0.0033203098 0.045342397 0.0014896387 0.0859878
0001d0 ae c2 ce bd b6 6b 69 bd d4 45 95 3c 07 69 92 bd
       -0.10095726 -0.056987487 0.018221773 -0.071489386
0001e0 cd 7a 2a 3d 97 b8 4e 3c c9 99 b5 bd 70 28 7c 3c
       0.04162102 0.012617252 -0.08867223 0.0153905
0001f0 61 56 39 3d 03 f1 9b bd 98 4e 87 bd 12 4e 2a 3d
       0.045248393 -0.07614329 -0.066067874 0.04157836
000200 33 07 9b bd 75 56 25 3d 6e 68 38 3d f7 cf e4 bc
       -0.075697325 0.040365655 0.045021467 -0.027931197
000210 c8 a5 04 3d 7a 7a 5f bd 5a e4 24 3d ce 1a 1c 3d
       0.032384664 -0.054560162 0.040256836 0.0381115
000220 c1 3d 0e 3e 9c 84 19 bd 63 8b a9 3d fb 9f a8 bd
       0.13890745 -0.03747998 0.08278539 -0.08233639
000230 03 69 84 3d 5a 3e 49 bc 4b 20 f2 bb 5e b8 57 bd
       0.06465342 -0.012282932 -0.0073891035 -0.05266606
000240 76 3e b9 3b 47 1b 77 3d 77 96 4a bd ff 7e 83 bc
       0.005653198 0.060328748 -0.0494599 -0.016051767
000250 dc 1e 4a 3d 36 61 36 3d 61 e9 20 3d 49 5a 7f 3c
       0.049345836 0.0445263 0.039285067 0.0155854905
000260 a5 ee 1a bd 12 0b 02 bd 47 4e a7 3d 5b 31 04 3d
       -0.037825245 -0.03174884 0.08169227 0.03227363
000270 45 99 be 3c 81 06 90 bc 61 c2 c5 3c ef 28 5f 3d
       0.023266444 -0.017581226 0.024140539 0.054482397
000280 bb f1 69 bd 44 18 a0 3d c2 53 a9 3d 9f c1 be 3d
       -0.057115298 0.07817128 0.08267929 0.09314274
000290 86 d6 87 3c 72 53 a0 3d 48 9f 90 bd 1c a8 0f bc
       0.016581785 0.07828416 -0.070616305 -0.008768108
0002a0 84 ec a3 3d ee 0d c3 bc 61 0e 63 bd 9d 76 bf 3d
       0.08004096 -0.023810353 -0.055433635 0.093487956
0002b0 dd 32 34 3d 69 cb be bd 15 91 14 3d 0e 35 b8 39
       0.04399382 -0.09316141 0.036271174 0.00035134744
0002c0 ce 59 47 bd 35 20 76 bd 4b 99 7a bd 56 73 47 bd
       -0.04866963 -0.06008931 -0.061181348 -0.048693977
0002d0 fd 84 e9 3c 7e 71 b1 bd 8c 5c a3 3d be 27 24 bd
       0.028505797 -0.08664225 0.07976636 -0.040076964
0002e0 69 7e 71 bd 94 36 35 bd f2 9d 91 bd e6 ac 0e 3d
       -0.058958445 -0.044241503 -0.07110204 0.034832858
0002f0 e4 67 c2 3d 62 32 93 bd fd 9b a2 3c 25 5f b2 3d
       0.09492472 -0.07187344 0.019849772 0.08709554
000300 1a 21 0d 3d f1 a8 98 bd 36 3f 43 3d db c8 51 3c
       0.034455396 -0.07454098 0.047667705 0.012804235
000310 f3 ab 5b 3c d7 77 58 3d c5 8b 83 bd 08 dc a0 3d
       0.013407695 0.052848663 -0.06423143 0.07854468
000320 1b 0b 09 bd 68 b9 58 bd 8b 4b 34 bd 90 05 93 3d
       -0.033457857 -0.052911192 -0.044017356 0.07178795
000330 bc 45 e2 3c cf 9a 35 bd 22 c3 b9 bd b0 d5 af bd
       0.027621143 -0.04433709 -0.09070422 -0.085856795
000340 6f fc 27 3b 6e 9e 75 bd 50 73 90 3c 4c 98 f1 bc
       0.002563264 -0.059965543 0.01763311 -0.029491566
000350 c2 04 ae bd d7 68 44 3d 3f 63 6b 3d 30 56 db 3c
       -0.08497001 0.047951546 0.057467695 0.026774496
000360 ec 3c aa bc 63 df bd 3c a7 3a 55 3d 1f f3 b9 3c
       -0.020781003 0.023177808 0.05205789 0.022698937
000370 7a 2d 66 3b cb cc b7 3d 76 9b 9e 3d ce 61 c2 bd
       0.003512232 0.08974608 0.077444956 -0.09491311
000380 93 ed 8e 3d 7b 45 89 bd 69 b3 f7 3c ae 46 b5 bd
       0.069789074 -0.067027055 0.030236917 -0.08851372
000390 24 9c 62 bd e1 6d 05 bd 1b 0b 80 3c 53 63 a7 bc
       -0.05532469 -0.03257549 0.015630296 -0.020433104
0003a0 be 14 7f 3d ca c1 c4 3d 03 09 01 bd 82 41 81 3d
       0.06227564 0.09607275 -0.031502735 0.06311323
0003b0 3c 4e 11 3d f7 0a 83 3c 58 aa 77 bd ce b8 12 bd
       0.035475 0.01599644 -0.060465187 -0.035820775
0003c0 94 a0 a0 bd d1 07 8c 3d d8 00 74 3c 1f 79 5c 3d
       -0.07843128 0.06837428 0.014892779 0.053826448
0003d0 59 b0 86 bd eb 0f 68 bd 26 63 3b 3d 23 c2 05 bc
       -0.065766044 -0.056655806 0.045748852 -0.008163962
0003e0 4d de 82 3d 4a b8 85 bb af 4a ee bc 93 4b 54 bd
       0.06390057 -0.004080807 -0.029088346 -0.051829886
0003f0 0f bf 1b bd 62 28 0f 3d 61 30 97 bd c8 9d be bd
       -0.038024005 0.03495062 -0.073822744 -0.09307438

actor.0.bias f4 [64]
000000 e1 80 03 3d c1 3c 07 3c 9f a7 92 3d 27 0d ac bc
       0.03210533 0.008254231 0.071608774 -0.021002365
000010 cf 8b a1 bd fa 3c 2b 3d 70 64 ec bb 76 2d a1 bd
       -0.078879945 0.0418062 -0.0072141215 -0.07869999
000020 9b 69 87 bd 6f 11 9d bc d9 d3 b6 3c 25 cc bf 3c
       -0.066119395 -0.019173352 0.022317814 0.023412773
000030 d2 6c 83 3d f6 bc 8e 3c 8d 89 62 bd 99 54 2c bc
       0.0641724 0.017424088 -0.05530696 -0.0105182165
000040 6b 66 4a 3a 21 3f ba bd ca c0 c3 bd c9 5b 4b bd
       0.000772095 -0.09094072 -0.09558256 -0.04964808
000050 24 7f 19 bd 08 28 b2 bd 49 5b a7 bd 07 f8 c5 3d
       -0.037474766 -0.086990416 -0.08171708 0.09666448
000060 f0 f9 5a bd d4 1f 3f 3c 47 ab ae 3d e3 12 a1 3d
       -0.053461015 0.011665303 0.08528762 0.078649305
000070 9e a0 37 3b 93 b7 86 bd cf 83 c7 3d a6 57 bf bd
       0.002801932 -0.06577983 0.09741937 -0.093428895
000080 bb a4 01 3d f1 03 4a 3c 14 96 13 bd 74 95 8a bc
       0.03165124 0.012330041 -0.036031798 -0.016916968
000090 08 58 2d 3d 93 e6 bc bb dc 4b 73 3c 4d c4 17 3d
       0.04232028 -0.0057647913 0.014849629 0.03705244
0000a0 b3 8a ae 3d c2 ed 9f 3d ed 8c b0 bd 29 da 92 bd
       0.085225485 0.078090206 -0.086206295 -0.07170517
0000b0 ef 7b 99 bd 79 43 a8 3d d0 3c 38 bd 22 a0 d4 3c
       -0.074943416 0.082159944 -0.04497987 0.025955264
0000c0 0b 40 14 3d 99 ad 74 3d f2 77 92 3d d1 e3 3a 3d
       0.03619389 0.059735868 0.07151784 0.04562742
0000d0 c2 35 94 bc c1 40 be bd 35 72 d1 bc 6b 4b 95 bd
       -0.01809204 -0.092896946 -0.025567153 -0.072897755
0000e0 7c 2f 86 bd 09 a4 f5 3c 7e cc ac 3d 01 10 f1 3b
       -0.06552026 0.029985445 0.08437441 0.007356644
0000f0 d3 64 a9 3d e2 00 11 bd 64 58 54 bc 09 57 9a bd
       0.08271184 -0.035401233 -0.012960527 -0.07536132

actor.2.weight f4 [64, 64]
000000 59 f1 8b bd 1d ab bd 3d 88 42 79 bc 14 e5 1e 3d
       -0.06833143 0.09261153 -0.015213616 0.038792685
000010 ec f9 4d 3d 96 38 ec bc 50 9b 34 3d 3d c5 d9 3a
       0.050287172 -0.028835576 0.04409343 0.0016614568
000020 a2 5c 62 bd a0 2b 26 3d af 9e 96 bd 71 2f 48 bc
       -0.055264123 0.040568948 -0.07354485 -0.012218342
000030 10 57 d5 bd 0e f5 d7 bd 1b d2 ec bd b1 b9 0d bc
       -0.104169965 -0.10544787 -0.11563512 -0.008650229
000040 b0 21 8c 3d 58 bc ce 3d 14 61 82 3d 41 ab 1c 3d
       0.06842363 0.100945175 0.063661724 0.038249258
000050 b8 ec ac 3b fd 72 22 bc 10 19 b9 3d 86 52 e0 3d
       0.0052772425 -0.009915111 0.090379834 0.1095324
000060 ba f8 67 3d f6 8d 40 3d 78 d2 4c 3d 38 45 9c bd
       0.05663369 0.047010385 0.050005406 -0.0763039
000070 96 39 c8 bd 57 f7 27 3c 54 ec f6 bd fb 75 47 bc
       -0.09776609 0.0102518415 -0.12056795 -0.012174125
000080 b7 95 42 3d e5 dd c7 bd f9 8a 62 3d 06 b0 d8 3d
       0.04750606 -0.0975912 0.055308316 0.10580449
000090 c1 2e 46 3d 3b 62 87 3d e5 fd 63 bd 51 dc a1 3d
       0.04838443 0.06610533 -0.055662055 0.0790335
0000a0 22 e4 c5 bd d5 a5 c6 3b f6 2f 82 3d 22 6b e4 3c
       -0.096626535 0.006062249 0.06356804 0.027883116
0000b0 c9 8f 01 bd da 0a 93 bd 49 fe b8 bc 7b 92 03 bd
       -0.031631265 -0.07179804 -0.02258219 -0.032122117
0000c0 27 c0 a4 bd 93 32 ba 3d fd 9c 50 bc 86 55 84 bd
       -0.08044463 0.090916775 -0.012732741 -0.06461625
0000d0 3d 33 6d bd bd 92 87 3d 88 50 3a 3d 08 70 0c bd
       -0.057910193 0.06619785 0.045486957 -0.03428653
0000e0 68 e0 d1 bd f4 9f d0 3d bf 23 01 bd cb 71 b0 3d
       -0.1024788 0.10186759 -0.03152823 0.08615454
0000f0 fc c6 c4 bd 3f 0e bd bd 8d 2b 06 3d 83 32 be bd
       -0.09608266 -0.09231233 0.032756377 -0.09286978
000100 5e f8 3e 3d c3 11 1c 3d b7 88 17 bc 22 eb 94 bd
       0.04662358 0.038102876 -0.009248904 -0.072714105
000110 44 fd ed 3b d1 5c a8 bd 4f c7 03 3d 17 20 65 3d
       0.0072628576 -0.08220828 0.032172497 0.055938806
000120 83 65 08 bc cc fd c5 bd 22 16 93 bd 7f fc 83 bd
       -0.0083249835 -0.096675485 -0.07181956 -0.06444644
000130 d8 7e 34 3c 11 ff f2 bd 48 63 eb bc f3 c4 fd bd
       0.01101657 -0.11865056 -0.028733864 -0.12391081
000140 ac f3 20 3d 86 fa ea bd b7 2f 73 3d 0e 22 9c 3d
       0.039294884 -0.11473565 0.059371676 0.07623683
000150 c2 90 d6 ba f3 76 39 3d 62 a2 94 3d d2 9c 06 3d
       -0.0016370045 0.045279454 0.072575346 0.0328644
000160 f0 14 a3 bd 4a ae 66 bd 53 5f 84 bb 5b bb 0d bc
       -0.07962978 -0.05631856 -0.004039684 -0.008650626
000170 f8 5b 35 bd a8 ae 6b bd 6e fe c1 3a 27 d0 54 3d
       -0.04427716 -0.057539612 0.0014800557 0.051956322
000180 ce fb c2 3b 1c 70 e4 bd 71 b1 87 bd 24 60 ac 3a
       0.0059504276 -0.11154196 -0.06625641 0.0013151211
000190 fd b9 a3 3c a3 50 d8 3d f7 81 df 3d fb 76 81 3d
       0.019986147 0.10562255 0.10913461 0.06321522
0001a0 53 44 e7 3d 78 88 9c bd 5b e3 a8 bd 3b d4 fd 3d
       0.11292329 -0.07643217 -0.082464896 0.123939954
0001b0 66 61 c4 3d 7f 9c 55 3d 61 a6 ae 3d d9 1e 06 3e
       0.0958889 0.0521512 0.08527828 0.13097705
0001c0 e4 36 d5 bd f0 1e 68 bd 9f e0 2b 3d 46 4b 9a bd
       -0.1041086 -0.05667013 0.041962262 -0.075338885
0001d0 81 3a 34 bd 4d 34 d1 bb e3 a9 93 bb f8 61 5e bd
       -0.044001106 -0.0063844086 -0.004506336 -0.05429265
0001e0 7b 6e 0f bd 22 e1 1d bd 1a 9c c2 bd 12 67 6e 3d
       -0.03501747 -0.03854478 -0.0950243 0.058203764
0001f0 7d 45 83 bb c9 7e db bd 10 98 89 3d 91 c0 41 3d
       -0.0040060864 -0.10717542 0.06718457 0.047302786
000200 af 00 ac bc 53 8f ea bd 96 02 d6 ba 9c 08 f3 3d
       -0.02099642 -0.11453118 -0.0016327675 0.118668765
000210 d7 c8 e8 bd 53 f1 33 3c 93 b1 89 bd 24 36 94 3d
       -0.11366432 0.010982829 -0.06723323 0.07236889
000220 1b 22 43 bd a4 76 e6 bd 0b 85 af 3b 94 ea aa bd
       -0.047639947 -0.11253098 0.005356436 -0.083455235
000230 07 ac df 3d 85 a4 b5 bd bf 5f b8 3d 50 e0 f0 bd
       0.109214835 -0.0886927 0.09002637 -0.11761534
000240 6c 59 7a 3d 55 f8 c9 3c e0 7f 4f 3d 0b fd cd 3d
       0.061120436 0.024654547 0.05065906 0.1005803
000250 c4 a7 a1 3d 7c 0d 4d bc 2f fb f3 bd 9c dc c8 3a
       0.07893327 -0.012515422 -0.11913144 0.0015324536
000260 5e b1 90 bd 3e bd 0a bd 75 1d 68 bd 11 8e ea bc
       -0.0706508 -0.03387188 -0.056668717 -0.028632196
000270 80 41 b5 3d 47 29 e5 bc d1 dd 9e bd 82 46 a2 bd
       0.08850384 -0.027973784 -0.07757152 -0.079236045
000280 34 f9 a9 3d 23 10 63 3d af e6 f2 bd a8 f4 d5 3d
       0.08299485 0.05543531 -0.11860406 0.10447055
000290 78 a1 ea bd 42 45 df 3d e5 44 ad 3d 60 ef d2 3c
       -0.11456579 0.10901882 0.08460406 0.025748909
0002a0 78 cf fc 3d 8c e8 f9 bb a4 f7 fc bd a8 67 21 bd
       0.12344259 -0.0076265987 -0.12351921 -0.039405495
0002b0 f4 eb a4 3d 38 a6 98 3d d7 14 36 3d 61 3a 0d bd
       0.08052817 0.07453579 0.04445347 -0.034479503
0002c0 c4 44 c6 bd eb 03 b8 bc 4e d0 00 3e e7 63 4a bd
       -0.09681085 -0.022462806 0.12579462 -0.04941168
0002d0 63 05 cb bd 31 22 cf 3c a3 31 87 3c 68 a1 e3 bd
       -0.09913137 0.025284858 0.01650316 -0.1111477
0002e0 65 9a b8 3d e3 4c ee bc 81 98 14 3d 99 20 cf 3d
       0.090138234 -0.029089397 0.03627825 0.101136394
0002f0 00 b9 3a bc 43 b0 8b 3d 33 42 01 bb a4 ec 77 3d
       -0.0113966465 0.06820729 -0.0019723296 0.060528412
000300 c1 8a ed bb 45 71 98 bd 5a 8a 97 bd f2 40 7b bd
       -0.007249207 -0.074434794 -0.07399435 -0.061341234
000310 ab 25 89 bd 09 a1 a6 bc b3 c6 82 3c c3 3a da bc
       -0.06696638 -0.02034046 0.015963888 -0.026639348
000320 29 d7 1c 3d 3d f0 84 bd 86 c8 e8 bd 90 bd 80 3c
       0.03829113 -0.06491134 -0.11366372 0.01571539
000330 16 12 85 bd 26 bd 7c bc 6f 30 03 3d 98 ac 3e bd
       -0.0649759 -0.015425956 0.03202861 -0.046551317
000340 9d 1f 93 3d 79 27 5d 3b a2 5f 8c 3c 77 af 22 bd
       0.07183764 0.0033745451 0.017135445 -0.039718118
000350 af 1e b9 3d da 37 d8 3d 83 e9 8d 3d 06 8c 89 3d
       0.090390556 0.10557528 0.069293045 0.067161605
000360 d1 a0 a9 bd c5 2c 1d 3d de 09 e2 bc 71 bf 75 bd
       -0.082826264 0.038372774 -0.027592596 -0.059997026
000370 4f 86 b2 bd d4 a7 0c 3d 7c c2 44 bd 50 11 c7 bd
       -0.087170236 0.03433974 -0.048037037 -0.09720099
000380 8b b1 9a bd b6 9d 07 be fe 77 dc bd 26 9c 09 bd
       -0.07553395 -0.13243756 -0.10765074 -0.03359618
000390 eb e1 b2 3d 51 44 96 3c 47 e6 ee bd bf 3f 8b 3d
       0.08734497 0.018343123 -0.11665016 0.06799268
0003a0 a8 2d 26 bd fa 31 63 3d 4a 0f 84 bc 88 40 bf ba
       -0.040570885 0.055467583 -0.016120572 -0.0014591375
0003b0 f6 08 00 bd 67 63 98 3d 6a 09 d5 bd c0 4a 89 3d
       -0.031258546 0.074408345 -0.10402186 0.067037106
0003c0 b8 9a b8 bd 7d 22 ec 3d ed 93 c3 bc df 9b b5 bd
       -0.09013885 0.115300156 -0.023874247 -0.08867621
0003d0 9a 7e 47 3d d6 1b f7 3d 76 dd 89 3d 30 6b 89 bd
       0.04870472 0.12065856 0.067316934 -0.067098975
0003e0 f7 e6 f5 3d f1 52 7d bb 38 13 01 3e 2c 35 b6 3d
       0.12006944 -0.0038654173 0.12604988 0.088968605
0003f0 a5 91 a0 3d 81 e0 0b 3c 66 c8 eb bd 4c 5c 4c 3d
       0.078402795 0.008537413 -0.11512832 0.04989271

actor.2.bias f4 [64]
000000 2d 39 33 3d a4 b1 4a 3d ab a9 d7 3d 4c 24 75 3d
       0.0437557 0.049485818 0.105304085 0.05984907
000010 75 84 e0 bd 4b 0d e7 bd 12 c2 32 3d 20 58 bb bd
       -0.10962764 -0.11281832 0.04364211 -0.09147668
000020 ab 41 0f bb 2f 22 6c 3d 02 65 80 bd 7b af 89 3d
       -0.002185921 0.057649788 -0.06269266 0.06722923
000030 ca f7 87 bd 9b 3f e5 3d 9e b0 e9 3d 56 94 88 3c
       -0.06639059 0.111937724 0.1141064 0.016672295
000040 eb b9 b2 bd 0d 0a 8a bd 70 67 05 be 37 72 9a 3d
       -0.08726867 -0.06740198 -0.1302774 0.07541316
000050 92 c7 db 3c 73 c3 b0 3c 6e 5d d0 3d 54 2b f8 bd
       0.026828561 0.021577572 0.1017407 -0.12117639
000060 2c dd aa 3d d3 13 88 3d b2 bf c4 3d b1 2b a7 bd
       0.083429664 0.06644406 0.096068755 -0.0816263
000070 56 46 93 bd 11 c4 cc 3d 33 07 b8 3c 5e b3 fd bd
       -0.0719115 0.09998334 0.02246437 -0.12387727
000080 81 cb 16 bd 3d d6 f8 bc 99 d0 b5 3d ef db 52 3d
       -0.03681517 -0.030375594 0.088776775 0.051479276
000090 0a d8 4e bd 6e 13 84 bd d1 ca 45 3d df dd 1d 3d
       -0.050499 -0.064490184 0.048289124 0.03854167
0000a0 fa 43 53 bd fb 47 78 3d 6e 2f 1d bd 8e e6 b7 bd
       -0.0515785 0.06061552 -0.03837531 -0.08979522
0000b0 d4 1a aa bd f5 e7 81 bd e4 dd a8 bd 37 29 4e bd
       -0.08305898 -0.063430704 -0.08245447 -0.050332274
0000c0 55 d6 ce bd a7 21 3f 3d f8 e8 7d 3d 1c 18 04 3e
       -0.10099474 0.046662953 0.061989754 0.12899822
0000d0 cc 02 96 3d 09 a9 af 3d d6 ef 88 3d c9 6a ee bd
       0.07324752 0.08577163 0.0668637 -0.116414614
0000e0 4e 21 c7 bd 66 bf 5a bd 6b c4 99 bd 95 62 95 3d
       -0.09723149 -0.053405188 -0.07508167 0.07294194
0000f0 f4 5d ae 3d ae a7 95 bc 36 b4 7d bd 01 f6 73 3d
       0.08514014 -0.018268432 -0.06193944 0.05956078

actor.4.weight f4 [8, 64]
000000 fa e6 d6 bd e3 e7 60 3b 99 b4 4e 3b 91 67 1c 3d
       -0.10493274 0.0034317903 0.003154075 0.038184706
000010 56 4a 05 3e bf 20 be bd 3e 0d 56 3b f6 b2 cd 3c
       0.13016638 -0.092835896 0.0032661702 0.02510975
000020 84 11 99 3d dc 86 80 bd ac d1 dd bd dc 51 5a 3d
       0.07474044 -0.062757224 -0.10831007 0.053300723
000030 e9 bc 7c 3d b9 d7 8b bd 05 51 b8 3c 7c 1b 83 3d
       0.061703596 -0.06828255 0.02249957 0.064017266
000040 0f f3 b3 bd ba 45 c7 3a b7 9c 9b 3c 04 ac 02 be
       -0.08786594 0.0015203275 0.018995626 -0.12760931
000050 2d ad 9c bc 49 b8 07 bc e7 bd bd bc ff 0a f0 bd
       -0.019125545 -0.008283683 -0.023161842 -0.11720847
000060 52 34 16 3d d5 51 bb bb a1 5e 0d bd 71 2b 8d bc
       0.03667099 -0.0057165422 -0.034514073 -0.017232629
000070 5d 0d 9b bd 43 0d 8d bb ba de ee bc 8e 25 be 3d
       -0.07570908 -0.0043045594 -0.029158939 0.09284507
000080 3e 31 a6 bd ca 94 cf bd 83 28 11 3d 9b 1e 5e 3c
       -0.08114861 -0.10135801 0.035439026 0.013557102
000090 2f 2d a3 bd b6 03 51 bd 0f c5 07 be 78 00 b4 3d
       -0.079676025 -0.05102893 -0.13258766 0.08789152
0000a0 6a 5c a2 bd 6f 2d 97 bd 99 02 25 bd 67 4d 4b 3b
       -0.07927783 -0.07381713 -0.04028568 0.0031021477
0000b0 d5 ab 63 bc ae 78 19 3d b3 71 ca 3d 1c 14 e1 3d
       -0.013895948 0.037468605 0.09884968 0.10990164
0000c0 58 15 07 3c e2 c2 45 bd 89 44 68 bd f1 07 85 3d
       0.008244835 -0.048281558 -0.056705985 0.06495655
0000d0 e3 ef d5 3c b8 58 b8 3d 56 6d b4 3b 6f a7 74 3d
       0.026115363 0.09001297 0.005506198 0.05972999
0000e0 81 04 8d 3d 99 b1 49 3d 25 44 f0 ba 8d 09 44 3d
       0.06885625 0.049241636 -0.0018330856 0.04786067
0000f0 54 26 17 3c 28 b3 cb 3d 1f 20 05 3e 7d 7a 3a 3d
       0.009225447 0.09946281 0.13000534 0.04552697
000100 c4 74 cb bd e6 f4 cd 3c 74 50 ff 3d 74 7c e9 bd
       -0.09934381 0.02514119 0.12466517 -0.11400691
000110 ed 72 98 3d 20 a8 7f 3d a9 b2 a7 bd b1 4e bf 3b
       0.07443795 0.062416196 -0.081883736 0.005838238
000120 e5 e1 06 bb ce 4f f7 3d 47 70 ee bd b7 18 9d 3d
       -0.002058142 0.120757684 -0.11642509 0.076707296
000130 ee 6e 6a 3d d3 90 23 bc 82 0d ef bd 7f d4 37 bd
       0.057234697 -0.009983259 -0.11672498 -0.044880386
000140 10 2c ed bd c7 68 51 bd 63 02 d4 bd db cb bc 3c
       -0.1158067 -0.051125314 -0.10352018 0.023046425
000150 f2 a3 8f 3d ba 15 57 3d c9 de 84 3d 95 03 1b bd
       0.07013692 0.052510954 0.064878054 -0.037845213
000160 f8 c7 25 3d 35 fb c8 3d 0a 73 82 3d fa ce d5 3c
       0.04047391 0.09813539 0.06369598 0.02609967
000170 70 4d 88 ba be 97 d4 bd 84 af 9c bd 03 a2 b4 ba
       -0.0010399055 -0.10380505 -0.076506644 -0.0013781193
000180 65 0b fc bd fb cf 15 3d e6 e4 9c 3d dc 66 79 3b
       -0.12306861 0.0365753 0.076608464 0.0038055694
000190 89 8c c4 3d a8 f3 0b bd 30 22 aa bb b8 10 74 bd
       0.095971175 -0.034167916 -0.0051920637 -0.059586257
0001a0 25 97 18 bd 5c 71 e7 ba 4c d5 f8 3d 79 18 25 3c
       -0.037253518 -0.0017657685 0.12150058 0.0100766355
0001b0 25 23 ac 3d d6 80 d4 3d 38 07 68 3d 46 09 5a bc
       0.08405141 0.10376136 0.05664751 -0.013307875
0001c0 7c e8 b5 3c 8d e7 63 3d b8 74 22 bd bb f2 48 3d
       0.022205584 0.055640746 -0.039662093 0.04905961
0001d0 47 51 f5 bd 6b c9 a8 bd 11 3f 68 3d 09 ca bc 3d
       -0.11978393 -0.082415424 0.05670077 0.09218223
0001e0 0c 40 d1 3d 10 ed a3 bb a8 ab 8f bd 9e 96 77 bd
       0.10217294 -0.0050026253 -0.07015163 -0.060446374
0001f0 8f be 56 3d 0e b4 da bc b9 1c 95 bd 19 ca de bd
       0.052427825 -0.026697185 -0.07280869 -0.10878391
000200 ae 56 89 bd 50 62 18 bd 5e b9 d8 bd 8e 4a 8a bd
       -0.06705986 -0.037203133 -0.10582231 -0.067525014
000210 91 e2 d0 bd a7 44 a2 3d be eb 91 bd 05 10 c7 bd
       -0.10199464 0.07923251 -0.071250424 -0.09719852
000220 08 bf 07 3e da 18 bd bd aa 6e 52 3d e3 36 dc bd
       0.13256466 -0.09233256 0.05137507 -0.10752656
000230 ca e3 27 3d 4f c0 1d bc dd 24 8c 3d 8f 04 8f bd
       0.04098872 -0.0096283695 0.068429686 -0.06983291
000240 99 45 1b 3d db f1 f3 3d f6 18 9a bd d4 c4 95 bd
       0.03790817 0.11911365 -0.07524292 -0.073129326
000250 17 77 12 3b bf a8 77 bc db c4 c3 bc 21 f5 a0 bb
       0.0022348815 -0.015115916 -0.023897579 -0.004912034
000260 44 97 c0 bc d7 5b ed 3d ad 91 04 bd cd 87 79 3d
       -0.02350963 0.11589783 -0.03236549 0.060920525
000270 c9 58 39 3b 15 d7 c0 3d ad f1 fd 3c 10 59 f6 b9
       0.002828168 0.09416024 0.030999029 -0.00046987133
000280 db 3d 9d 3d f2 f7 d4 3d f3 54 46 3d 5c 12 fd 3d
       0.076778136 0.10398854 0.048420858 0.123570174
000290 89 86 61 3d a1 f3 31 3d dc ea 01 b9 d0 b6 62 bd
       0.055059943 0.043445233 -0.0001238989 -0.055350125
0002a0 54 fa bc bd 84 80 d2 bd 2c 99 99 3d b1 6d 35 bd
       -0.09227434 -0.10278419 0.07499918 -0.044294063
0002b0 5f 58 e6 bd ad 7c d2 3c 12 9a 6b bd f6 94 bf 3d
       -0.11247324 0.025694216 -0.05751998 0.09354584
0002c0 7e fd f9 3c 85 69 1d bd e2 1d ab 3d b7 10 f1 bd
       0.030516382 -0.03843071 0.08355309 -0.11770766
0002d0 f4 26 df bc 9c 65 fe bc 3b 14 ed 3d 6e 21 7c 3d
       -0.027240254 -0.03105431 0.11576124 0.06155532
0002e0 ef 26 5d bd 1b 2e 9d 3d af 28 bf bd f9 07 7c bd
       -0.053992208 0.076748095 -0.09333932 -0.06153104
0002f0 7e 65 25 3d aa ed e3 bd bd 2a 9a bd b9 19 83 bc
       0.040379994 -0.11129315 -0.07527683 -0.016003476
000300 a2 aa 5e 3c 2b 1b aa 3b 58 a5 66 3d 45 9e bf 3d
       0.013590487 0.005191227 0.056310028 0.093563594
000310 9b 07 77 3d fc bb 37 3d 70 8e bc 3c 8b 82 81 3d
       0.060309988 0.04485701 0.023017138 0.06323727
000320 d6 a5 dc 3d 90 8a 22 bd b8 3c 3e bd ae 9e e8 bd
       0.10773818 -0.039682925 -0.046444625 -0.11358391
000330 13 db af bd c1 bb 88 3c e9 95 97 3d fc dd b6 bc
       -0.08586707 0.01669109 0.0740164 -0.022322647
000340 4c cc 61 bc 0e a7 b6 3b a1 47 b8 bd 19 44 ad bd
       -0.013781618 0.0055741137 -0.08998037 -0.08460254
000350 f1 26 a8 3d 62 64 e3 3d f2 45 b0 3d 5b 98 b1 bd
       0.082105525 0.11103131 0.08607091 -0.086716376
000360 64 48 82 3d 91 c4 9e 3d fb f8 c5 bd f3 eb 92 3d
       0.06361464 0.07752336 -0.0966663 0.0717391
000370 a7 83 81 bd 22 29 db bc d5 17 82 3d 3b 04 17 bd
       -0.06323939 -0.026753012 0.06352202 -0.03686927
000380 99 e1 d2 bd 99 55 96 3b 59 a6 c0 3d b5 63 6c bd
       -0.102969356 0.0045878408 0.09406728 -0.057712276
000390 ac 55 1e bc c8 59 1c 3c 03 d5 92 bd 15 56 d4 bd
       -0.00966398 0.00954289 -0.07169535 -0.10367981
0003a0 78 49 cd bd c3 7f e2 3c a4 27 97 3c b1 4b c6 bd
       -0.10023779 0.027648812 0.01845152 -0.09682406
0003b0 ec d7 00 bd 35 2f 23 3d f4 dd 94 3d 20 a7 a9 3d
       -0.03145592 0.039839942 0.07268897 0.0828383
0003c0 75 c7 40 3d 1b 17 dc 3d 1c f9 c3 bd a3 01 09 3c
       0.047065217 0.107465945 -0.09568998 0.008362207
0003d0 d8 e5 a9 bb be af bc 3d e9 ec 65 bd 2a 02 c4 3d
       -0.00518487 0.09213208 -0.05613414 0.09570725
0003e0 14 21 dc bd a3 6b a5 bd 6d 02 a3 3c 67 fa f3 3d
       -0.10748497 -0.08077171 0.019898618 0.11912995
0003f0 02 60 e8 3d ac 04 9f 3d 11 bb c8 3d 83 70 23 bc
       0.11346437 0.07764563 0.09801305 -0.009975555

actor.4.bias f4 [8]
000000 c1 90 d1 3d 43 80 aa bd 88 ed 99 3d 37 53 f0 bc
       0.10232688 -0.08325245 0.075160086 -0.029336555
000010 ed 5e ca 3d e0 59 bb bd 8c a1 aa bd 52 e8 af 3d
       0.09881387 -0.09148002 -0.08331594 0.085892335

critic.0.weight f4 [64, 105]
000000 e1 ac 9f bd aa 0e f1 bb f8 f6 ab bc 4e 27 83 3d
       -0.07796646 -0.0073564844 -0.020991787 0.06403981
000010 57 15 3b bd 84 f4 cd bd 5d 67 45 bb 7d 4e 99 3d
       -0.045674648 -0.10056403 -0.0030121424 0.074856736
000020 6e 21 50 3d ed dc e2 3d 78 3a 8c bc df 95 a5 3d
       0.05081313 0.110772945 -0.017117724 0.08085226
000030 bd b8 6e bd 80 73 cd 3d 0e c0 c9 bb 03 98 a9 bd
       -0.05828165 0.100317955 -0.006156928 -0.08280947
000040 4d 9a e4 3c 6d a3 0a 3d de e4 4a 3d de 0c 72 bd
       0.027905608 0.03384726 0.04953467 -0.059094302
000050 a0 c6 9a 3c 17 ad 97 3c 71 09 1d bd 01 45 13 bd
       0.01889354 0.018515153 -0.038339082 -0.03595448
000060 51 d9 a0 3d 90 48 be 3d e1 6d 87 3d 5d 55 16 3c
       0.0785395 0.09291184 0.066127546 0.009175626
000070 59 37 4d 3d 67 97 9e bd a8 64 8d 3d a2 9a cd bb
       0.05010161 -0.077437215 0.06903964 -0.006274537
000080 74 92 b3 3d 7b 9d fc 3b 1c 39 bc 3d 7e a4 2d bd
       0.08768168 0.007709203 0.0919058 -0.0423932
000090 0d 54 91 3d 19 84 0a bd 62 b1 8d 3d eb 9d 35 3d
       0.070961095 -0.033817384 0.06918599 0.044340055
0000a0 b4 e7 14 3d 75 d5 b3 3d a4 4b 9b bd 26 45 92 3c
       0.03635378 0.08780948 -0.07582787 0.017855238
0000b0 21 8f 71 3d 9c 66 9e 3c ab 20 55 3d fe f3 d4 3d
       0.05897439 0.019336037 0.052033108 0.103981
0000c0 fa 36 37 bd 38 71 8c bb 07 5c 88 bd 9c cd 0b bd
       -0.044730164 -0.0042859577 -0.06658178 -0.03413163
0000d0 62 07 76 bd b2 72 94 3d 8d e0 9e bd 52 fc bc 3d
       -0.060065635 0.07248439 -0.077576734 0.09227814
0000e0 a9 96 b4 3d 8a dc 22 3b 79 18 03 bd 57 c9 a3 bd
       0.08817799 0.002485069 -0.03200576 -0.07997387
0000f0 42 80 4d bd 1c a5 9f bd 84 f0 5d bd 5d 2c 31 3d
       -0.050171144 -0.07795164 -0.05418445 0.0432552
000100 8e cd 4d 3d 37 f5 da 3d 0c 24 c0 bc 2e 68 a6 3d
       0.05024486 0.10691302 -0.023454688 0.081253394
000110 48 27 a3 bd 23 d7 b4 3c 49 5a b1 bd c2 f4 84 bb
       -0.07966477 0.022075241 -0.08659799 -0.0040574977
000120 1f 4a bc bd 36 57 bb bd dc 0e 41 3d e9 05 3d 3d
       -0.09193825 -0.091474935 0.04713331 0.046148214
000130 74 67 38 bd ac 88 27 bd c0 e0 b1 bd 15 27 9c 3d
       -0.045020536 -0.040901825 -0.08685446 0.07624642
000140 6e cc 91 3d 07 3c 52 3d 58 a7 ad 3b ed ca 94 3b
       0.0711907 0.051326778 0.00529949 0.004540792
000150 10 a0 8a bd 23 31 71 bd f1 60 16 bd 43 6d 7c bd
       -0.06768811 -0.05888475 -0.036713544 -0.061627638
000160 d1 2a 58 bd 1c 3f 95 bd c7 43 14 3c 83 56 7d bd
       -0.052775208 -0.07287428 0.0090493625 -0.061850082
000170 4a 50 1a bd 4f 0a 94 bd da b0 77 bd f9 b7 1e 3d
       -0.037674226 -0.07228529 -0.060471393 0.03874967
000180 d3 99 13 3d 53 d9 90 3d 77 31 bf 3d 9e 40 ba bd
       0.03603537 0.07072701 0.093356065 -0.09094356
000190 8e a3 59 bd 3a a8 a7 bd fb e2 64 bd c6 38 61 3d
       -0.053134494 -0.081863835 -0.055880528 0.054985784
0001a0 de a4 c1 3a f2 c7 94 3d d5 f4 25 bd bc 51 6b 3c
       0.0014773866 0.07264699 -0.040516693 0.014362749
0001b0 3e 55 04 3d d3 06 83 3b 31 e2 98 3c 2f 7e 08 3d
       0.032307856 0.0039986162 0.018662544 0.033323463
0001c0 21 41 86 bd 5d 80 7d bd ed 12 21 bd 7c 9f 27 bd
       -0.06555391 -0.061889995 -0.03932469 -0.04092358
0001d0 4f 05 9c bd 74 ef b2 bd 39 34 fc 3d 37 2b d8 3d
       -0.076182 -0.08737078 0.12314648 0.105551176
0001e0 86 e3 c4 bb 2f 6c c3 bc fd 0a a4 bd 4c ab e4 3c
       -0.006008568 -0.023855297 -0.08009908 0.027913712
0001f0 83 51 3d bd fb e4 66 bc 90 3a 9f 3c 93 26 91 3c
       -0.046220314 -0.014092679 0.019437104 0.017718589
000200 cc 47 77 bd 3b 0c 57 bd a9 e3 37 bd a0 34 f8 bb
       -0.060371205 -0.0525019 -0.044894848 -0.0075746328
000210 14 30 ac bd 1f cd 4f bc ec 84 4a bd 27 e0 97 3d
       -0.08407608 -0.012683182 -0.04944317 0.074158005
000220 1a 2c 8b 3d 98 b9 2e 3d 43 29 bc bd 16 2e 8b 3d
       0.06795521 0.042657465 -0.091875575 0.067958996
000230 96 9d bb 3d 70 fc a2 3d 48 b3 67 bd 9d 27 4d 3d
       0.091609165 0.07958305 -0.05656746 0.050086606
000240 b1 dd c7 bc c0 66 06 3e b3 a7 37 3d ac bb 8d bd
       -0.024397703 0.13125134 0.044837665 -0.06920561
000250 db 37 35 bc 20 a0 af bd f5 ca 7d bd 20 22 57 bd
       -0.01106068 -0.08575463 -0.061961133 -0.05252278
000260 65 a1 b1 3b 59 00 42 3d de 8c a7 bc b0 48 8a bd
       0.005420851 0.047363613 -0.020452913 -0.06752145
000270 a0 57 87 bd 3b a9 cf 3c 32 c8 b9 bc 57 e6 b9 bd
       -0.0660851 0.02534925 -0.022678468 -0.09077137
000280 b8 c4 bf bd 4a e4 ac bd cc 20 54 bd 5f d7 9b 3d
       -0.09363693 -0.0844198 -0.05178909 0.07609438
000290 38 19 43 bd 81 e5 05 bd 51 23 2b 3d 00 06 6f bd
       -0.047631472 -0.032689575 0.041781727 -0.05835533
0002a0 68 c4 b3 3d 26 88 85 bd 7b a2 43 bd b9 ef 0f bc
       0.08777696 -0.06520109 -0.047762375 -0.008785182
0002b0 6b 59 a3 bb e1 48 71 bc 74 24 a5 bc c7 c3 ac bd
       -0.0049850247 -0.014726848 -0.020158984 -0.08435779
0002c0 66 09 9d bd 5e 03 ae bd 4f ac 20 3d 27 35 24 bd
       -0.07667808 -0.08496736 0.039226826 -0.040089753
0002d0 8b a4 67 3b be 1e 8e 3c 3c 4d 49 3d 6f be 29 bd
       0.0035345878 0.017348643 0.049145922 -0.041441377
0002e0 44 f0 fa 3a fe b6 61 3d 56 5b 34 bd 04 d5 5c bd
       0.0019145091 0.055106156 -0.044032417 -0.053914085
0002f0 9b e4 b0 bd 3e 70 af 3d db 10 ae bb 6a f7 49 bd
       -0.08637353 0.085663304 -0.005312068 -0.049308218
000300 13 ea 73 3d 25 32 81 3d 0a 11 a6 3c 7c 08 b2 3a
       0.059549402 0.063083924 0.020271797 0.0013582851
000310 58 93 ae bd 96 03 3c bd 6e 32 05 bd 71 c3 90 3d
       -0.08524197 -0.045901857 -0.032518797 0.070685275
000320 0d bb b7 3d 21 2f 85 bd 81 1f a5 bd 65 41 bd bd
       0.08971224 -0.0650313 -0.080626495 -0.09240989
000330 c6 b9 33 bd fb 62 2c 3d 83 f6 71 bd 76 0e 83 3c
       -0.04387834 0.042086583 -0.059072983 0.015998106
000340 8f fe aa 3d 66 ec d3 bd 34 43 c9 3c d7 7d e3 3d
       0.083493344 -0.10347824 0.024568178 0.111079864
000350 83 f9 8b bd 28 b9 a5 3d c0 76 92 3d 40 89 67 3c
       -0.068347 0.080919564 0.07151556 0.014131844
000360 ab 85 02 bd 65 20 dc bd 30 46 4b bd 01 ad b2 bc
       -0.031865757 -0.10748366 -0.049627483 -0.02181101
000370 62 ab 62 bd 15 fe d5 3c 39 a1 ad bd 35 f8 e9 3d
       -0.055339225 0.026122132 -0.084780164 0.11424295
000380 47 c3 c1 3d 09 27 49 3c c6 1b 00 3d 35 6b 0b bd
       0.09461074 0.012277373 0.031276487 -0.034037787
000390 17 e5 35 bd 66 68 53 bb cb fe c8 bc a7 ca 7f bc
       -0.04440793 -0.0032258271 -0.024535557 -0.015612281
0003a0 5d d5 82 ba b7 f3 74 bd ed 6a 95 bc 4d 4f d9 bc
       -0.00099818 -0.059802737 -0.018239463 -0.026527071
0003b0 3b 58 3a 3d c4 fc 31 3d ac 36 29 bd f9 ef a5 bc
       0.0454943 0.043453947 -0.041311905 -0.02025603
0003c0 2a a8 8d 3c 48 a1 a4 bd db 72 67 3d f4 45 c2 3d
       0.017292101 -0.080385745 0.05650602 0.09485999
0003d0 17 89 bc bd 2a f7 c2 bd b2 5b d7 3c 6d c7 9b bd
       -0.09205835 -0.09519799 0.02628884 -0.07606397
0003e0 4e 8f db 3c 89 b4 7a bd 80 df 00 ba 13 c0 e7 bc
       0.026801731 -0.061207328 -0.00049161166 -0.02828983
0003f0 18 48 34 bd ae 1f 73 bd 18 3d db 3c c2 23 d4 3c
       -0.044014066 -0.059356384 0.02676253 0.025895957

critic.0.bias f4 [64]
000000 45 ce 0a bd 97 5e dd bd ea f5 91 3d cd 3b 66 3d
       -0.03388812 -0.10809057 0.071269825 0.056209374
000010 46 2b 2a bd 32 33 b6 bd e9 ef ae 3d 51 11 36 3c
       -0.041545175 -0.088964835 0.08541853 0.011112527
000020 6d 46 98 bd 56 f0 48 3c 71 51 cb bd 8d 76 58 3d
       -0.07435308 0.012264332 -0.09927643 0.052847434
000030 2b 9b 29 bb 8f c0 7f 3d 6e 6f 6c bd ef b1 01 3d
       -0.002587984 0.062439498 -0.057723455 0.03166383
000040 af 19 c6 3d a7 a4 6a bd 43 f2 c2 3b 09 90 25 3d
       0.096728675 -0.05728593 0.00594929 0.040420566
000050 47 50 33 bc cf 49 33 3d 97 cb 88 3d a4 eb 89 bd
       -0.010944433 0.04377156 0.06679457 -0.06734398
000060 33 19 26 bc 0e 90 dc 3d 59 ea a4 3d 7b 24 4c 3d
       -0.010137844 0.10769664 0.08052511 0.049839478
000070 18 7e 9d 3d 73 18 42 bd 89 b1 a7 3d 86 b4 a1 bd
       0.07690066 -0.047386598 0.08188159 -0.0789576
000080 23 55 af bd ae 84 54 bd 0e 33 aa bc 37 33 96 bc
       -0.085611604 -0.051884346 -0.020776298 -0.018334968
000090 fc c3 a1 3c 24 1a ed 3a 6f 89 8a 3b 14 64 08 3b
       0.019746773 0.0018089456 0.004227809 0.0020811604
0000a0 5c 9f 81 3d 9f 5f 01 bc a9 4e 30 3d 9e 59 66 3b
       0.063292235 -0.007896333 0.043043766 0.003514863
0000b0 b6 7b 7b bd 7c 55 28 3b 1b b7 c8 3d 7d 7a 87 3d
       -0.061397277 0.0025685718 0.098005496 0.0661516
0000c0 ba ff b5 3d 34 02 08 3d f7 0d e7 3c ac eb aa 3c
       0.088866666 0.033205226 0.028204901 0.02086433
0000d0 f6 fe 47 bc 02 96 b2 3c 81 26 eb 3c 00 2b 32 bd
       -0.0122067835 0.021800045 0.028704884 -0.04349804
0000e0 eb f7 6a bd 32 1d 63 3d c8 a9 b5 3b 32 be 80 3c
       -0.05736534 0.055447765 0.005543921 0.015715692
0000f0 20 84 dc 3d 72 47 ce 3c f9 73 6d bd 47 42 56 3b
       0.10767388 0.025180552 -0.05797193 0.0032693313

critic.2.weight f4 [64, 64]
000000 0d e2 de bc f9 de a7 3d a1 09 db 3d 70 3c c6 3d
       -0.027207399 0.081968255 0.10695196 0.09679496
000010 2f e8 92 bd 65 59 8a 3d 1a 5f 8d bc 75 c9 0d 3d
       -0.07173192 0.06755332 -0.017257262 0.034615953
000020 22 56 8e bb 7f 68 b1 bd 5e 1e 97 bc 0e 27 a0 bd
       -0.004343764 -0.08662509 -0.018447097 -0.07819949
000030 14 e6 9b 3d c8 85 c1 bd 65 1d 4c 3b df 24 08 bd
       0.07612243 -0.09449345 0.003114545 -0.033238288
000040 ef 51 48 bc 33 e9 14 bd 42 81 04 3e 88 52 85 bd
       -0.012226566 -0.03635521 0.12939933 -0.06509882
000050 15 5b bb 3d 68 21 b2 3d d0 4d 4e bc c0 92 49 3d
       0.09148232 0.08697778 -0.012591794 0.049212217
000060 ab dd 0a 3d c8 37 8b 3c 51 95 a8 bd 4b b7 a4 bd
       0.033902805 0.016994372 -0.08231605 -0.08042773
000070 ef 18 22 bd 3c f8 50 3d 35 68 93 3d d7 cd 1e bd
       -0.03957456 0.051017985 0.0719761 -0.038770523
000080 89 3c 53 3d d7 e8 6c 3d 16 f1 da bd 24 2a 95 bd
       0.051571403 0.05783924 -0.10690515 -0.07283428
000090 ca 58 25 3d 01 e4 0c be d5 7e 93 bd e6 56 19 bd
       0.04036788 -0.13758852 -0.07201926 -0.03743639
0000a0 1d 82 0d bb 4e b4 f3 bd 74 ab fd bc 2c e1 b2 3d
       -0.0021592446 -0.11899625 -0.030965544 0.087343544
0000b0 7b 74 26 3d af 68 fd bd e2 64 07 bd 16 13 96 bd
       0.04063843 -0.123734824 -0.033055194 -0.07327859
0000c0 54 5d 7a bd 43 fe b2 bd fe 46 88 3c 0c 7b 9f 3c
       -0.06112416 -0.08739903 0.016635414 0.019467853
0000d0 06 a2 00 3d 1b 10 8d 3b 80 52 b6 bc f6 35 af bb
       0.031404518 0.0043048984 -0.022256136 -0.005347009
0000e0 ad 44 3b 3d b2 4f e4 bd a6 67 72 3c 01 e5 db bd
       0.04571979 -0.11148013 0.0147952195 -0.107370384
0000f0 83 7d 80 3d 25 42 fe bb 0e bc 05 be 2e ec 8e 3d
       0.062739395 -0.00775935 -0.13060018 0.069786415
000100 07 94 41 3b 0e 24 c2 3d 17 18 0c bd 30 e1 90 3d
       0.0029537694 0.09479533 -0.03420266 0.07074201
000110 26 d5 ba 3b e1 2f 4f bd c7 b3 f5 bc 81 46 e7 bd
       0.005701679 -0.05058277 -0.029992951 -0.112927444
000120 0c cc 9e 3d ac ed ad 3d 6a 0f 75 3d 09 12 0a 3d
       0.077537626 0.08492598 0.059829153 0.033708606
000130 3e 1c 97 bd a5 87 df 3d d7 61 f4 bd a2 66 6d bc
       -0.07378434 0.10914544 -0.11932724 -0.014489802
000140 cc cf 38 3c ab 34 0b 3d fe 22 86 3d d4 5e 7b bc
       0.011280011 0.033985775 0.06549643 -0.015342433
000150 b3 0f cf 3d 9f 8b 40 3d 83 1d 04 3c 45 43 63 3d
       0.10110416 0.047008153 0.008063677 0.055484075
000160 77 c4 80 3d b2 97 b4 3d d6 de a5 bd 7b 7b c3 bd
       0.06287473 0.08817996 -0.08099143 -0.095450364
000170 9c 2a 1c bd be 88 19 3d 06 85 f6 bb c3 72 81 3d
       -0.038126573 0.037483923 -0.007523182 0.06320717
000180 62 43 a5 3d 4b f0 a8 3d 71 15 aa bd 07 01 ad 3d
       0.08069493 0.08248957 -0.08304871 0.084474616
000190 8e 35 f5 3d a5 ac a7 3d 59 d0 fc bb cc e9 6e 3d
       0.11973105 0.08187226 -0.0077152667 0.058328435
0001a0 90 a9 b9 bc b9 be 6c bd 0e 6e ac 3c 36 1d 73 bd
       -0.022663862 -0.057799075 0.021048572 -0.05935403
0001b0 08 e0 86 3d 08 35 ec 3d 6b da 28 bd 60 ec e2 bd
       0.06585699 0.115335524 -0.041223925 -0.11080241
0001c0 27 91 be 3d 6e c8 9c 3d 6f 41 dc 3d 08 d8 c4 bd
       0.09305029 0.076554164 0.10754668 -0.09611517
0001d0 03 fc 8e bd d5 56 de 3b c8 30 52 bd 93 a5 89 3d
       -0.06981661 0.0067852535 -0.051316053 0.06721034
0001e0 99 de 07 3d c8 39 11 bd 02 b6 d7 3d b4 4f 6f 3c
       0.03317127 -0.035455495 0.10532762 0.014606405
0001f0 8f 8e 8b 3d 23 56 fb 3c 23 f6 ee 3d 47 01 e7 bd
       0.068143 0.030680722 0.116680406 -0.112795405
000200 99 25 1e 3a 5d 4a 2f bd 3a 5f 15 be 3d 41 89 bd
       0.0006032824 -0.042795528 -0.14587107 -0.06701896
000210 8e c5 44 bc 67 c4 8f 3c ce 7e cd 3c 4e 68 6c bd
       -0.012009991 0.017549707 0.02508488 -0.05771666
000220 fd db 2d bd 2b d5 fd 3b 87 fa c5 bd 2a 0b fc bd
       -0.042446125 0.007746359 -0.09666925 -0.12306817
000230 4e 28 a1 bc ea c6 e9 3d 1d db 66 3d 3a a5 69 bb
       -0.01967254 0.11414893 0.056361306 -0.0035651461
000240 86 b0 09 3c d1 76 c6 bd 2e 03 94 bc 5e bd 61 bd
       0.008403903 -0.09690631 -0.018067922 -0.055112235
000250 c5 4e 6c bd af 19 df 3d 28 05 d5 3d 86 1c a9 bb
       -0.057692308 0.10893571 0.10401374 -0.005160871
000260 3a 63 20 bd 8d ae d9 3d e4 da b7 3d 4e 84 2b 3d
       -0.03915713 0.10628996 0.08977297 0.041874222
000270 b6 6c 6d 3d dc ed 8a bd 85 fc 50 3d 1c de 9c bd
       0.057965003 -0.06783649 0.05102207 -0.076595515
000280 3a fa ae 3d cb d4 a6 3d 40 96 07 3e 44 4a d6 bd
       0.08543821 0.08146056 0.1324091 -0.10463384
000290 0d 4c 2f 3c 00 a8 67 3d 89 ed d3 bc a5 99 5c 3d
       0.010699284 0.0565567 -0.025870102 0.053857464
0002a0 58 5b 2d bc 7c ae b8 bd bf a1 b2 bd d3 17 bd bd
       -0.01058086 -0.09017655 -0.08722257 -0.0923306
0002b0 51 3a 72 3d 38 a1 74 bd e1 44 1c 3d 7e 29 28 3d
       0.059137646 -0.059724063 0.038151626 0.041055195
0002c0 3f 70 a0 3c 12 1c d9 3c 03 9f 42 3d 43 7d cd bd
       0.019584773 0.026502643 0.047514927 -0.100336574
0002d0 f8 4b b3 3d 0a 88 04 3d 1d 57 6f 3d 83 12 c4 bc
       0.08754724 0.0323563 0.058432687 -0.023934608
0002e0 1c c2 9b 3d 96 69 43 bc d6 de d2 bd 2a 58 b1 3d
       0.07605383 -0.011927029 -0.10296409 0.08659394
0002f0 00 71 7a 3d b5 f7 89 3d 75 82 52 bd 76 3d f8 bc
       0.06114292 0.067366995 -0.051393945 -0.030302744
000300 91 c5 a5 bb 8c 48 b5 bc eb d9 8f 3c 8c af a6 bd
       -0.005058952 -0.02212932 0.017559966 -0.08138952
000310 6f c1 80 3d 80 cd 64 3d 21 9a 3b bd 6c 79 e2 bd
       0.062868945 0.055860043 -0.045801286 -0.11058316
000320 23 a9 c7 bd 39 b1 b5 bc d4 98 ac bd 52 45 7b bb
       -0.09749057 -0.022179233 -0.08427587 -0.0038340879
000330 a0 8f dc 3d 73 d7 c2 3d e4 fc e0 bd 67 30 d4 bc
       0.10769582 0.0951375 -0.10985735 -0.025901986
000340 56 91 a9 3c 7c ce eb 3d 44 62 01 be 10 9f 8e 3d
       0.020699184 0.11513993 -0.12635142 0.069639325
000350 02 d6 66 3d 5c 53 08 3e bd c8 85 bb 2f 7b ac 3d
       0.056356438 0.13313049 -0.0040827678 0.08421933
000360 fb 39 bb 3d 26 50 a2 3d 6e 56 7f 3c 92 e4 95 bd
       0.09141918 0.07925443 0.015584571 -0.07318987
000370 dc 03 14 3b 0f 6f fb bb 26 b6 04 bd d1 8a 83 3c
       0.0022585308 -0.0076731513 -0.032400273 0.016057404
000380 57 d5 93 3d 63 1b 86 3d 85 a0 ac 3d eb 5e a2 bd
       0.07218426 0.06548192 0.08429054 -0.079282604
000390 9f 6a 5a bd 27 16 6a 3d 55 ac 90 3d 26 f3 05 3e
       -0.053324338 0.057150032 0.0706412 0.13081035
0003a0 b1 15 b6 bc 8d e6 81 3d eb b6 4e 3d 5b bc a7 3d
       -0.02222714 0.06342802 0.050467413 0.08190223
0003b0 a6 e2 3d bd 0e a5 19 bd 28 ab 58 bd 4d 1d bb 3c
       -0.046358727 -0.037510924 -0.052897602 0.02284112
0003c0 34 33 90 bd 58 0d 87 bd b2 82 0d 3e 8e f5 a2 bd
       -0.07041016 -0.06594342 0.13819388 -0.07956992
0003d0 51 3c 37 3d d5 1c 1c 3d 18 00 05 3b 5c 2c 31 3d
       0.044735257 0.038113434 0.0020294245 0.043255195
0003e0 70 13 d8 bd d2 0f f6 bc ba f8 81 3d 1d 43 97 3c
       -0.105505824 -0.03003684 0.06346269 0.01846462
0003f0 1d 52 79 bc 79 37 d7 ba 57 fc 77 3d f8 56 15 3d
       -0.015217331 -0.001641973 0.060543384 0.036459893

critic.2.bias f4 [64]
000000 21 98 7f 3d 58 dc e0 bd 3c 95 a3 bd 92 f8 a1 bd
       0.06240094 -0.10979527 -0.079874486 -0.07908739
000010 71 4c e3 3b a8 9b c6 bd 0b 6e c2 3d c0 b9 e4 bd
       0.0069366028 -0.09697658 0.09493645 -0.111682415
000020 46 49 8c 3d 20 f5 b5 3d bc 61 a9 3d 43 19 b7 bd
       0.06849913 0.088846445 0.082705945 -0.08940365
000030 54 69 ed bd e5 9d ea bd 89 94 f4 bd 35 1e 6c bd
       -0.11592355 -0.11455897 -0.11942393 -0.057645995
000040 4e f9 b7 3d 1d bc b7 bd 7e 8f 3d bb 22 27 13 3d
       0.08983098 -0.08971427 -0.002892464 0.03592599
000050 37 7e 59 3d 8f f3 88 3d 34 45 85 3d e8 08 b2 3d
       0.053098883 0.0668708 0.0650734 0.08693105
000060 de 8e 9d 3c 98 f2 a6 3d 84 0f c0 3d c8 09 b6 3d
       0.019233163 0.0815174 0.09377959 0.088885844
000070 da 00 6a 3d 89 a7 99 bd 78 59 c8 3d 22 34 06 3c
       0.05712972 -0.07502658 0.0978269 0.00819114
000080 8f 4f 42 3d 51 1e 1d bc 8f 6c f6 ba cf ca da 3d
       0.047439154 -0.0095897475 -0.0018800664 0.10683214
000090 cf f5 20 3d 88 bb 6a 3d 7a 1a 9a bd e8 87 89 bd
       0.03929692 0.05730775 -0.07524581 -0.06715375
0000a0 7c 3b d2 bd 6d 7a f9 3c 8e d6 cb bd 35 30 6f bc
       -0.10265252 0.030453885 -0.099530324 -0.014598896
0000b0 42 f3 c8 bb d3 98 9c 3d 94 c8 e1 3d 76 1d 43 bd
       -0.006132514 0.076463364 0.11024585 -0.047635518
0000c0 ac 43 8b bc 79 1f 96 bd 68 58 0a bd 87 d8 22 bd
       -0.017000042 -0.07330222 -0.033775717 -0.039757278
0000d0 6a 4f 8a bd 55 31 96 3d 57 01 f4 bd b8 90 3d 3c
       -0.06753428 0.07333628 -0.11914318 0.011570148
0000e0 db 84 c0 bc 33 80 da 3d 6e 86 ec bd 94 cf d3 bd
       -0.02350085 0.10668983 -0.11549078 -0.10342327
0000f0 40 a9 ee bd 49 b8 b3 bb 84 d6 8a 3d da 61 a1 3d
       -0.116533756 -0.005484615 0.06779197 0.07879992

critic.4.weight f4 [1, 64]
000000 3d aa f7 3d b2 9f 85 bb 49 5f 05 be 7f 4c 1d bd
       0.12093017 -0.004077875 -0.1302463 -0.03840303
000010 b6 43 05 3d 65 7c f3 3d 87 26 73 3d f5 37 01 be
       0.032535277 0.11888961 0.059362914 -0.12619002
000020 20 2a a8 3d 5a af e5 bc cb e9 6c 3d ef f4 1f bc
       0.0821116 -0.028037716 0.05784015 -0.009762987
000030 9e f0 cc bd 14 6a be 3d 90 6f d9 bd 5b 36 3d bd
       -0.100068316 0.092975765 -0.10616982 -0.046194416
000040 1e 61 d2 bd 95 a1 b2 bd 1c 91 d8 3d 2e 58 ff 3d
       -0.1027243 -0.087222256 0.105745524 0.12467991
000050 75 a5 88 3d 8c 90 44 bc bb 28 da bd d3 a8 d5 3c
       0.066721834 -0.011997353 -0.106523 0.026081478
000060 6f ff 98 3d cf f9 35 bb 25 0d 1d bc 97 c6 58 3d
       0.07470595 -0.0027767306 -0.009585653 0.052923765
000070 e7 19 71 3d f5 f6 02 3d 29 1f ab bc 03 06 c5 bd
       0.058862593 0.031973798 -0.020888882 -0.09620287
000080 c4 27 a2 bd 52 eb 83 3d 0c a3 a4 bd 19 e5 4f bd
       -0.07917741 0.06441368 -0.08038911 -0.050755594
000090 af 5e 5e bc 55 7b 4c 3d 8a c9 e1 bd 07 0a f3 bd
       -0.013572379 0.049922306 -0.11024769 -0.11867147
0000a0 1c 7f 48 3d 3d 93 a8 3c 37 1d 10 3e 1c 27 a1 bd
       0.048949346 0.020578021 0.14073645 -0.07868788
0000b0 ce 03 6c 3d d4 da d4 3d dc 8f fa bd 96 53 fb 3d
       0.057620816 0.10393301 -0.1223447 0.12271802
0000c0 e9 8f 19 3e 7c 85 bd 3d 38 79 b7 bd 6e 68 8c 3d
       0.14996304 0.09253976 -0.089586675 0.06855856
0000d0 f7 ce 82 3c 7a 71 18 3d b5 33 e8 3d 01 2d 7b bd
       0.01596783 0.037217595 0.11337987 -0.061322216
0000e0 27 b9 07 bd b7 c2 a1 bd 8e dd c8 bd 8b 12 dc bd
       -0.03313556 -0.07898467 -0.09807883 -0.10745724
0000f0 27 85 50 3b 7b fb 1b be c3 fb 66 3d 0b 81 8c 3d
       0.0031817646 -0.15232651 0.056392442 0.068605505
